RL/ablation_No_RNN_20260129_031527/best.pt (torch, 783126 bytes, 31 tensors)

gcn1.lin.weight f4 [64, 10]
00000000: 2cc5 103e 8fb9 8f3e 640b 3ebe d0cd 46bc
00000010: 338f 2cbe 6e91 433e f1bc 103e bc10 7a3e
00000020: 3b0d 283e f479 81bd 8e17 8fbe dbaf a23d
00000030: b395 9b3e 5cf3 f1bd ff13 35be 9f4c 923e
00000040: 2aab 52bd 8a61 943e 7a18 c1bb 51ab 253e
00000050: 3cf5 75bc 3b3e 98be 3c82 0b3e 2aa8 a63d
00000060: 3578 8bbe 1452 cebd bb24 8dbd ee1f 833e
00000070: f9b8 0b3e 175d 64bd a465 663e 443a edbc
00000080: 0977 5f3e 8c6c 23be da7c 2fbe f7f8 8a3e
00000090: dd11 93bd 25b1 b2bd 9880 9ebe 7faa 15be
000000a0: 751c 6c3e 9702 1a3d ec1a 073d bb2c 863e
000000b0: ba17 c8bb a810 9d3d 033a 38be 05c0 55be
000000c0: 04c6 9bbe 8a50 47be e9ed 8b3e e497 103e
000000d0: d8ca 89be c14f 42bd 7f50 293d 20ee 493c
000000e0: 5b91 a2bc 91d1 1d3d 102c 443d 4783 24bd
000000f0: 7de6 fcbb 34c3 153d 7b51 f13d a2bb 97be
00000100: b58e 40be 00db cdba a5a6 8cbe f3e9 79bd
00000110: 9725 9dbd 8284 ecbc 0628 903e d1c4 94bb
00000120: 4f41 37be 0753 503e c7bc 2bbd d4c5 79be
00000130: c052 143e ab3b c6bc 37b4 02be 89c8 313e
00000140: d2c9 963e 6664 3bbe 7526 3dbe fe26 a33d
00000150: 0821 52be f2e5 74be 1965 5fbd 37ac 32bc
00000160: 9885 0f3d d075 fabc aed5 743e 7d37 a53c
00000170: 68ee 8fbe a4d9 c13c e4b4 d43d f26a 4f3e
00000180: bbee 96bd 9e53 0b3e 5aec 463e bfc9 59be
00000190: ff95 3c3e 04f4 30be 5ae8 f93d 8967 19bd
000001a0: 0b1d 85be c06f 0f3d 48c9 7ebe eae4 56bd
000001b0: dbe2 bc3d aa0a 3dbe 99ff 163e bcc4 72be
000001c0: 2746 3c3e 3714 ffbd dbb3 803e a831 033d
000001d0: 97c5 af3c c1fc 9e3e 3873 763d 22b4 763e
000001e0: 6fbd 793e a3f8 923e bf29 fdbd fdd0 92be
000001f0: 75e2 3d3e 0e55 4a3e 8443 4cbd ae9a 80be
00000200: 21e1 7a3e b50c 7e3e aed6 03be 1415 87bd
00000210: c1f6 d83d fc37 30be 1fb3 21be 9d8d 983e
00000220: 4126 2fbe cb5e e43d 1169 bc3d 6151 933e
00000230: f5d0 803e 2889 943d 18bc 81be a062 af3d
00000240: 76ee 49bd d213 62be b13f 3b3e 5918 86be
00000250: 589e 49be 17b1 97be 85fb 3ebe d079 9e3e
00000260: b438 fa3d bbc8 923e d33a 6fbe a0b1 4bbe
00000270: f505 93bd db8c 57bd feff 98be b8ca 82be
00000280: e8a2 963d 2518 813e a7f5 8bbe 289f 4cbe
00000290: a91b 983e e9c6 18be 48b7 0e3d 4628 a2bd
000002a0: b727 c5bd 2b03 b03d 03af 44be e8e8 e0bd
000002b0: 14ec 39be 1a77 563e 5d55 bf3d 5f2c 5bbe
000002c0: 6c19 9b3e f8a3 85bd 9ea6 0b3e b669 de3d
000002d0: 0dbb 9a3d e5db aebd 7185 223c 3196 7f3e
000002e0: 3556 9bbd 6e94 433e b6c4 a8bd b500 323e
000002f0: e41a 42be 6bc9 31be d8e3 ac3b 6728 e33d
00000300: eb3d 363e 033c 453e 8ee4 2abe 3ffd 833e
00000310: 887c 4c3e 018a 2e3e 6ebd aebd db0d 4b3e
00000320: 9cf7 f33b 9afa b8bd 6baa dd3d c6cd 40be
00000330: c731 23be d222 3c3e 2812 823e 648d 49be
00000340: 895a 05be 5626 7d3e a899 bebd 34eb 903d
00000350: 7436 1bbe 390c 57be d0c6 67be 5050 2bbd
00000360: f45f 8c3d 7a1d 58bd df3f a03e 4d9d 95be
00000370: f5b9 753d 01c6 cdbd 9791 babd 551d 48be
00000380: 784f 88be 5c60 9bbe cb7d 89bd f2f6 e9bc
00000390: dec2 fabd ca2a 0bbe 8ac7 a0bd faaf 90be
000003a0: 22e3 713e c463 98be 0be1 373e a072 bbbc
000003b0: 87d9 8bbe fb7d 3ebd 1af3 883e 2309 593e
000003c0: 0ed2 bbbc 272f ea3d 4074 603e 6e9c 9cbb
000003d0: 8880 a33c e489 bb3d 44e1 48be 7571 a8bd
000003e0: 417e 77be d302 413e 1adb f3bd 8777 8c3e
000003f0: 30c0 533e 3b3a 50be 042b 85bb 34ac 973d
0.14137715 0.28071257 -0.18559033 -0.01213403 -0.16851501 0.19098446 0.14134575 0.24420446
0.16411297 -0.06322089 -0.27947658 0.07943698 0.3038765 -0.11813995 -0.17683409 0.28574082
-0.051432766 0.28980666 -0.0058928104 0.16178633 -0.015012082 -0.29734978 0.13623899 0.081375435
-0.27240148 -0.10074249 -0.068917714 0.25610298 0.1364478 -0.05575284 0.2249971 -0.028958447
0.21822752 -0.15959376 -0.17137471 0.2714307 -0.071811415 -0.08725194 -0.30957484 -0.1461582
0.2305773 0.037600126 0.03298466 0.26206002 -0.006106344 0.076691926 -0.1799088 -0.20874031
-0.3042451 -0.19464317 0.2732995 0.14120442 -0.2691257 -0.04743934 0.041336533 0.01232484
-0.019844702 0.038529936 0.047893584 -0.04016426 -0.007717906 0.036563113 0.11783119 -0.2963534
-0.18804438 -0.0015705526 -0.2747089 -0.061014127 -0.07673185 -0.028871778 0.28155535 -0.004540064
-0.17896007 0.20344172 -0.04192808 -0.24391872 0.14484692 -0.024198374 -0.12764059 0.17361654
0.29450852 -0.18300018 -0.18471701 0.079664215 -0.20520413 -0.23915842 -0.054539774 -0.010905317
0.035039514 -0.030573756 0.23909637 0.02016806 -0.28111577 0.02366335 0.10386065 0.2025564
-0.07369753 0.13606116 0.19426098 -0.21268366 0.18416594 -0.17280585 0.12202521 -0.037452254
-0.2599872 0.035018682 -0.2488147 -0.052464403 0.09222957 -0.184611 0.1474594 -0.2370786
0.18386136 -0.124550276 0.2513722 0.032029778 0.021456523 0.3105221 0.060168475 0.24092153
0.2438867 0.2870532 -0.12361478 -0.2867507 0.18543418 0.19759008 -0.049869075 -0.2511801
0.24499942 0.24809535 -0.12874863 -0.06595817 0.105939396 -0.17208856 -0.15790986 0.29795542
-0.17104436 0.11150893 0.09199727 0.28773025 0.25159422 0.07252723 -0.25338817 0.08563733
-0.04929968 -0.22077873 0.18286015 -0.2619045 -0.1968931 -0.29627296 -0.18650635 0.3095231
0.122178465 0.2866877 -0.23362283 -0.19891977 -0.071788706 -0.052624565 -0.29882807 -0.25545287
0.07355291 0.25213733 -0.27335855 -0.19982588 0.29708603 -0.14919628 0.03484276 -0.07917838
-0.09626716 0.08594354 -0.19207387 -0.10981923 -0.18156463 0.20943871 0.09342454 -0.21403645
0.30292833 -0.06525415 0.13637778 0.108600065 0.07555208 -0.08538035 0.00991951 0.24959637
-0.07584802 0.1909959 -0.08240645 0.17383082 -0.1895557 -0.17361991 0.0052761845 0.110916905
0.17797057 0.19261174 -0.16688749 0.2577915 0.1996938 0.17044832 -0.085322246 0.19829504
0.007445289 -0.090321735 0.1082352 -0.18828496 -0.15936957 0.18372658 0.25404477 -0.19682842
-0.13022818 0.24721655 -0.09306651 0.070761114 -0.15157491 -0.21000756 -0.22634435 -0.04182464
0.06854239 -0.052762486 0.3129873 -0.29221573 0.059991796 -0.10047532 -0.091098 -0.1954244
-0.2662313 -0.30346954 -0.06713446 -0.028560136 -0.12244199 -0.13590541 -0.07850559 -0.2825926
0.236218 -0.29763615 0.17956941 -0.022881806 -0.27314398 -0.046506863 0.26747972 0.21194892
-0.02292731 0.11434775 0.21919346 -0.00477939 0.01995875 0.0915716 -0.19617182 -0.08224765
-0.24169256 0.18848734 -0.11907025 0.27434942 0.20678782 -0.20334713 -0.0040639658 0.07405892

gcn1.lin.bias f4 [64]
00000000: 3cbc 9b3e 9b70 ac3d f152 853c 792e 83bb
00000010: 1638 d6bd 874e 38be 44b1 953e db35 61be
00000020: 56a3 9b3e 5660 44be 133e 89be 18ec 913e
00000030: 1238 693c a2c8 a0bc bd7d 363e b7c2 9f3e
00000040: d2b0 bfba 354f 37bd a6db 003e 5f7a 613e
00000050: b81d b6bd 5ff5 203e 840e 3abe 5ed3 543e
00000060: a37e 9bbe 4d6a 11bd 015c 683d a53b 3a3e
00000070: c5fb 9f3e 578a a63d c9e8 b93d e070 703e
00000080: 7af0 983e c2cd 1e3e 8ce1 713e 42c3 d33c
00000090: fc7f 8cbe fa79 28bd 0242 7a3e fe3c 213e
000000a0: 39ba 08bd d3f9 3abe 35bd bfbd b394 423e
000000b0: 512e 6cbd 807b 4a3a c53b b03d 3e60 3fbd
000000c0: b9b6 8bbd f015 c83d 5141 67be ba3d 80bc
000000d0: eedc 41bd c3ab 0abe e44b 9d3d bc9f 47be
000000e0: e03d c6bd d271 123e bfec 9e3d 745a 76be
000000f0: a914 5e3c 16f2 1cbe a699 0d3e f640 a93d
0.3041705 0.08419915 0.016274901 -0.0040033427 -0.10459916 -0.17998706 0.29236805 -0.219932
0.30398053 -0.19177374 -0.2680517 0.28500438 0.01423456 -0.01962692 0.17821403 0.31203243
-0.001462484 -0.044753272 0.12583789 0.22019337 -0.08892387 0.15718602 -0.181696 0.20783755
-0.30370054 -0.035501767 0.056728367 0.18186815 0.31246772 0.08131855 0.09077603 0.23480558
0.2987097 0.15508178 0.23621196 0.025849942 -0.27441394 -0.04113195 0.24439242 0.15745923
-0.03338072 -0.18259363 -0.0936226 0.19002037 -0.05766136 0.00077240914 0.0860515 -0.046722643
-0.06821961 0.09769809 -0.2258351 -0.015654434 -0.047329836 -0.13542084 0.076804906 -0.19494528
-0.096797705 0.14301232 0.077599995 -0.24057943 0.01355473 -0.15326723 0.13828143 0.082643434

gcn2.lin.weight f4 [64, 64]
00000000: 1a73 3b3c 3547 5cbd e1ad eabd e0e0 033d
00000010: 2011 333d 97b9 ddbb 6b21 8b3d b9fb 2a3d
00000020: 146a 07be 40c0 cb3a 178f 563d cf77 04bd
00000030: 713b e23d d419 fa3d 8b94 25bc a1ad c23d
00000040: 513f 193d 9e9b 25bd 4d89 423d 17f1 b9bd
00000050: 220d 983c 8cce c1bd 3ee7 ee3c f161 06bd
00000060: 758b 4cb9 0a1d eebd a330 d53c 66e2 8d3d
00000070: b01e 483d 6bb4 1cbb f852 6b3c d264 c3bd
00000080: 8007 49bd fea1 26bb 76bd 873d bff0 843b
00000090: 553f 99bd 7ee5 3a3d 0aa1 a03d 7ecc d13d
000000a0: 96c3 803d 5655 6abd ea9f 003d 729e 2b3d
000000b0: 46d2 603d 5a3b e2bc 4580 1d3c c0e7 32bd
000000c0: f7fb b6bd db07 653d 464d 883d b3e7 e23d
000000d0: fbd9 6e3d 0d36 ef3d 7799 d2bd 1005 b03d
000000e0: d56f 523c bb01 bcbd 2cd9 b83d afe4 383d
000000f0: 6ecb fabc 679f b93c 2c5d 44bd 0b46 db3d
00000100: df07 a6bd 6c25 d83d 1408 603d 36d3 51bd
00000110: 1a83 cb3c d4fd 153d 9775 6b3d 465e f33d
00000120: 5263 a5bd 93aa 72bd 30c4 43bc e359 9b3d
00000130: 9394 dbbd 4426 bbbd ce42 95ba 9bcc 73bb
00000140: 1679 82bd 3606 e53c 53ba 573d 1289 78bd
00000150: dad5 00be 339f b6bd 3927 5fbc 9ee4 b83b
00000160: b9a0 9a3d b4aa cd3b 2e0a 953d 633a fd3d
00000170: 0f18 24bd b4f7 e33d 62aa 283b 4299 ddbd
00000180: 54b8 c23c 75f6 bcbd 5f4f f93b 4cd9 e8bc
00000190: 8010 a0bd 90a9 42bd b765 58bc 3f43 b8bc
000001a0: 46e6 6d3b 7207 c7bd 0217 d9bd 16a4 f8bc
000001b0: a348 d03d fb04 c4bd eaa1 be3d fb99 ee3d
000001c0: 2fc2 4e3d fb04 02be 2638 5f3d 185e 03bd
000001d0: a46c 99bd c299 e7bd 3761 4bbc 782e afbc
000001e0: b9e4 a73c 903a c0ba 61c8 f23c bcb3 803d
000001f0: 2a73 8cbd e314 d43c 5ed1 aa3c c240 323a
00000200: 2daf 1c3d 3193 ecbd 7601 82bd 9d2d c1bd
00000210: 1b4a c1bd c2b7 adbc f909 9fbd dfb6 c0bc
00000220: d280 77bb 8e33 8cbd 202c afbb 7b64 873b
00000230: d542 be3d b315 853d 533d e0bc af6c 973d
00000240: 33c2 bebd b465 fb3d 7ae7 273d db28 88bd
00000250: f024 c43d 5d7a 9c3d f4c7 7abd 0b58 ef3d
00000260: dd46 4a3d 3147 eabd 1d3e a6bd ce30 8ebd
00000270: 33d8 39bd a605 e6bd 210b c4bd 79ab 843c
00000280: 55ac c33d e678 c6bd 0c12 53bd 3897 8fbd
00000290: f097 313d d09b 863c 1f12 e7bd 9dbd a23b
000002a0: 301e eebd 7a02 78bd 6dd1 e5bd dd54 82bd
000002b0: 24e1 d73d b8ef b33d a9c8 6ebd cdc9 dc3d
000002c0: bb7e 2f3c 7eb8 b7bd 1815 2abd bacd 04bd
000002d0: b6bf e2bd 1581 9dbd 9782 d2bd ad51 ec3c
000002e0: c62b 873d 0dca dabd 9fb0 5f3d 5f60 bc3d
000002f0: 3f4d ad3d 7a58 443d 8b18 0ebc fa65 d33d
00000300: ee21 fc3c bf10 cdbd f197 f2bd c7dc 82bd
00000310: aa76 48bc 0572 cb3b 2668 2abd 531e c4bd
00000320: 8399 523b 6bd6 983d ab30 3e3d 977c ba3d
00000330: 8c84 51bd 7c54 c5bc a8d8 ebbd bd60 92bd
00000340: 0698 c83c dd0e 973d a0a6 d03d 7658 b63d
00000350: 415c 75bc 4f14 3ebd aedc e83d 7928 cbbd
00000360: 7688 3c3c 8981 af3d 75b8 9bbd 3d59 98bd
00000370: ec45 f1bd 23d5 d7bc 625b c93d 4df5 e73d
00000380: 9088 cbbb e046 f3bd c949 e4bd 71e4 853d
00000390: b603 aa3d d27f d73c f020 47bd 754d ff3d
000003a0: 5d27 97bd 275f 553c 14b7 88bd a213 a6bd
000003b0: ebfb 8cbd 6f0f 343d 62ec 5f3d d54e 773c
000003c0: 79c6 093d b78e a2bd 7d45 aabc 273a b53c
000003d0: e57f 17bd f1fa e43d 379e d53d ca47 d8bd
000003e0: 6246 ca3c bd2f 013d c8b2 aebd 6c0d 8f3c
000003f0: 7cc2 bdbd e280 6d3d 478b 75bd 7155 0cbd
0.011441017 -0.053778846 -0.11458946 0.03219688 0.043717504 -0.006766509 0.06793483 0.041743968
-0.1322406 0.0015544966 0.052382555 -0.03234082 0.11046494 0.122119576 -0.010106216 0.09505773
0.0374139 -0.04043161 0.04749422 -0.09079187 0.01856095 -0.09463224 0.029163 -0.032808248
-0.00019506908 -0.116266325 0.026024168 0.06927948 0.04885739 -0.0023911248 0.014363043 -0.09540714
-0.04907942 -0.0025426145 0.06627934 0.0040570195 -0.07482783 0.045629017 0.07843216 0.10244082
0.06287305 -0.05721029 0.031402506 0.041899152 0.054888032 -0.027616192 0.009613101 -0.043678045
-0.08934777 0.055915695 0.06655364 0.11079349 0.05831335 0.11680231 -0.10283177 0.085947156
0.012844046 -0.091800176 0.09025797 0.045139965 -0.030614581 0.022659017 -0.047940418 0.10706719
-0.0810697 0.10554013 0.054695204 -0.051226817 0.024842788 0.036619022 0.05748519 0.118832156
-0.080755845 -0.059244704 -0.01194863 0.07585504 -0.10721698 -0.09138158 -0.0011387707 -0.0037200812
-0.063707516 0.027957063 0.052667927 -0.060677595 -0.12581578 -0.089170836 -0.013620191 0.0056424877
0.07550187 0.006276453 0.07277332 0.12364652 -0.040062007 0.1113123 0.0025736322 -0.10820247
0.023769535 -0.092266954 0.0076083387 -0.028423928 -0.07815647 -0.04752499 -0.013207844 -0.022493003
0.0036300584 -0.09718217 -0.106000915 -0.03035168 0.10170104 -0.095712624 0.093082264 0.11650463
0.050478157 -0.12697212 0.054496907 -0.032072157 -0.07491425 -0.11308624 -0.012413315 -0.021384463
0.020494806 -0.001466589 0.029636564 0.062842816 -0.06857903 0.025888866 0.020851787 0.0006799811
0.038253 -0.11551512 -0.06347935 -0.09432528 -0.094379626 -0.021205787 -0.07765574 -0.0235247
-0.0037765992 -0.06845771 -0.0053458363 0.0041318513 0.09290091 0.064982794 -0.027372992 0.073937766
-0.09314384 0.12275258 0.040992238 -0.066484176 0.09577358 0.076405264 -0.061225846 0.11686715
0.049383987 -0.1143936 -0.08117316 -0.069429025 -0.0453722 -0.11231546 -0.09572435 0.016195046
0.09554354 -0.09691028 -0.051530883 -0.070112646 0.04335779 0.016431719 -0.11282753 0.0049664513
-0.116268516 -0.060549237 -0.112215854 -0.06363843 0.10540989 0.08785957 -0.058296833 0.10780678
0.010711367 -0.08970736 -0.041524023 -0.03242276 -0.11071722 -0.07690636 -0.10278814 0.02884754
0.06600146 -0.106830694 0.0546118 0.09198069 0.08461999 0.04793594 -0.008672844 0.10322185
0.030777898 -0.1001296 -0.11845387 -0.06389766 -0.012235323 0.0062086605 -0.04160323 -0.095760964
0.0032134957 0.07462772 0.046433132 0.09105795 -0.051151797 -0.024088137 -0.11515933 -0.071473576
0.024486553 0.07375882 0.10188031 0.08903591 -0.014975608 -0.046406087 0.11370216 -0.09919829
0.011507144 0.08569629 -0.07603542 -0.07438896 -0.11780915 -0.026346749 0.09831883 0.11326084
-0.006211348 -0.11878753 -0.11146886 0.06537712 0.08301489 0.026306067 -0.048615396 0.12465946
-0.07380555 0.013023174 -0.066755444 -0.081092134 -0.06883987 0.04396003 0.05466879 0.015094479
0.033636544 -0.07937377 -0.020785088 0.022122456 -0.036987204 0.11180676 0.10430568 -0.10560568
0.024691764 0.031539667 -0.085301936 0.017462455 -0.092656106 0.05798424 -0.05994728 -0.03426117

gcn2.lin.bias f4 [64]
00000000: 36c8 99bc 313c 5b3c cdd0 1abb eaf8 2bbd
00000010: 13fe fcbc 7944 3bbc 16dc 133d 2d83 5d3d
00000020: 4c71 33bd d48e c7bd fc6e 2c3d dfc9 cabd
00000030: 5251 d13d 3f9f 11bd c9f3 d1bd f8c6 33bd
00000040: 0baa 34bd 90ad 8bbd 3f9d 96bd eedd bf3d
00000050: b93b d8bd f890 c3bd db60 01be 2d3c f2bd
00000060: 8597 19bd b777 fabd cf5e 5fbd eade 94bd
00000070: aedd d33d 5b20 cabd 91c7 9f3c 367f bc3d
00000080: 355b 53bc 94ef 9b3d bb58 7a3d cdca 40bc
00000090: 7cf0 d1bd fc9c 7e3d 60fb 91bd cbbc e63d
000000a0: 4ae0 f03d ec71 b03d 8303 863d 3080 80bc
000000b0: 5a6b 07bd a8c4 5ebd b325 64bd 7df2 d5bd
000000c0: b270 a9bd b025 e5bd 94b3 333d 4b06 4d3d
000000d0: bf0b 91bd abb7 a5bd a1f4 133c ce58 d53d
000000e0: 173b b43d 55f1 3f3d 1f77 ec3d a1a3 e63c
000000f0: a926 f73d f363 c13b e204 a7bd 4078 173d
-0.018772226 0.01338105 -0.002362299 -0.04198543 -0.03088287 -0.011429899 0.036098562 0.054080177
-0.04380922 -0.09744039 0.04209803 -0.09901785 0.10220589 -0.03555226 -0.102515765 -0.043890923
-0.044107478 -0.06820214 -0.07354211 0.093685016 -0.10558266 -0.09549135 -0.12634604 -0.11827884
-0.037498016 -0.12229865 -0.054533776 -0.0726908 0.103450164 -0.098694526 0.01950434 0.09203951
-0.012900163 0.07614055 0.061119776 -0.0117671015 -0.10250947 0.06216143 -0.07128024 0.11266478
0.1176153 0.08615479 0.065436386 -0.015686125 -0.033061363 -0.054386765 -0.055700015 -0.104466416
-0.08273448 -0.11188829 0.04387243 0.05005483 -0.070823185 -0.080916725 0.009030492 0.10417329
0.08800333 0.04686101 0.11546158 0.028154196 0.12067921 0.0059018075 -0.08155228 0.036979914

no_gnn_proj.weight f4 [64, 10]
00000000: 48fd 853d ee2a 95bd 1e03 563e 09cd 16be
00000010: b063 b53c 1dce 8e3e 90a1 173e 0db6 a13e
00000020: 003b e03b 0a77 97be 1c78 75be a3f9 9b3e
00000030: e0b3 19bd f97e 3cbe bc71 b63d 938d 853e
00000040: 808d 49be 0a19 083e b697 023e 0020 77be
00000050: 9da0 913e cb77 8c3e 9b9a 8d3e 008a 5fbb
00000060: e6cf 83be a124 0abe 68f4 4abd f3eb 913e
00000070: 8812 05bd e8e0 c63d 491a 913e e085 78bc
00000080: a86c 1e3d 57cf 33be 1c0d ec3d 164e 15be
00000090: b02d 003e 7408 7fbe 4ab5 7d3e a75b 8b3e
000000a0: 6b19 9c3e 6282 323e 368b b9bd 1cc6 a9bd
000000b0: 744f b13d ba33 663e 8c54 5fbe 50fe 073d
000000c0: 7e57 8abe 1bf4 883e 8a0a 173e d458 be3d
000000d0: 0836 20be 3350 983e 03a8 90be 627d 483e
000000e0: 3b94 973e 1a06 4e3e 6cfe ff3d 8bec 8c3e
000000f0: 0e02 17be 3e6c aabd c0b7 c0bc ab8b 42be
00000100: ee5e 9dbe 9e7a 0c3e 02be fabd c87f 5e3d
00000110: b240 b2bd d69c 6b3e 61aa 903e f214 fdbd
00000120: aa74 733e 23c0 843e 70c6 79bd d826 4abd
00000130: 201d d43d 7a99 3a3e 60d8 a33d aa81 a0be
00000140: 4809 153d ea69 9bbe da7b d3bd 67ba 933e
00000150: 686b 5fbd af10 8e3e 91d5 95be 4e48 6f3e
00000160: 3451 b73d 70df 0cbd d850 273e a094 233d
00000170: 2479 e53d de4c 99be e418 52be 49b1 95be
00000180: 2108 833e e893 c53d 3316 08be d094 a33d
00000190: b17f 9cbe f230 0f3e 3eaf 7b3e 00a0 cd38
000001a0: 72bf 503e 96e9 adbd e1dd 963e 5061 9fbc
000001b0: e838 26bd d962 a13e 6026 6dbe 30af bebd
000001c0: 70e1 643d 3648 d0bd 4cef 65be 54e7 76be
000001d0: 8db8 3bbe aaec 9ebe 977e 2ebe 514a 30be
000001e0: 6885 933d d724 36be c086 84bd 4e29 3f3e
000001f0: 865c 453e 8960 943e 10af a33d 9421 f1bd
00000200: d0b7 e23d 7fb2 9abe 10e4 fcbd ce0a 93be
00000210: 4ea1 233e 4889 293e d4ea 24be c48b 93be
00000220: 887a 5bbe 61a4 9bbe 9a61 7d3e 26af 85be
00000230: 96c3 69be c80f 92bd 74f2 cf3d 5410 3b3e
00000240: 622d 6abe 5f24 9e3e 96ea 80be 778b 83be
00000250: 6850 0abe b0ae 71bd 3e21 36be cd54 863e
00000260: 50e7 c83c e82c 57bd f779 8a3e d43e ee3d
00000270: 3ad6 4d3e 8f1c 9b3e 78c5 5e3d 7367 88be
00000280: 866b 74be f9e1 51be 138f 933e c6a0 793e
00000290: bc7b b3bd 7c8a 52be daf0 5e3e e65d 87be
000002a0: ef70 8f3e 5ed2 85be b4af 17be 7afe 443e
000002b0: 88eb ec3d 06b5 613e 7737 6cbe 5a16 723e
000002c0: 61a0 a13e 32ea 7b3e f098 edbc 8024 19bb
000002d0: 6661 1c3e c6cf 4f3e e058 fcbc dc2d a43d
000002e0: cc44 913d 00d7 943d 5083 96bc 9aed 7abe
000002f0: 003b 903a 91d6 85be fee9 4a3e 9f7e 813e
00000300: 10a7 113d 2614 483e ecfa b43d 0003 ab3d
00000310: d68e 66be 90d9 46be 9afd 5f3e e01a a2bc
00000320: d839 0dbd 8092 81bc be09 7d3e 8892 76be
00000330: 29b2 96be fefe 9fbe 8038 7ebc ca71 dcbd
00000340: 9a5d 27be 408f 0f3e 309c 27bd 6a07 543e
00000350: 94bb e33d 80b7 c13c 320e 023e 9ec0 a1be
00000360: 463a 453e 40bf c93b d0e2 6f3d 68bf 3b3e
00000370: 2b3f 53be f0b6 f8bd 90ac 2f3d 6a32 96bd
00000380: 8845 ba3d 217b 8fbe 4581 2ebe 0b6a 51be
00000390: e40c 1b3e d539 873e 108b 2f3d 00e8 173e
000003a0: 77dc 933e 10c4 0bbd 4a9c 583e 31e0 96be
000003b0: 3e33 4e3e 1098 09bd f4a8 bd3d f0e2 8d3c
000003c0: f446 76be e069 b43d 2c92 fdbd 7a12 733e
000003d0: 0026 11bc c0d5 513c da9c 703e 76b9 5d3e
000003e0: 5f2b 12be eed5 55be fd97 1bbe b281 353e
000003f0: 6559 14be 003f 523b 26fe b8bd 5170 a03e
0.0654245 -0.07283579 0.20899627 -0.14726652 0.022142261 0.27891627 0.14807725 0.31584206
0.006842971 -0.29583007 -0.239716 0.30463895 -0.037525058 -0.18407811 0.08908412 0.26084575
-0.19682884 0.13290802 0.12753186 -0.24133301 0.2844285 0.27435145 0.27657017 -0.0034109354
-0.2574455 -0.13490535 -0.04954949 0.28500327 -0.032488376 0.09710866 0.28340366 -0.015168637
0.03867784 -0.17559563 0.11525938 -0.14580569 0.12517428 -0.24905568 0.24776188 0.27218363
0.30488142 0.1743255 -0.090597555 -0.082897395 0.086577326 0.2248067 -0.21809596 0.033201516
-0.27019876 0.26748738 0.14750114 0.09294286 -0.15645611 0.29748687 -0.28253183 0.1957908
0.29605278 0.20119515 0.12499699 0.27524218 -0.14746878 -0.08321427 -0.023525119 -0.18998592
-0.30736488 0.1371865 -0.12243272 0.05432108 -0.08703746 0.23009047 0.2825499 -0.123575106
0.23774973 0.2592784 -0.06098026 -0.04935345 0.10357118 0.18222609 0.08000255 -0.31348926
0.036385804 -0.30354244 -0.10326357 0.2885315 -0.05454579 0.27747104 -0.292645 0.23367426
0.08951035 -0.034392774 0.16339433 0.03993666 0.11204746 -0.29941458 -0.20517308 -0.2923682
0.2559214 0.096473515 -0.13289718 0.07987368 -0.3056617 0.13983515 0.24578568 9.804964e-05
0.2038553 -0.084918186 0.29466155 -0.019455582 -0.040581614 0.31520727 -0.2315917 -0.09310758
0.055879056 -0.10170023 -0.22454566 -0.24111682 -0.1833212 -0.31039935 -0.17040478 -0.1721585
0.072031796 -0.17787491 -0.06471014 0.186681 0.19273576 0.289799 0.07992375 -0.11773983
0.11070216 -0.30214307 -0.12348187 -0.2871918 0.15979502 0.16556275 -0.16105205 -0.2881757
-0.2143346 -0.3039885 0.24744263 -0.2611019 -0.22828516 -0.07131916 0.10153666 0.18267947
-0.22868875 0.30887124 -0.25178975 -0.2569234 -0.13507235 -0.059004486 -0.17786118 0.26236573
0.02452436 -0.05253306 0.27046177 0.11633077 0.20101252 0.30295226 0.05438754 -0.26641425
-0.23869142 -0.20496358 0.28820094 0.24377736 -0.08763835 -0.2056064 0.21771565 -0.26438826
0.2801585 -0.2613706 -0.14813119 0.192377 0.115683615 0.22041711 -0.23068033 0.23641339
0.31567672 0.24601057 -0.02900359 -0.0023367703 0.1527153 0.20294103 -0.030804098 0.080165595
0.070932 0.072675705 -0.018373162 -0.245047 0.0011003911 -0.26140264 0.19815823 0.25291917
0.035559714 0.19538936 0.08836922 0.083501816 -0.22515425 -0.19418931 0.21874085 -0.019788206
-0.034478992 -0.015816927 0.24710748 -0.24079335 -0.294328 -0.3124923 -0.0155164 -0.10763891
-0.163443 0.1401949 -0.040920436 0.20705953 0.11119762 0.02364707 0.12700728 -0.31592268
0.19260511 0.006156832 0.058565915 0.18334734 -0.20629565 -0.121442676 0.042889178 -0.073338345
0.09095293 -0.28023627 -0.170415 -0.20450608 0.15141636 0.2641131 0.04285723 0.14834595
0.2887914 -0.034122527 0.2115337 -0.2946792 0.20136735 -0.033592284 0.09260741 0.017320126
-0.24050504 0.088092566 -0.12381396 0.23737517 -0.008859158 0.01280731 0.23497334 0.21652779
-0.14274357 -0.20882389 -0.15194698 0.17725256 -0.14487226 0.0032081008 -0.0903285 0.3133569

no_gnn_proj.bias f4 [64]
00000000: 6ca1 153e bd4c 833e 40b1 5cbe 4171 8f3e
00000010: 96ed 543e 2245 363e 269e 1dbe 0526 9a3e
00000020: bba2 8f3e 5238 693e d37c 98be b6d5 98be
00000030: 02ed 443e acf8 c33d 8a3c 4dbe 12fa 793e
00000040: 5ab8 763e 3350 08be 2e60 613e ec9d 303e
00000050: 4bd6 9fbe 765a 17be fcf8 67be 88f6 2bbe
00000060: f8e2 753d 5cc4 b73d 59e2 86be 3ec8 d0bd
00000070: cf7d 0cbe 1861 cf3d 22f2 263e 0014 f1bd
00000080: a28e 713e 3710 913e f985 973e 4852 48be
00000090: c661 46be f369 20be a23c 5d3e c812 0abd
000000a0: b44f 65be ee03 6abe 00f8 6639 daae 3e3e
000000b0: 807e 883b 03a9 44be 806f 8b3d 2882 1fbe
000000c0: b0c8 7dbd 40d4 e9bc 120b 85be 839a 843e
000000d0: 0156 903e 9295 0e3e b410 013e 396c 9a3e
000000e0: 9c98 fa3d 4603 48be 7049 52be 30dc 7cbe
000000f0: 5c14 63be 0023 0a3d 20b6 a33c f144 4dbe
0.14612359 0.25644484 -0.2155199 0.28016093 0.20793757 0.1779981 -0.1539236 0.30107132
0.2805384 0.2277539 -0.29782733 -0.29850549 0.19231036 0.09568915 -0.20042625 0.244118
0.24093762 -0.13311844 0.22009346 0.17247742 -0.3121818 -0.14780602 -0.22653574 -0.16793263
0.060030907 0.089729995 -0.26344565 -0.10194443 -0.13719867 0.10125941 0.16303304 -0.11771393
0.23589566 0.28332683 0.295944 -0.19562638 -0.19373235 -0.15665416 0.21605161 -0.033709317
-0.22393686 -0.22853062 0.00022026896 0.18621388 0.0041654706 -0.19205098 0.06808376 -0.15576994
-0.06195897 -0.028543591 -0.25985008 0.25899133 0.28190616 0.13924244 0.12604028 0.30160692
0.12236139 -0.19532499 -0.20535827 -0.2469337 -0.22175735 0.033724785 0.019984305 -0.2004583

post.0.weight f4 [128, 128]
00000000: 9d58 7b3d 2ec5 843d 1265 36bd cc5c 47bd
00000010: 375f 653d 1ba6 5fbc e347 823b 7ac3 183d
00000020: 0237 b6bd 1972 57bd cf6a 303d 3d08 163d
00000030: 3041 683c 5941 a53d 24e2 9b3d c6a0 6bbd
00000040: adfe 89bd dab8 e9bb 1502 0dbb 8290 1c3d
00000050: 65c9 ff3c 7bbd cfbc 0145 b1bd 1bb2 983c
00000060: 26b8 cb3b d139 9d3d aec6 fbbc 7350 f3bb
00000070: 68c4 0cbb 2134 34bd dd44 143d 0859 b0bd
00000080: e9da 253c d15b 063d 1dee b6ba 3b77 2d3c
00000090: be9c 0b3d 39bb a5bd 9cdb 3f3d c119 94bd
000000a0: 94a1 a8bd 465c 84bd 0b91 a0bc adaa ca3c
000000b0: 2f40 b63b 9df7 9cbd a9d6 4c3d 1983 78bd
000000c0: 581d a6bd 4a0e 003d 0063 24bd a8c8 493d
000000d0: dab9 083d 54c4 7bbd f1c3 70bd a294 a03d
000000e0: 6e10 983c 9736 713c e4e7 8bbd 4079 a13c
000000f0: 72fb de3c cc2e 70bd 8c6b 893d 1203 733b
00000100: ba2e dcbc 073a 30bd 25a2 933c 21f0 a5bd
00000110: 0bec a9bd 3d9b 233d 4d19 3f3d 551e 883c
00000120: 9f40 a6bd 10e8 2c39 c1b7 193d f9d6 40bd
00000130: 40ce 813d 94c1 6abd dfff 2fbd f777 0b3d
00000140: d5d0 d9bc d026 cdbc f924 1dbd b417 aa3d
00000150: c683 3cbd 08dc 9fbc 2831 133d f78a d7bc
00000160: 1bf4 0c3d 73df b33d 347c d7bc 5eed 033c
00000170: ee5f 9cbd 84e9 86bd 529d 2dbc 6709 d1bc
00000180: f0d7 57bd c13e 873d bfd6 9e3c 91de 8d3c
00000190: f2ad 703c f95d 0ebd 41d8 8bbd bf46 09bb
000001a0: 0c27 7b3d 22c1 173d 0794 d93c f246 753d
000001b0: 2da4 583d 2046 b93b 1568 303d 63ce a1bd
000001c0: 4a26 26bd 48b2 15bd 7b78 a8bd a88c 04bd
000001d0: 90ee 833d 3b21 e13c 0146 a13d 2bcd e4bc
000001e0: 2f34 05bd 9565 a1bb 21f2 95bd a666 32bc
000001f0: 36e2 983d 9885 f4bb ff6d ad3b 41cd 94bd
00000200: 56bf 7abc 5663 e33c 86dc 0c3d e75e 28bd
00000210: 8470 1d3b f0bb 95bd 205f 8cbd 33ec 01bd
00000220: c72f b2bd 69d9 a53d 595e 9c3d 2167 4d3b
00000230: e90d 033d 6853 163d bd08 37bd 281d 06bd
00000240: f615 23bd c3c4 9e3d b5a0 4c3d 1cab 2fbd
00000250: ab62 873d 58c4 e43c eb82 5c3d f6fd b1bd
00000260: 7578 9b3d 70e8 583c ba05 203d 5fbe 613c
00000270: 275f 453d 6331 8cbd 10c4 cb3c 7959 47bd
00000280: 925a 783c 6b2e 1dbd 9322 923d 89b9 b13d
00000290: 50ef 3bbd 2771 ddbc 7857 923c 1d16 e93b
000002a0: 7722 bfbc 66b3 973c f588 06bc d297 c23c
000002b0: 8bf8 dabc e9d1 83bd ac23 323c 4177 973d
000002c0: 34a9 3cbd 5615 f0bc 4c51 af3d f4d0 99bb
000002d0: 80e3 3cbc d71f 51bd 6076 303d e7fa bc3c
000002e0: f9a5 a13d 8efc 8bbd 8c76 aebd 20df 95bd
000002f0: 20ce f9bb bc0c a1bd d88e dd3c ca21 713d
00000300: a027 c23c e0e0 9cbc 38a5 ad3d 5831 32bd
00000310: 902c 773c f116 40bb 6410 7b3d d18c b8bc
00000320: e505 a03d d419 a6bc d0ed 26bd b6a3 9a3d
00000330: 1ad0 bebb a070 c53b 2afb 44bd 1fde 80bd
00000340: 18b4 443d 955c b3bd 60b7 7f3c 6462 703c
00000350: e426 a7bc 9f22 29bd 9a8a 3b3d 3559 59bd
00000360: 6a12 6b3d a06d 4ebd f3c1 9a3d 7ec2 1bbd
00000370: 05bb a13d dd19 1e3d ced6 b1bd 3d17 3cbd
00000380: 8fe4 72bd 2286 c5bc e447 70bc 13b6 eebb
00000390: c4df a0bd 6a58 a5bd 97d3 91bc 2940 2cbc
000003a0: b9cf 8abd ab35 3bbd c378 013d 54a9 f73c
000003b0: d2f0 953d c242 2abd 6a8f 42bd 44e8 473b
000003c0: 46ad 983c bdad 93bd dc1e 92b9 edb1 a63d
000003d0: a7b2 f43a 6cee 843d 38da 64bd a6de ff3c
000003e0: 3548 b93c 41b9 223b a39b 45bd ca75 18bd
000003f0: 767d 893d 21f0 b43d c14e 793c 26de 4abd
0.061363805 0.064829215 -0.044529982 -0.048672482 0.055999007 -0.0136504425 0.0039758547 0.037295796
-0.08897211 -0.052599046 0.04307061 0.03662895 0.014175698 0.08069105 0.07611492 -0.057526372
-0.06738029 -0.0071326317 -0.0021516134 0.03822375 0.031223962 -0.025358906 -0.086557396 0.018639615
0.0062170206 0.07677043 -0.030734386 -0.007425362 -0.0021479372 -0.043995026 0.036198486 -0.08610731
0.010122993 0.032802407 -0.0013956461 0.010587509 0.034085028 -0.080923505 0.046840295 -0.07231475
-0.082339436 -0.06462912 -0.019600412 0.024739588 0.0055618505 -0.07664416 0.050009403 -0.0606719
-0.081110656 0.031263627 -0.040133476 0.049263626 0.033380367 -0.06146653 -0.058780614 0.078408495
0.018562522 0.014722488 -0.06831339 0.019711137 0.027219508 -0.05863838 0.06709966 0.0037080687
-0.02687775 -0.04302409 0.018021652 -0.081024416 -0.08296975 0.03994297 0.046654988 0.016616026
-0.08117794 0.00016489648 0.037528757 -0.047080014 0.06338167 -0.057313517 -0.042968627 0.034049954
-0.026588837 -0.025042921 -0.038365338 0.08305302 -0.046024106 -0.019514099 0.03593555 -0.02631138
0.034412485 0.08782854 -0.026304342 0.008052198 -0.07635485 -0.06587508 -0.01059659 -0.025517179
-0.05269617 0.06603766 0.019389508 0.017318042 0.014689909 -0.034757588 -0.068283565 -0.002094671
0.061316535 0.03704942 0.026559843 0.05988211 0.052890945 0.0056541115 0.04306801 -0.07900693
-0.04056386 -0.036546975 -0.08226105 -0.032360703 0.064419866 0.027481666 0.0787468 -0.027929863
-0.03252047 -0.0049254396 -0.07321573 -0.010888731 0.07465021 -0.0074622147 0.0052926536 -0.072657116
-0.015304407 0.027757328 0.034389995 -0.04110613 0.0024023363 -0.07311237 -0.06854081 -0.031719398
-0.08700519 0.08098108 0.07635183 0.0031341987 0.031995688 0.036700636 -0.044686068 -0.03274265
-0.039815865 0.07752373 0.04995795 -0.042887792 0.06610616 0.027925655 0.05383579 -0.08691017
0.07591335 0.013239011 0.03906796 0.013778298 0.048186447 -0.06845357 0.024873763 -0.048669312
0.015158312 -0.038374346 0.07135501 0.08677966 -0.045882523 -0.027031494 0.017863974 0.007113232
-0.023331864 0.018518161 -0.008211364 0.023754034 -0.026729843 -0.064365216 0.010872763 0.07395793
-0.046059802 -0.029307049 0.08560428 -0.0046940986 -0.01152885 -0.051055755 0.04308164 0.023068858
0.07892985 -0.0683528 -0.08518705 -0.07317948 -0.007623449 -0.07863757 0.027045652 0.058870114
0.023700535 -0.019150198 0.084787786 -0.04350409 0.015086308 -0.002931055 0.06129493 -0.022528084
0.07813624 -0.020275988 -0.04075414 0.07550757 -0.0058231475 0.006025389 -0.04809109 -0.06292366
0.048023313 -0.08757893 0.015607685 0.014671896 -0.020404287 -0.041292783 0.045786478 -0.05306359
0.057390608 -0.050397515 0.07556524 -0.03802728 0.07896999 0.038598884 -0.08683549 -0.0459206
-0.0593 -0.024111811 -0.014665578 -0.0072848885 -0.0785518 -0.08073504 -0.01780109 -0.010513344
-0.06777901 -0.04570548 0.031609308 0.03023211 0.073213235 -0.04156757 -0.04750005 0.0030503431
0.01863731 -0.07210872 -0.00027870282 0.081394054 0.0018668965 0.06490788 -0.055872172 0.031234097
0.022617439 0.0024829658 -0.04824413 -0.037221707 0.06713383 0.088348635 0.01521653 -0.049528264

post.0.bias f4 [128]
00000000: 3040 723d cd0c 98bd 16a6 ab3c 210d 803d
00000010: df3b b2bc a890 4a3c b704 96bd 732b 8ebd
00000020: 84f3 b7bd ad71 da3b 4c93 8cbd b358 45bc
00000030: bb45 3a3d ad5a 413d 1498 81bb 1f07 0a3d
00000040: 594e 153d f5fc 2a3d 252a b03d e5e6 6fbd
00000050: 3b1c 693d f3f3 57bd fd3d 8f3c a99a 823d
00000060: 7091 243d ed5b 1e3c 202a 9d3d 9c0c 8bba
00000070: 2c24 673b 4513 76bd 732f 813d 6af5 b73a
00000080: 8dc0 e5bc d8e2 e83c 1b9e 8a3d 0bbd 18bd
00000090: ad7b b2bd 87cd 9bbd 9880 1abd 90c2 673d
000000a0: 83b7 b7bd f0ec dc3c de1a ae3d fe72 89bd
000000b0: afcd 81bd bbbd 19bd ac97 7a3c e825 9d3d
000000c0: da5b aabc adaf a6bd e43c 253d 53c9 ad3b
000000d0: d7b8 8dbd 7931 613d 6d24 b03d 66ff b23c
000000e0: 0a17 663d 8863 763b f19f 253d 04a2 3e3d
000000f0: c1d9 8f3d 709d 973d adf4 18bd e010 78bb
00000100: dc46 5e3d ecfa 263c 8ab9 65bd d4c5 4e3d
00000110: d217 45bd 045c 35bd 81ef 5b3d abb8 823c
00000120: 423c 363d 5fe7 7fbd 7f29 17bd b60e 323d
00000130: a9d8 a0bd e7b5 bebc 4189 b73c 6f64 8e3c
00000140: 97c6 32bd 0227 aabd 302c 143d 4ff8 94bd
00000150: 82eb 553d 40c4 d1bc 18bd a73d 1620 183d
00000160: 14b8 853d c58a a83b 1d56 b33c 45da b4bd
00000170: e36e 803c b7c1 8abd 5a69 8a3d f3ad bfbb
00000180: d70a 3e3c 902d f83b 4240 84bc 32af a8bd
00000190: 40d9 253d 5cd6 193d 3e5b 8cbd c3e1 c6ba
000001a0: 2fae 703d ddc3 63bd 7005 b8bd 9540 873c
000001b0: 2109 c3bc 46be 7d3d c021 78bc 8e48 aa3d
000001c0: 1121 1a3d 7e83 3bbd b6a7 563d 5b75 21bd
000001d0: a5b1 0cbd 1c54 d93c 45fd 753d 4a0c ab3b
000001e0: 9b04 4f3d 0f17 d3bc 5abc 9c3d fdcb 1fbd
000001f0: 6e5f 943d ced9 433d e2f6 0cbd 7df1 913d
0.059143245 -0.074243166 0.02095322 0.06252504 -0.021757064 0.01236359 -0.07325118 -0.06941881
-0.08981994 0.0066663832 -0.06864032 -0.012045073 0.045476656 0.047205616 -0.0039548967 0.033698197
0.03645167 0.041745145 0.086017884 -0.058569808 0.05691169 -0.052722882 0.017485613 0.06377155
0.040177763 0.0096654715 0.0767405 -0.0010608616 0.0035269363 -0.06007697 0.06307878 0.0014034931
-0.028045917 0.02842848 0.067684375 -0.03728966 -0.087149955 -0.076075606 -0.037720293 0.056582034
-0.08970549 0.02696845 0.08501218 -0.06711386 -0.06338059 -0.037534457 0.01529495 0.07673246
-0.020795751 -0.08138976 0.040341273 0.0053035407 -0.06920021 0.05497882 0.08600698 0.0218503
0.056174316 0.0037595946 0.040435735 0.04654123 0.07023955 0.07403076 -0.037342716 -0.0037851855
0.054266796 0.01019166 -0.056085147 0.050481632 -0.04811842 -0.044277206 0.053695206 0.015957197
0.04449106 -0.062476512 -0.036904808 0.04347106 -0.07853825 -0.023280097 0.022404315 0.017381875
-0.04364642 -0.083082214 0.036174953 -0.072739236 0.05222655 -0.025606275 0.08190364 0.037139975
0.06529251 0.0051434957 0.021891648 -0.08830694 0.015677875 -0.067752294 0.067583755 -0.005849594
0.011599264 0.007573791 -0.016143922 -0.08236541 0.04049039 0.037557945 -0.068533406 -0.0015173483
0.058759864 -0.05560671 -0.08985412 0.016510287 -0.023808064 0.061949037 -0.015144765 0.0831462
0.03762919 -0.045779698 0.052406035 -0.03941856 -0.034349103 0.026529364 0.06005599 0.005219971
0.0505415 -0.025767831 0.07653113 -0.039012898 0.07244764 0.047815137 -0.034415133 0.07126138

post.2.weight f4 [128, 128]
00000000: 5c79 75bd 14f3 a93d 13f1 ef3c 9beb a8bd
00000010: dbde 89bd 8bd0 8b3d 4bfd 76bd 864a 063d
00000020: d9a7 7f3d 4a94 99bd f921 a4bb f06c a93d
00000030: 6af9 abbd 454f 5abd 84a7 a7bd 3fc4 2d3c
00000040: cfdf 83bd 75cf dfbc 4980 9d3c 8ea8 503d
00000050: 2252 bbbd 069c 3dbd 4c06 03bd f6df 733d
00000060: 4cdc 9ebc fb82 4c3d 8c1d 483b 8b57 803d
00000070: 4f2e f6bb 6a1c 18bd a59c 90bc 4d6d b3bd
00000080: f14c 4abc cb77 9dbd 99ea fb3a b602 e23c
00000090: 1e94 653d 2bd9 903d dfb9 093d f69b 843d
000000a0: 25e1 9dbc b96e 8139 14a0 da3b 75e1 2f3d
000000b0: fb96 62bd 82fa 073d 466f a0bc 8f71 29bd
000000c0: 0d01 913d 8bb7 3c3d aea6 c83c 9bd7 08bd
000000d0: 0528 083c 717b 92bd 2283 a33d 0c03 4dbd
000000e0: 69e8 a53d 8941 7d3c a76b 0c3d 60c9 e5bb
000000f0: 7a3c 83bd 0f33 8abd 868a 8d3d 91e4 fd3c
00000100: 2b80 2ebc 9739 11bd bc44 cd3c 2004 1c3d
00000110: a793 10bc 4b5c 2f3d d814 0dbd 458d fdbc
00000120: 7f97 9c3d 96fd 883d 6142 bdbc f1de 6c3d
00000130: ef76 22bd a8f2 99bc e729 913d 38fc 803d
00000140: 9000 bc3c e31d 8b3d e6d9 b63d 8ee8 c03c
00000150: ebd6 963d 200c 3bbc 173e 0cbd 7d9c a73d
00000160: cfba 3d39 ab4b 433d 0d00 88bd 00e2 cbba
00000170: 7c5a 3dbc ae12 99bd 6e0b 833c f28e 54bc
00000180: 1a2d 5cbd 5f56 78bc 30ef aa3d 8e5d 98bc
00000190: a681 75bd 03b9 5bbd 5bd0 a23d dd42 823b
000001a0: 61f4 14bd 9262 5dbd 6f02 8abd c95e 78bd
000001b0: f31a 103d 100e 8d3d 565b 8bbc eb1c 523b
000001c0: 3b35 ad3d 6a4a b73c 7df3 84bb 2997 59bd
000001d0: 7d1d 8cbd efcb 8bbd d255 f1bc c411 493d
000001e0: 8fba b83d c15d 46bd 7fad c1bb ccc9 823d
000001f0: 31bb 6abc 7872 0f3d cd5c 7b3d 81b2 aabc
00000200: 3980 2ebd 8bd9 3cbd 5cf3 8fbd 01d7 ad3d
00000210: 3228 683d 5af1 b73a 2119 a3bd d479 103d
00000220: 643b 1a3d e0bc 163d a00d 78bd 08ca 223c
00000230: d40a 9abd 5ba3 84bc daec 8a3d e285 72bd
00000240: 2fe2 3b3d 422d 0d3d 1855 b53d c2a0 d2bc
00000250: 7bbc 793d 394f 813d 2d49 d23c 2a6c a0bd
00000260: c5f6 403c 7ee3 093d 5ecd 253d 3965 16bc
00000270: 70e2 ac3d ac22 bc3c 8cf8 89bb ff3c 8f3d
00000280: 4470 953d 80a9 d3bc 6182 2b3c b4f5 153d
00000290: ff42 a33d 1a67 ab3d e178 81bd 4e33 e63c
000002a0: f19e 3d3b f11b 86bd 71e1 a73d ecff bbbc
000002b0: 2df0 71bd 4bff 1a3d 703d 02bc 9044 3ebd
000002c0: 5868 933c aa10 533d 8752 83bb 7310 053d
000002d0: aa54 cebb bf5e 99bd 5ec4 06bd f1a8 b6bc
000002e0: 1f4c 76bd 36c6 923b b2da b3bc 5a47 4b3d
000002f0: bc65 dbbc 1235 5c3d fa2b 783c 3b4b 3f3c
00000300: d32e 403b 84df 653d c0f3 31bc ad61 a53d
00000310: fb10 6f3d 13dc a0bd 95fd d2bc cef6 333b
00000320: 49ad acbd ff72 723d a027 b53d d690 8bbd
00000330: ddc8 943d 3856 ce3c 19e5 ae3d 5d2d 8f3d
00000340: 7ef6 85bd 85ad 8cbc 040f 993c f045 933b
00000350: 584c 32bd 000d e93a 0825 e33c ba24 a03c
00000360: db55 53bd 6756 003d 64ff 693c a4ae 03bd
00000370: 94e0 3ebd 6f4b 54bd 3bc2 6a3d f334 443d
00000380: beaa 56bd 5faf 033d 581d e13a 7312 7b3d
00000390: 6735 b13d 1bf4 2dbc ad14 afbd 9957 f03c
000003a0: c1ad 5d3d c66f 1a3d 7b82 a13d c640 a3bd
000003b0: f37a 8dbd 5609 80bd 0c98 043d f736 15bd
000003c0: 435f 24bd d950 91bd 8d60 06bd 3362 983d
000003d0: 1232 7e3d 0680 97bd 5ca9 ad3c 1ddb 203d
000003e0: 9e97 9e3d 32a8 703d 61f4 193c 1a1e 9dbd
000003f0: 73e2 9d3d c725 823c ff30 2f3d 0c48 3e3d
-0.05993019 0.082983166 0.029289758 -0.08248063 -0.067319594 0.06826886 -0.060300153 0.032785915
0.06241593 -0.07498987 -0.0050089327 0.08272731 -0.08397181 -0.053298254 -0.08186248 0.010605871
-0.064391725 -0.027320603 0.01922621 0.050941996 -0.09146525 -0.046291374 -0.031988427 0.059539758
-0.019392155 0.0499296 0.003053519 0.062666975 -0.0075128446 -0.037136473 -0.017652819 -0.08761082
-0.012347446 -0.07688864 0.0019219696 0.027589183 0.05604946 0.070726715 0.033624526 0.0647506
-0.019272396 0.00024687292 0.006671915 0.042939622 -0.055319767 0.033197887 -0.01958431 -0.041368064
0.070802785 0.046073478 0.024493542 -0.033408742 0.008310323 -0.07152451 0.07983996 -0.050051734
0.08100969 0.015457519 0.034282353 -0.007012531 -0.06408019 -0.0674802 0.06911187 0.030992778
-0.010650675 -0.035455313 0.02505719 0.03808987 -0.008824266 0.042812627 -0.034443706 -0.030951152
0.07646083 0.06688993 -0.023102941 0.0578298 -0.039664205 -0.018792465 0.0708807 0.06298107
0.022949487 0.0679281 0.089282796 0.02354839 0.07365211 -0.011416465 -0.0342389 0.08184145
0.00018094036 0.047679584 -0.06640635 -0.0015555024 -0.011557218 -0.07474266 0.015996661 -0.012973534
-0.05375395 -0.015157311 0.08346403 -0.018599298 -0.059938096 -0.053643238 0.07949897 0.003975256
-0.03636587 -0.054049082 -0.067387454 -0.06063727 0.03518195 0.06887448 -0.017011326 0.0032060693
0.084574185 0.02237435 -0.0040573464 -0.053122673 -0.06841562 -0.068260066 -0.029459868 0.04908921
0.09019958 -0.048429254 -0.005910575 0.06386146 -0.0143268565 0.035021275 0.0613678 -0.02083707
-0.04260275 -0.046105903 -0.07028839 0.08488274 0.05667896 0.001403372 -0.07963777 0.035272434
0.037654296 0.03680122 -0.06055987 0.009935863 -0.075215966 -0.016191175 0.06783457 -0.05920971
0.045870002 0.03446699 0.08854121 -0.02571142 0.060970765 0.06313939 0.025669659 -0.07833131
0.011777584 0.03366422 0.040479057 -0.009179407 0.08441627 0.022965752 -0.0042105373 0.06994056
0.072968036 -0.02583766 0.0104680965 0.036611274 0.07971763 0.083692744 -0.06321884 0.028100636
0.0028933848 -0.06548298 0.081972964 -0.022949181 -0.05906694 0.037841123 -0.007949218 -0.046452105
0.01799409 0.051529564 -0.0040076408 0.03248639 -0.006296714 -0.074887745 -0.032902114 -0.022297354
-0.06013119 0.004479195 -0.021954868 0.049628593 -0.02678191 0.05376155 0.015147204 0.011675651
0.0029324784 0.056121364 -0.010861337 0.08075271 0.058365803 -0.07854476 -0.025755683 0.002746034
-0.08431489 0.0591917 0.088454485 -0.06814735 0.07264874 0.025187597 0.08539791 0.06991074
-0.06541155 -0.017172584 0.018683918 0.004494421 -0.04352984 0.0017780364 0.027727619 0.019548763
-0.05159555 0.0313324 0.014282081 -0.032148972 -0.046600893 -0.05182975 0.05731414 0.04790206
-0.052408926 0.03214967 0.0017174883 0.06129689 0.08652764 -0.010617281 -0.085488655 0.029338645
0.054120783 0.03770425 0.07886215 -0.07971339 -0.06908216 -0.06251781 0.032371566 -0.03642937
-0.04012991 -0.070954986 -0.03280692 0.07440605 0.06205947 -0.073974654 0.02119892 0.039271463
0.077437624 0.058754154 0.009396643 -0.07671757 0.077092074 0.015887154 0.042771336 0.046455428

post.2.bias f4 [128]
00000000: c479 113d 86a9 39bc 442a 673d 40de 4a3d
00000010: 3843 323c c437 af3d 4f05 643d ace5 1abb
00000020: bd71 7bbd 011d 603d b404 523c 9692 943b
00000030: eaec 5f3d 122e b23d d568 09bd 9ada 773d
00000040: 5156 9fbc d419 f63c 885e 393d 6eef 723d
00000050: 5100 9ebd 7876 6dbd 62c7 833c c042 d0bc
00000060: d6e3 bebc bd89 82bd ff04 f2bc 4832 4ebd
00000070: 5f56 ccbc d778 13bb cd92 23bc 2b5f 68bd
00000080: 0770 903c 2bcd 683d df36 80bd 8048 473a
00000090: 1a6a 993d fe21 e63b 7348 253d b444 8d3d
000000a0: 1299 3abc e0ef 03bd c74d 6c3d 5c64 053d
000000b0: 066f dd3a 22cf 9c3d 762a 8f3d 4572 a0bd
000000c0: 1ce2 64bc d57d 523d 1d39 853d e4d2 743d
000000d0: 0b87 16bc cd05 40bd f6dc 28bd e479 bfbc
000000e0: b0fe 923d a140 33bd 541e a5bc fd65 4ebc
000000f0: 8c66 a5bd 21f5 68bd 74dd 8e3d 63ad a03d
00000100: 34d5 b3bd 07be b33d 86db 8fbd d03a f4bb
00000110: 84e7 88bd 3256 9a3c 77b6 7f3d 9a74 773d
00000120: 8886 aebd 0aa8 a7bc 286b b5bd 57d2 8ebd
00000130: c3bd b4bd 8153 67bd 8f95 a0bd 3528 02bd
00000140: ebef a9bd 5373 963d 7d3c ea3b 2f16 9a3d
00000150: 3053 5a3d b7bb 243d 1091 6dbd f8c7 f739
00000160: da06 92bd f0ec 003d 5f24 87bd 8615 3dbd
00000170: 5828 8ebd 8d5f 063d 57a6 a6bc babe 293c
00000180: 5ee1 53bd bed8 8c3d 37ac 71bd e63b 8dbd
00000190: 3fe7 7fbc 0409 a93d cd8d a33d 34d9 363b
000001a0: 3c31 9e3d 6e58 a53d f4d4 05bd d483 523d
000001b0: b938 7dbd c2f7 493d 84d5 473d 7387 04bc
000001c0: 2760 803d bc1c 133d 61da 633d 971d 65bd
000001d0: 80c9 42bb 725c a5bd 8e91 52bd d62e 49bc
000001e0: a360 5abd a969 27bd 44fa dc3c ceff 223d
000001f0: 50e5 8a3c cc7b 9739 29ff 053d 51ca 14ba
0.035516515 -0.011331921 0.056436792 0.04952836 0.010880284 0.08555558 0.055669125 -0.002363543
-0.061387766 0.05471516 0.012818504 0.004534076 0.0546693 0.087001935 -0.03354724 0.06051121
-0.019450339 0.030041613 0.045256168 0.05931037 -0.07714904 -0.05797431 0.016086284 -0.025422454
-0.023302 -0.06373928 -0.029543398 -0.05034092 -0.024943529 -0.0022502446 -0.0099837305 -0.056731384
0.017631544 0.05683629 -0.06260466 0.0007602051 0.074909404 0.007023095 0.040352296 0.0689787
-0.011389034 -0.032211185 0.05769136 0.032566413 0.001689405 0.07656695 0.06990521 -0.07834295
-0.013969924 0.051389534 0.06505034 0.059771433 -0.00918747 -0.046880532 -0.04122635 -0.023373552
0.07177484 -0.043762807 -0.020156063 -0.012597558 -0.080762 -0.0568744 0.069758326 0.07845571
-0.087809 0.08776479 -0.07024293 -0.0074533 -0.06684783 0.01883993 0.06242987 0.060413934
-0.085217535 -0.02046587 -0.08858329 -0.06973713 -0.08825257 -0.05647612 -0.07841026 -0.031776626
-0.08297714 0.07346215 0.007148324 0.075237624 0.05330199 0.04021808 -0.05799967 0.000472605
-0.07130213 0.03147596 -0.06598734 -0.046163104 -0.06941289 0.032805968 -0.020342989 0.010360414
-0.0517286 0.06877278 -0.059002127 -0.0689619 -0.015619098 0.08253673 0.07986031 0.002790046
0.077242345 0.08073507 -0.03267379 0.051395252 -0.061821673 0.049308546 0.04878761 -0.008088934
0.062683396 0.035916075 0.055628184 -0.055936422 -0.0029722154 -0.08074273 -0.051408343 -0.012279233
-0.053314816 -0.04087225 0.026974805 0.039794736 0.016955048 0.000288932 0.032714043 -0.00056758994

lstm.weight_ih_l0 f4 [512, 128]
00000000: da0c 1f3d 3658 723d ece4 91bd e860 663c
00000010: 7918 973d 9dd6 10bd a01b d13b 2481 75bd
00000020: 9960 9a3d 43b8 a63d 66aa 53bd 7d2d 06bd
00000030: 3e0d 1f3d 782c d93c 28f1 a3bd 6493 e63c
00000040: 0c07 c13c 0a48 793d e2e6 303d 42da 503d
00000050: 5491 42bd c0fd 4bbc dc65 00bd ea1f 263d
00000060: 9faf adbd 064c 53bd 5564 b33d fb82 983d
00000070: c0d0 9d3b 57d6 0bbd 2c57 b03c 0602 773d
00000080: b9e7 50bd 777e 3dbd c593 883d f0be 2ebc
00000090: 7753 9f3d e8ec 0e3d ef9c 0fbd 3d78 68bd
000000a0: 8e66 403d 5c47 70bd 1000 803b a062 ca3c
000000b0: 4077 993a 0689 b4bd 7d13 b3bd 1acd 303d
000000c0: d80c 033d 2d10 67bd 0971 89bd 00ed 4bbb
000000d0: 7ac2 3b3d a925 903d 6cda b1bd 2002 133c
000000e0: f772 36bd 37ca b2bd c82d fa3c adaa acbd
000000f0: b0fd 99bd 57ff 9e3d 7c96 02bd 910b a93d
00000100: 4ca6 aa3c 705b f83c 713c 3cbd a8d5 87bd
00000110: 800a 8f3c 10d4 79bd b134 993d cbfb 8a3d
00000120: 7eca 38bd 13a4 acbd e06e 58bd 2837 023d
00000130: 3808 ecbc 9d66 9ebd f5cd 4abd 5101 acbd
00000140: 645e d3bc 0532 17bd 5cfe a93c 8ecf 7fbd
00000150: f46d cebc 0c0a 9a3c 42c3 e2bc a046 203c
00000160: 0bf9 a63d dd35 943d 2f3d 893d 60d9 de3b
00000170: 1a5a 703d 7015 3fbd e872 d13c 1167 873d
00000180: c8a4 1dbc 7257 57bd d29c e4bc ee1c 713d
00000190: 399b a23d be3d 7d3d 30c7 1bbc 1844 663c
000001a0: 10d4 6bbc 386e b13c 804e ba3c fafb 2e3d
000001b0: 4851 36bc 4311 ac3d 62d4 103d 60f7 c7bb
000001c0: b0bc d23b f8e4 55bc de0f 5c3d dc4d 7cbd
000001d0: e034 3ebd 2606 7f3d 9010 ae3b f6ce 723d
000001e0: 6c3c abbc 9668 1b3d 0645 0c3d eb01 943d
000001f0: 9902 78bd 8b80 6dbd 857e 903d 6602 ddbc
00000200: 7bfc 853d 8b7d b43d b15c 23bd a94c a8bd
00000210: 3033 86bc 607c 063d d035 b0bb a93b acbd
00000220: 8663 aabd eb08 9abd 0052 bfba c84f 3b3c
00000230: cae4 513d d046 97bb 0a03 793d f889 4bbd
00000240: 31d6 b4bd d69f 173d 142c a8bd f023 ccbb
00000250: 8085 b7ba 3ad0 783d a0ec e73c 30c1 84bd
00000260: 00e6 67bb a934 b4bd f022 9bbb f893 ffbc
00000270: ad8c 8f3d 9ce4 c6bc abb1 873d f6e5 523d
00000280: abce 843d 0013 95bb dd6f 87bd b879 1b3c
00000290: 6af5 503d c06b bdbc 0027 333c a0ec 003d
000002a0: 9869 43bd a691 2a3d caa0 273d c07a 93bd
000002b0: 384a 21bd 4ae2 163d 6e37 5c3d b0ca 1fbc
000002c0: e152 9d3d 0027 40bc e4db 78bd 98b7 91bd
000002d0: d6a6 6e3d 78ba 80bc 5b0d 1ebd 5448 9cbd
000002e0: b6b4 35bd 6860 cbbc e614 3abd fe86 50bd
000002f0: 2912 9f3d 1a19 323d d6be 4bbd d4af 0a3d
00000300: f6bb 7d3d 902c 7b3c b24e f2bc 868e 323d
00000310: c3bb ab3d 9550 983d f28f 4d3d ab6a b4bd
00000320: 07c5 9c3d b623 3dbd c055 17bd e89b 083d
00000330: 61be 0dbd 200e 3abd 9505 b13d 9bb1 92bd
00000340: e087 3d3b f52e 74bd 6c59 db3c 6cf4 823c
00000350: 2c07 cbbc a046 90bc 1ef5 733d 1889 2dbc
00000360: a604 433d bde6 843d dcc9 c2bc 2a22 313d
00000370: afa5 91bd 3be2 853d 88e4 2abc dd13 b03d
00000380: b745 9fbd 454e 93bd 44db dcbc 9764 b43d
00000390: e565 56bd fe3a 003d c582 9ebd 72f3 7cbd
000003a0: 01c6 9b3d df0a 44bd 783b 70bc 70f3 05bc
000003b0: 83d0 4bbd ebb0 84bd c855 87bc 87d7 15bd
000003c0: 0268 183d bc57 afbc 56b2 483d 4ae7 6ebd
000003d0: f06b b13c 9a31 4f3d 59ff b3bd 3084 cebb
000003e0: d8b5 fa3c d8f1 2b3c 40bb 80bd 5412 9bbd
000003f0: 2137 57bd bdc8 913d ef50 9a3d 8a32 debc
0.038830616 0.059166156 -0.071237415 0.01406119 0.07377715 -0.03536092 0.006381467 -0.05993761
0.07537956 0.08140614 -0.051676176 -0.032758225 0.038830988 0.026510462 -0.08004981 0.028146453
0.02356293 0.060859717 0.043188937 0.050989397 -0.047501877 -0.012450635 -0.03134714 0.04055778
-0.08480763 -0.051586173 0.08759371 0.074468575 0.0048161447 -0.034139957 0.021525942 0.060304664
-0.051002238 -0.046263184 0.0666881 -0.01066564 0.077795915 0.0348939 -0.035061773 -0.056755293
0.046972804 -0.058661804 0.0039062575 0.024705231 0.0011708513 -0.08815198 -0.087439515 0.04316435
0.03199467 -0.05641191 -0.06711013 -0.0031116605 0.045839764 0.07038433 -0.08684239 0.008972675
-0.044543233 -0.08729976 0.030539408 -0.08430991 -0.0751909 0.07763546 -0.031881794 0.08254159
0.02083125 0.030317038 -0.04595608 -0.066325486 0.017461061 -0.060993254 0.07480753 0.06786307
-0.045114987 -0.08429732 -0.052840114 0.031790882 -0.028812513 -0.07734416 -0.049512822 -0.083986886
-0.025801845 -0.036912937 0.02075117 -0.0624538 -0.025198914 0.018803619 -0.027680997 0.009782463
0.0815297 0.07236836 0.06701123 0.0068008155 0.058679678 -0.046651304 0.025567487 0.06611455
-0.009621806 -0.05257363 -0.027906809 0.05886548 0.079397626 0.06182646 -0.009507939 0.014054321
-0.014393821 0.021659002 0.02274251 0.042720772 -0.011127777 0.0840173 0.035358794 -0.0061024874
0.0064311847 -0.013055079 0.05372607 -0.06159769 -0.046437144 0.062261723 0.005312033 0.059279405
-0.020902835 0.037941538 0.034245513 0.07226928 -0.060549352 -0.057983916 0.07055382 -0.026978683
0.065422975 0.08813008 -0.03988332 -0.08217747 -0.01638183 0.032833457 -0.0053775087 -0.08409817
-0.08319764 -0.07521232 -0.0014596581 0.011432596 0.05124358 -0.004616596 0.060793914 -0.049692124
-0.08829916 0.037017666 -0.08211532 -0.00622987 -0.0014001578 0.060745455 0.028311074 -0.0648216
-0.0035384893 -0.08799107 -0.0047343895 -0.031198487 0.07009254 -0.024278931 0.06625684 0.05148884
0.06484731 -0.004549384 -0.06613133 0.009489469 0.051015295 -0.023122668 0.010934591 0.031475663
-0.047708124 0.041642807 0.040924825 -0.07201147 -0.03937742 0.0368369 0.0537638 -0.009752914
0.076818235 -0.011728048 -0.06075658 -0.07115096 0.058264576 -0.015713915 -0.038586956 -0.07630983
-0.044361793 -0.024826244 -0.045430087 -0.05090999 0.07767136 0.04348097 -0.049742542 0.03385909
0.06194683 0.015330449 -0.02957854 0.043592952 0.08385422 0.07437245 0.050186105 -0.08809408
0.076547675 -0.046176635 -0.036947012 0.03335181 -0.034605388 -0.045423627 0.08643643 -0.07162782
0.00289201 -0.059615094 0.026776038 0.01598569 -0.024783693 -0.017611802 0.059559934 -0.010591768
0.047611855 0.06489322 -0.023777895 0.043245472 -0.0711168 0.06537291 -0.010430463 0.085975386
-0.07776969 -0.07192663 -0.026960023 0.088082485 -0.052343268 0.03130626 -0.07739786 -0.061755605
0.076061256 -0.04786193 -0.014662616 -0.008175716 -0.0497594 -0.06479057 -0.016520396 -0.036582496
0.037208565 -0.02140414 0.0489982 -0.058326043 0.021657914 0.050584413 -0.08788938 -0.006302379
0.030604288 0.010494672 -0.06285715 -0.07571855 -0.05254281 0.07118366 0.07534968 -0.027123708
