RL/ablation_No_RNN_20260129_031527/ckpt_ep100.pt (torch, 784866 bytes, 31 tensors)

gcn1.lin.weight f4 [64, 10]
0	0x3e13b1f3	0.14423351
1	0x3e912ff0	0.28356886
2	0xbe3e69cb	-0.18595044
3	0xbbde3733	-0.0067814826
4	0xbe29a7d8	-0.16567934
5	0x3e43916e	0.19098446
6	0x3e0ebb49	0.13938631
7	0x3e79218a	0.243292
8	0x3e20ba4c	0.15696067
9	0xbd987f05	-0.07446102
10	0xbe9243fc	-0.28567493
11	0x3d95fe3b	0.07323881
12	0x3e98d83a	0.29852468
13	0xbe018a4e	-0.12650415
14	0xbe3a838d	-0.18214245
15	0x3e924c9f	0.28574082
16	0xbd81fdbc	-0.06347224
17	0x3e95e456	0.2927577
18	0xbc46d886	-0.012136584
19	0x3e2c5fe1	0.1683345
20	0xbcc234ea	-0.023706872
21	0xbe9cb1db	-0.30604443
22	0x3dff6cb2	0.12471904
23	0x3da69734	0.081343085
24	0xbe8d17ad	-0.27557126
25	0xbdce5214	-0.10074249
26	0xbd8815c3	-0.06644776
27	0x3e81820f	0.2529454
28	0x3e0b9be6	0.1363369
29	0xbd58b93c	-0.05291103
30	0x3e62e92a	0.22159258
31	0xbd048f0a	-0.032362975
32	0x3e5bfa50	0.21482205
33	0xbe2590b5	-0.16168483
34	0xbe33bde9	-0.17552914
35	0x3e8af8f7	0.2714307
36	0xbd89d7fe	-0.0673065
37	0xbda850e0	-0.08218551
38	0xbea1ad4c	-0.31577528
39	0xbe14724a	-0.14496723
40	0x3e6c15bb	0.23055165
41	0x3d19e796	0.037574373
42	0x3d08ed69	0.033429537
43	0x3e85e65e	0.2615232
44	0xbbc740e5	-0.006080734
45	0x3d9d10a8	0.076691926
46	0xbe437024	-0.19085747
47	0xbe55133a	-0.20808116
48	0xbea244f9	-0.31693247
49	0xbe3fb611	-0.18721797
50	0x3e88e8e6	0.26740187
51	0x3e0a8ddb	0.13530676
52	0xbe8c3b7d	-0.27389136
53	0xbd5ceca9	-0.053936634
54	0x3d174e4a	0.036939897
55	0x3c49ee20	0.01232484
56	0xbce47c55	-0.027891317
57	0x3ceac934	0.028660394
58	0x3d5c0573	0.053716134
59	0xbce5522a	-0.02799328
60	0xbcb9a7b3	-0.022662973
61	0x3cb1185b	0.021618059
62	0x3dd3ddaf	0.10345017
63	0xbe9e2f61	-0.30895522
64	0xbe4dea32	-0.2010887
65	0xbacddb00	-0.0015705526
66	0xbe8dfa75	-0.27730146
67	0xbd684e46	-0.056715272
68	0xbd78da1a	-0.060754873
69	0xbd28c08e	-0.04119926
70	0x3e948537	0.29007885
71	0x3b82869f	0.0039833332
72	0xbe291998	-0.1651367
73	0x3e553fa3	0.20825057
74	0xbd0df86d	-0.034660745
75	0xbe79c5d4	-0.24391872
76	0x3e0dd1b9	0.13849534
77	0xbcb8bf31	-0.022552105
78	0xbe061210	-0.13092828
79	0x3e284f9a	0.16436616
80	0x3e99dc73	0.30051002
81	0xbe353f08	-0.17699826
82	0xbe31f926	-0.17380199
83	0x3da09a31	0.0784191
84	0xbe4d0979	-0.20023145
85	0xbe74e5f2	-0.23915842
86	0xbd566919	-0.052346323
87	0xbb98aeb5	-0.0046594986
88	0x3c9afa87	0.018918289
89	0xbd2b1b58	-0.041774124
90	0x3e72b04f	0.23700069
91	0x3c940c6b	0.018072328
92	0xbe94057b	-0.2891043
93	0x3ce2dd4d	0.027693415
94	0x3dd31a15	0.10307709
95	0x3e4f6af2	0.2025564
96	0xbd8de0e9	-0.06927664
97	0x3e20994d	0.1568348
98	0x3e49dd16	0.19713244
99	0xbe5e18a4	-0.21689087
100	0x3e3e9ea3	0.18615203
101	0xbe2eeb60	-0.17081976
102	0x3dfb3567	0.12266045
103	0xbd0d1a7c	-0.034449086
104	0xbe87bd84	-0.26511776
105	0x3d0f6fc0	0.035018682
106	0xbe7de56e	-0.24794552
107	0xbd5a895e	-0.05335366
108	0x3da4cac2	0.080464855
109	0xbe4629c7	-0.19351874
110	0x3e14b807	0.14523326
111	0xbe750c4e	-0.23930475
112	0x3e36e28b	0.17859857
113	0xbdf91d5d	-0.12163804
114	0x3e7dfa0b	0.24802415
115	0x3d0331a8	0.032029778
116	0x3c9dfd67	0.01928587
117	0x3e9d6594	0.3074156
118	0x3d9d958d	0.0769454
119	0x3e7d910f	0.24762367
120	0x3e7d3599	0.24727477
121	0x3e94b4c1	0.29044154
122	0xbdf79c74	-0.12090388
123	0xbe90d9e2	-0.2829123
124	0x3e41054d	0.18849678
125	0x3e4a550e	0.19759008
126	0xbd5c75ab	-0.053823154
127	0xbe811a65	-0.2521545
128	0x3e7cadea	0.24675718
129	0x3e7daefe	0.24773785
130	0xbe0a6952	-0.13516739
131	0xbd943a64	-0.072377
132	0x3dc118f9	0.09428591
133	0xbe1e9ecd	-0.15490265
134	0xbe1f71e7	-0.15570794
135	0x3e988d9d	0.29795542
136	0xbe3475e7	-0.17623101
137	0x3dd1f35d	0.10251496
138	0x3ddf1f06	0.10894589
139	0x3e9c12ce	0.30483097
140	0x3e82f374	0.25576365
141	0x3d9d1308	0.076696455
142	0xbe818d05	-0.25302902
143	0x3dbe348d	0.09287367
144	0xbd31ac09	-0.043376956
145	0xbe6213d2	-0.22077873
146	0x3e325ca5	0.17418154
147	0xbe88abb8	-0.2669351
148	0xbe47b41e	-0.19502303
149	0xbe994402	-0.29934698
150	0xbe42d956	-0.1902822
151	0x3e9c8aec	0.3057474
152	0x3dea2fc9	0.114348955
153	0x3e9380e4	0.28809273
154	0xbe71e8bb	-0.23623936
155	0xbe4bb1a0	-0.19891977
156	0xbdb32425	-0.087471284
157	0xbd3a15dd	-0.045431007
158	0xbe96fb90	-0.29488802
159	0xbe7f4e63	-0.24932246
160	0x3d9a7e81	0.0754366
161	0x3e820f0f	0.25402114
162	0xbe8aec4b	-0.27133402
163	0xbe4b044c	-0.19825858
164	0x3e993408	0.2992251
165	0xbe18c6e9	-0.14919628
166	0x3cd540b6	0.026031833
167	0xbd9d15e5	-0.07670192
168	0xbdd2940d	-0.10282145
169	0x3da85535	0.08219377
170	0xbe49c69b	-0.19704668
171	0xbdeb182d	-0.114792205
172	0xbe3b522f	-0.1829307
173	0x3e5155d3	0.20442896
174	0x3db54326	0.08850698
175	0xbe5b2c5f	-0.21403645
176	0x3e9cee7e	0.30650705
177	0xbd8d4c38	-0.06899303
178	0x3e18699f	0.14884041
179	0x3de9b031	0.11410559
180	0x3d7d7ed2	0.061888523
181	0xbdcad789	-0.09904391
182	0xbb9112fd	-0.0044273124
183	0x3e763b27	0.24046002
184	0xbdb2aaf0	-0.0872401
185	0x3e43946e	0.1909959
186	0xbdacadd1	-0.0843159
187	0x3e2785bc	0.1635961
188	0xbe398acc	-0.18119353
189	0xbe394b40	-0.18095112
190	0x3c3090af	0.010776683
191	0x3dee6c40	0.11641741
192	0x3e3db90d	0.18527623
193	0x3e46f313	0.19428663
194	0xbe259d7d	-0.16173358
195	0x3e83fd3f	0.2577915
196	0x3e4a35c6	0.19747075
197	0x3e302ec4	0.1720534
198	0xbdc8e722	-0.0980971
199	0x3e42f8cb	0.1904022
200	0xbb4ed29c	-0.0031558638
201	0xbdceb0ae	-0.10092293
202	0x3dc65444	0.09684041
203	0xbe3e0733	-0.18557434
204	0xbe29aa5f	-0.16568898
205	0x3e3c22d2	0.18372658
206	0x3e7cd25b	0.24689619
207	0xbe5d5568	-0.21614611
208	0xbe01e084	-0.12683302
209	0x3e82dcfc	0.25559223
210	0xbdbab0e8	-0.091157734
211	0x3d94d3f4	0.07266989
212	0xbe1be165	-0.152227
213	0xbe51b8c8	-0.20480645
214	0xbe64a1d6	-0.2232736
215	0xbd2b5050	-0.04182464
216	0x3d8202ae	0.06348167
217	0xbd870daf	-0.06594407
218	0x3e9f6719	0.31133345
219	0xbe9882a2	-0.29787165
220	0x3d76319a	0.060105897
221	0xbdcd8a24	-0.10036114
222	0xbdbe04fd	-0.09278295
223	0xbe4744de	-0.19459864
224	0xbe87374e	-0.26409382
225	0xbe9b605c	-0.30346954
226	0xbd8241d2	-0.063602105
227	0xbd14282f	-0.036171135
228	0xbdf09123	-0.11746433
229	0xbe19b3f4	-0.15010053
230	0xbda3a9b6	-0.07991354
231	0xbe91687f	-0.28400037
232	0x3e712d86	0.23552522
233	0xbe994f82	-0.29943472
234	0x3e340e9c	0.17583698
235	0xbcbb72a0	-0.022881806
236	0xbe9138f5	-0.28363767
237	0xbd2e7779	-0.042594407
238	0x3e888b57	0.26668808
239	0x3e5d2f50	0.2160008
240	0xbcbb6a07	-0.022877706
241	0x3dea492f	0.1143974
242	0x3e600a59	0.21878947
243	0xbb85c0d1	-0.0040818234
244	0x3cb4ab64	0.022054382
245	0x3dbb89e4	0.0915716
246	0xbe4a1a00	-0.1973648
247	0xbda62927	-0.08113318
248	0xbe75c3a8	-0.24000418
249	0x3e3bdea5	0.18346651
250	0xbdec1c57	-0.11528843
251	0x3e8e673a	0.2781313
252	0x3e592667	0.21206056
253	0xbe4eefa1	-0.20208599
254	0xbab48b84	-0.0013774489
255	0x3d97ac34	0.07405892

gcn1.lin.bias f4 [64]
0	0x3e9d646e	0.30740684
1	0x3d94e7d2	0.07270779
2	0x3c5475b4	0.012967516
3	0xbbf2bdce	-0.0074078804
4	0xbdd64594	-0.1046249
5	0xbe3e588f	-0.1858847
6	0x3e8dddd3	0.277083
7	0xbe587b76	-0.21140847
8	0x3e9d6391	0.30740026
9	0xbe4685b5	-0.19386943
10	0xbe8839bc	-0.26606548
11	0x3e9073d2	0.28213364
12	0x3c98717c	0.018608801
13	0xbcd55dd6	-0.026045721
14	0x3e3d137b	0.18464462
15	0x3e9d4564	0.30717003
16	0x39ba4cf9	0.00035534034
17	0xbd4badc1	-0.04972625
18	0x3de4ea50	0.11177504
19	0x3e67a83e	0.22622773
20	0xbdcbd3cb	-0.09952506
21	0x3e2622e9	0.16224255
22	0xbe39f09b	-0.1815819
23	0x3e526f81	0.20550348
24	0xbe9b7821	-0.3036509
25	0xbd01eccc	-0.031719968
26	0x3d386150	0.04501468
27	0x3e48fe88	0.19628346
28	0x3e9f27ee	0.3108515
29	0x3dcc56e9	0.09977514
30	0x3dd432b0	0.103612304
31	0x3e7284d5	0.23683484
32	0x3e9da2cd	0.3078827
33	0x3e21ebba	0.15812579
34	0x3e66e6ba	0.22548953
35	0x3d211411	0.039325777
36	0xbe8ae105	-0.271248
37	0xbd3c2dde	-0.04594218
38	0x3e810797	0.25201103
39	0x3e264a25	0.16239221
40	0xbd1e409b	-0.03863583
41	0xbe3e1a1c	-0.18564647
42	0xbdb67bb1	-0.08910311
43	0x3e3cd84f	0.1844189
44	0xbd706d26	-0.058697842
45	0x3c3014c1	0.010747136
46	0x3dc086d0	0.094007134
47	0xbd4e3173	-0.050340127
48	0xbd99902e	-0.07498203
49	0x3dbf1467	0.09330063
50	0xbe608518	-0.21925771
51	0xbccaee8a	-0.024771947
52	0xbcf51b0a	-0.02992012
53	0xbe1027b1	-0.14077641
54	0x3dafb65d	0.08579705
55	0xbe4aeb46	-0.19816312
56	0xbdc9c779	-0.098524995
57	0x3e0d666e	0.13808605
58	0x3da53c1e	0.08068107
59	0xbe708e21	-0.23491718
60	0x3bd9dfbb	0.006648985
61	0xbe199848	-0.14999497
62	0x3e143560	0.14473486
63	0x3dac140f	0.084022634

gcn2.lin.weight f4 [64, 64]
0	0x3bf8bc6d	0.0075908215
1	0xbd08006c	-0.033203527
2	0xbddf6add	-0.109090544
3	0x3cc572e2	0.024102632
4	0x3d11fbd1	0.03564054
5	0xbbe9f290	-0.0071395114
6	0x3d6cdc2d	0.057827163
7	0x3d53bd09	0.05169395
8	0xbe0d0405	-0.13771065
9	0x3b952a0d	0.004552132
10	0x3d6754c2	0.056477316
11	0xbca083cd	-0.019594098
12	0x3df96747	0.12177902
13	0x3e11ece5	0.14250524
14	0xbc95441c	-0.018220954
15	0x3db12d2a	0.086511925
16	0x3d138c4c	0.03602247
17	0xbcc95ec8	-0.024581328
18	0x3d23a127	0.03994861
19	0xbdaa8112	-0.083253995
20	0x3d0e5457	0.0347484
21	0xbdb82d06	-0.089929625
22	0x3cba4f32	0.022742841
23	0xbc8e36d4	-0.017360128
24	0x3b543689	0.0032381138
25	0xbdfe6290	-0.12421143
26	0x3cf42ca8	0.02980645
27	0x3d98ded2	0.074643746
28	0x3d2a8c35	0.041637618
29	0x3b23920c	0.0024958877
30	0x3c46286d	0.012094599
31	0xbda38919	-0.07985134
32	0xbd71c8de	-0.059029453
33	0xbc0b40dc	-0.00849935
34	0x3db32baf	0.08748566
35	0x3b86765d	0.0041034655
36	0xbd6b3757	-0.057425823
37	0x3d508546	0.05090835
38	0x3da8e057	0.082459144
39	0x3dd9393a	0.10606618
40	0x3d655825	0.055992264
41	0xbd594114	-0.05304058
42	0x3cbe3ba7	0.023221804
43	0x3d13845f	0.03601491
44	0x3d95fa53	0.07323136
45	0xbd01bcba	-0.031674124
46	0x3c1b8ea1	0.009494455
47	0xbcf02943	-0.02931655
48	0xbdc3620d	-0.09540186
49	0x3d9b13e1	0.07572151
50	0x3d7fba9b	0.06243382
51	0x3deb0c32	0.114769354
52	0x3d808d10	0.062769055
53	0x3df57f95	0.11987225
54	0xbdce9e73	-0.100888155
55	0x3dd23609	0.10264213
56	0x3cf4ef69	0.029899316
57	0xbdcb2d97	-0.09920805
58	0x3ddce5da	0.10786028
59	0x3d172423	0.036899697
60	0xbc2482b1	-0.010040925
61	0x3d03779a	0.032096483
62	0xbcfa8e5f	-0.030585466
63	0x3dcc7f48	0.099852145
64	0xbda8edc5	-0.08248476
65	0x3dec37a7	0.11534052
66	0x3d5d1a94	0.053980425
67	0xbd2bfb50	-0.041987717
68	0x3d09b9e2	0.033624537
69	0x3d0f0834	0.034919932
70	0x3d8a1f9e	0.06744312
71	0x3e02eae4	0.12784916
72	0xbda4dd35	-0.080500044
73	0xbd93748b	-0.07199963
74	0xbc3c4cae	-0.011492891
75	0x3d9a75d9	0.07542009
76	0xbdda5fbe	-0.106627926
77	0xbdd181c1	-0.10229827
78	0x3be83682	0.007086576
79	0x3ba28229	0.004959364
80	0xbd646ce4	-0.05576791
81	0x3d039e9b	0.03213368
82	0x3d7b0343	0.061282407
83	0xbd557757	-0.052115764
84	0xbdef31a3	-0.11679389
85	0xbdb1ba0d	-0.086780645
86	0xbb92343c	-0.004461793
87	0x3b7ecdd4	0.0038880007
88	0x3dad86a2	0.08472945
89	0x3c7b8a5f	0.015352814
90	0x3d949525	0.072550096
91	0x3dfa7947	0.12230163
92	0xbd0627de	-0.032752864
93	0x3de1468f	0.10999786
94	0xba0f6e0d	-0.0005471416
95	0xbdde05be	-0.10840939
96	0x3d06d634	0.032919124
97	0xbda9dd84	-0.08294204
98	0x3c225d00	0.009909868
99	0xbcdc67aa	-0.0269049
100	0xbda977f1	-0.0827483
101	0xbd42a990	-0.04752499
102	0xbb81a2d6	-0.003956179
103	0xbc8067e6	-0.015674543
104	0x3c52c810	0.012865081
105	0xbdd726e2	-0.10505463
106	0xbdc6dfed	-0.09710679
107	0xbcb25c5a	-0.021772552
108	0x3dd2a822	0.10285975
109	0xbdaf3212	-0.08554472
110	0x3dd02367	0.101630025
111	0x3df24d01	0.118310936
112	0x3d752b7a	0.059855916
113	0xbdf21729	-0.11820824
114	0x3d8270ae	0.06369148
115	0xbcbbaa37	-0.022908313
116	0xbd989713	-0.0745069
117	0xbdde15e4	-0.10844019
118	0xbba1131e	-0.004915609
119	0xbcc9a138	-0.024613008
120	0x3cac07ee	0.020999875
121	0xbb9961bf	-0.0046808417
122	0x3cfc2db2	0.030783508
123	0x3d92ff86	0.071776435
124	0xbd8476bc	-0.06467959
125	0x3d0f3fc9	0.03497294
126	0x3cc376fd	0.023860449
127	0x3c1cc7f6	0.009569159
128	0x3d05d994	0.0326782
129	0xbdda1d4d	-0.1065012
130	0xbd8217d7	-0.06352203
131	0xbdc7860e	-0.09742366
132	0xbdd93782	-0.106062904
133	0xbcf0bb3a	-0.029386152
134	0xbda73c98	-0.08165854
135	0xbc800a57	-0.01562993
136	0xbc5a82f2	-0.013336884
137	0xbd9b4bfa	-0.07582851
138	0xbbb8dd78	-0.0056416355
139	0x3c30af5b	0.0107839955
140	0x3dcb6f20	0.09933305
141	0x3d97a4a9	0.07404453
142	0xbd2bd498	-0.041950792
143	0x3d7524ed	0.05984967
144	0xbdb4fcdd	-0.08837292
145	0x3e0673e9	0.13130154
146	0x3d12b755	0.03581937
147	0xbd73ce44	-0.059522882
148	0x3dd6826b	0.10474094
149	0x3d9a7260	0.075413465
150	0xbd7ac7f4	-0.061225846
151	0x3e002dfc	0.12517542
152	0x3d6e7803	0.05821992
153	0xbdee1d1f	-0.11626648
154	0xbdacfa4a	-0.08446176
155	0xbd8e5f21	-0.06951738
156	0xbd67fb3b	-0.056636076
157	0xbde63ab7	-0.11241668
158	0xbdce446b	-0.100716434
159	0x3cbace2b	0.022803387
160	0x3dc2c1ac	0.09509596
161	0xbdc7f5d0	-0.09763682
162	0xbd2e24f4	-0.04251571
163	0xbd8f9738	-0.070112646
164	0x3d54f578	0.05199191
165	0x3c869bd0	0.016431719
166	0xbdd7ff4e	-0.105467424
167	0x3c2d2c7d	0.010569689
168	0xbdea22a9	-0.11432392
169	0xbd686266	-0.056734465
170	0xbde1da27	-0.110279374
171	0xbd80258e	-0.06257163
172	0x3de7905f	0.113068335
173	0x3db1dc90	0.08684647
174	0xbd578456	-0.05261644
175	0x3de94950	0.113909364
176	0x3c2ce138	0.010551743
177	0xbda5bce6	-0.0809267
178	0xbd04a683	-0.03238536
179	0xbcc0f78d	-0.023555541
180	0xbddedc2d	-0.10881839
181	0xbd92c9ca	-0.071673945
182	0xbdc7c410	-0.09754193
183	0x3d1a175c	0.037619933
184	0x3d954014	0.072876126
185	0xbde78466	-0.1130455
186	0x3d7df198	0.06199798
187	0x3db5d6ed	0.088788845
188	0x3dbf0781	0.09327603
189	0x3d635092	0.05549676
190	0xba96bdca	-0.0011500653
191	0x3dd8e3ef	0.1059035
192	0x3d0245d3	0.03180487
193	0xbdd87d33	-0.10570755
194	0xbdfe039f	-0.124030344
195	0xbd8a1364	-0.0674198
196	0xbc5bd41c	-0.01341727
197	0x3c177c16	0.009245893
198	0xbd2c051a	-0.041997053
199	0xbdb9f337	-0.09079593
200	0x3b8c5cd1	0.0042835255
201	0x3d9a8d62	0.07546498
202	0x3d38bb8f	0.045100745
203	0x3dbe5038	0.09292644
204	0xbd480c02	-0.048839577
205	0xbd07c01f	-0.033142205
206	0xbdeedf11	-0.1166364
207	0xbd959a65	-0.07304839
208	0x3cd713ba	0.026254524
209	0x3dae76c3	0.08518746
210	0x3dcf61ed	0.101261
211	0x3db97c35	0.09056894
212	0xbc0b7a0a	-0.008512983
213	0xbd3d678c	-0.046241328
214	0x3de2becc	0.11071548
215	0xbdc5418b	-0.09631642
216	0x3c234a87	0.009966499
217	0x3da4bdc1	0.08044005
218	0xbd93af99	-0.07211227
219	0xbd889787	-0.066695265
220	0xbdefd84e	-0.11711179
221	0xbcf9e682	-0.030505423
222	0x3dcbc9bb	0.099505864
223	0x3def060f	0.116710775
224	0xbbd3de06	-0.0064656762
225	0xbdf9f379	-0.12204642
226	0xbdc3eb1c	-0.09566328
227	0x3d823b4c	0.06358966
228	0x3daa11c5	0.083041705
229	0x3cc1a1e3	0.023636764
230	0xbd3dcb79	-0.046336625
231	0x3e015505	0.12630089
232	0xbda33455	-0.07968966
233	0x3c791a6b	0.015204052
234	0xbd86ddc7	-0.065852694
235	0xbdac9b03	-0.08428004
236	0xbd858af9	-0.065206476
237	0x3d22c053	0.039734196
238	0x3d69a2d9	0.05704007
239	0x3ca8ef15	0.020621816
240	0x3d35fbe9	0.044429693
241	0xbd9ef1f0	-0.0776099
242	0xbc829198	-0.015938565
243	0x3c81762e	0.015803423
244	0xbd1c70eb	-0.038193624
245	0x3de78193	0.11304011
246	0x3dd9b943	0.10631039
247	0xbdd2ab6c	-0.102866024
248	0x3cedbff9	0.029022204
249	0x3cfce466	0.030870628
250	0xbda8952e	-0.08231579
251	0x3c7d6bd4	0.015467603
252	0xbdb1c4c1	-0.08680106
253	0x3d842467	0.06452256
254	0xbd5fa4ba	-0.054600455
255	0xbd07d95c	-0.033166274

gcn2.lin.bias f4 [64]
0	0xbcdfaf68	-0.02730532
1	0x3c6146f6	0.013749829
2	0xbbb591d7	-0.005541067
3	0xbd26b8f2	-0.04070372
4	0xbcf0675d	-0.029346162
5	0xbc46559e	-0.012105374
6	0x3d2172b7	0.03941604
7	0x3d736f6e	0.05943244
8	0xbd422ad1	-0.047404114
9	0xbdcb37ee	-0.09922777
10	0x3d35dcdb	0.044400077
11	0xbdbb36ad	-0.09141288
12	0x3dc48dae	0.09597336
13	0xbcdeda5a	-0.027203728
14	0xbde9ef1a	-0.11422558
15	0xbd3ee5b8	-0.046605796
16	0xbd68e822	-0.056862004
17	0xbd98dd53	-0.07464089
18	0xbd93b6d2	-0.072126046
19	0x3db24341	0.08704234
20	0xbde5cb37	-0.11220401
21	0xbdb07d82	-0.08617689
22	0xbe062c73	-0.13102894
23	0xbdf23c2d	-0.11827884
24	0xbd19a8c0	-0.03751445
25	0xbde1781a	-0.11009236
26	0xbd43e6af	-0.04782742
27	0xbd9ad87c	-0.07560822
28	0x3df0dd87	0.11761003
29	0xbdc2b563	-0.09507253
30	0x3c93fb4d	0.018064165
31	0x3db82e7c	0.08993241
32	0xbc6a5657	-0.014302812
33	0x3dbe5eba	0.092954114
34	0x3d6137c5	0.054984827
35	0xbcb92d7a	-0.022604693
36	0xbdd1f07c	-0.10250947
37	0x3d840807	0.064468436
38	0xbd92a266	-0.07159881
39	0x3de520ea	0.111879185
40	0x3dfa4fff	0.12222289
41	0x3dc6360c	0.096782774
42	0x3d5c64eb	0.05380718
43	0xbca2b5fd	-0.01986217
44	0xbcd954e6	-0.02652974
45	0xbd59f6df	-0.05321395
46	0xbd28bfda	-0.04119859
47	0xbddc01e8	-0.10742551
48	0xbda0fe20	-0.078609705
49	0xbdda53ab	-0.1066049
50	0x3d4b0d29	0.049573097
51	0x3d30167d	0.042990196
52	0xbd99cdf2	-0.07509984
53	0xbda6d697	-0.081463985
54	0x3c579884	0.013158921
55	0x3de22667	0.11042481
56	0x3db47e7e	0.08813189
57	0x3d77802f	0.06042498
58	0x3df7d4b7	0.12101119
59	0x3d152e4e	0.036421113
60	0x3df68ee4	0.12038973
61	0x3c635160	0.013874382
62	0xbda0f05d	-0.07858346
63	0x3d10dca1	0.035366658

no_gnn_proj.weight f4 [64, 10]
0	0x3d85fd48	0.0654245
1	0xbd952aee	-0.07283579
2	0x3e56031e	0.20899627
3	0xbe16cd09	-0.14726652
4	0x3cb563b0	0.022142261
5	0x3e8ece1d	0.27891627
6	0x3e17a190	0.14807725
7	0x3ea1b60d	0.31584206
8	0x3be03b00	0.006842971
9	0xbe97770a	-0.29583007
10	0xbe75781c	-0.239716
11	0x3e9bf9a3	0.30463895
12	0xbd19b3e0	-0.037525058
13	0xbe3c7ef9	-0.18407811
14	0x3db671bc	0.08908412
15	0x3e858d93	0.26084575
16	0xbe498d80	-0.19682884
17	0x3e08190a	0.13290802
18	0x3e0297b6	0.12753186
19	0xbe772000	-0.24133301
20	0x3e91a09d	0.2844285
21	0x3e8c77cb	0.27435145
22	0x3e8d9a9b	0.27657017
23	0xbb5f8a00	-0.0034109354
24	0xbe83cfe6	-0.2574455
25	0xbe0a24a1	-0.13490535
26	0xbd4af468	-0.04954949
27	0x3e91ebf3	0.28500327
28	0xbd051288	-0.032488376
29	0x3dc6e0e8	0.09710866
30	0x3e911a49	0.28340366
31	0xbc7885e0	-0.015168637
32	0x3d1e6ca8	0.03867784
33	0xbe33cf57	-0.17559563
34	0x3dec0d1c	0.11525938
35	0xbe154e16	-0.14580569
36	0x3e002db0	0.12517428
37	0xbe7f0874	-0.24905568
38	0x3e7db54a	0.24776188
39	0x3e8b5ba7	0.27218363
40	0x3e9c196b	0.30488142
41	0x3e328262	0.1743255
42	0xbdb98b36	-0.090597555
43	0xbda9c61c	-0.082897395
44	0x3db14f74	0.086577326
45	0x3e6633ba	0.2248067
46	0xbe5f548c	-0.21809596
47	0x3d07fe50	0.033201516
48	0xbe8a577e	-0.27019876
49	0x3e88f41b	0.26748738
50	0x3e170a8a	0.14750114
51	0x3dbe58d4	0.09294286
52	0xbe203608	-0.15645611
53	0x3e985033	0.29748687
54	0xbe90a803	-0.28253183
55	0x3e487d62	0.1957908
56	0x3e97943b	0.29605278
57	0x3e4e061a	0.20119515
58	0x3dfffe6c	0.12499699
59	0x3e8cec8b	0.27524218
60	0xbe17020e	-0.14746878
61	0xbdaa6c3e	-0.08321427
62	0xbcc0b7c0	-0.023525119
63	0xbe428bab	-0.18998592
64	0xbe9d5eee	-0.30736488
65	0x3e0c7a9e	0.1371865
66	0xbdfabe02	-0.12243272
67	0x3d5e7fc8	0.05432108
68	0xbdb240b2	-0.08703746
69	0x3e6b9cd6	0.23009047
70	0x3e90aa61	0.2825499
71	0xbdfd14f2	-0.123575106
72	0x3e7374aa	0.23774973
73	0x3e84c023	0.2592784
74	0xbd79c670	-0.06098026
75	0xbd4a26d8	-0.04935345
76	0x3dd41d20	0.10357118
77	0x3e3a997a	0.18222609
78	0x3da3d860	0.08000255
79	0xbea081aa	-0.31348926
80	0x3d150948	0.036385804
81	0xbe9b69ea	-0.30354244
82	0xbdd37bda	-0.10326357
83	0x3e93ba67	0.2885315
84	0xbd5f6b68	-0.05454579
85	0x3e8e10af	0.27747104
86	0xbe95d591	-0.292645
87	0x3e6f484e	0.23367426
88	0x3db75134	0.08951035
89	0xbd0cdf70	-0.034392774
90	0x3e2750d8	0.16339433
91	0x3d2394a0	0.03993666
92	0x3de57924	0.11204746
93	0xbe994cde	-0.29941458
94	0xbe5218e4	-0.20517308
95	0xbe95b149	-0.2923682
96	0x3e830821	0.2559214
97	0x3dc593e8	0.096473515
98	0xbe081633	-0.13289718
99	0x3da394d0	0.07987368
100	0xbe9c7fb1	-0.3056617
101	0x3e0f30f2	0.13983515
102	0x3e7baf3e	0.24578568
103	0x38cda000	9.804964e-05
104	0x3e50bf72	0.2038553
105	0xbdade996	-0.084918186
106	0x3e96dde1	0.29466155
107	0xbc9f6150	-0.019455582
108	0xbd2638e8	-0.040581614
109	0x3ea162d9	0.31520727
110	0xbe6d2660	-0.2315917
111	0xbdbeaf30	-0.09310758
112	0x3d64e170	0.055879056
113	0xbdd04836	-0.10170023
114	0xbe65ef4c	-0.22454566
115	0xbe76e754	-0.24111682
116	0xbe3bb88d	-0.1833212
117	0xbe9eecaa	-0.31039935
118	0xbe2e7e97	-0.17040478
119	0xbe304a51	-0.1721585
120	0x3d938568	0.072031796
121	0xbe3624d7	-0.17787491
122	0xbd8486c0	-0.06471014
123	0x3e3f294e	0.186681
124	0x3e455c86	0.19273576
125	0x3e946089	0.289799
126	0x3da3af10	0.07992375
127	0xbdf12194	-0.11773983
128	0x3de2b7d0	0.11070216
129	0xbe9ab27f	-0.30214307
130	0xbdfce410	-0.12348187
131	0xbe930ace	-0.2871918
132	0x3e23a14e	0.15979502
133	0x3e298948	0.16556275
134	0xbe24ead4	-0.16105205
135	0xbe938bc4	-0.2881757
136	0xbe5b7a88	-0.2143346
137	0xbe9ba461	-0.3039885
138	0x3e7d619a	0.24744263
139	0xbe85af26	-0.2611019
140	0xbe69c396	-0.22828516
141	0xbd920fc8	-0.07131916
142	0x3dcff274	0.10153666
143	0x3e3b1054	0.18267947
144	0xbe6a2d62	-0.22868875
145	0x3e9e245f	0.30887124
146	0xbe80ea96	-0.25178975
147	0xbe838b77	-0.2569234
148	0xbe0a5068	-0.13507235
149	0xbd71aeb0	-0.059004486
150	0xbe36213e	-0.17786118
151	0x3e8654cd	0.26236573
152	0x3cc8e750	0.02452436
153	0xbd572ce8	-0.05253306
154	0x3e8a79f7	0.27046177
155	0x3dee3ed4	0.11633077
156	0x3e4dd63a	0.20101252
157	0x3e9b1c8f	0.30295226
158	0x3d5ec578	0.05438754
159	0xbe886773	-0.26641425
160	0xbe746b86	-0.23869142
161	0xbe51e1f9	-0.20496358
162	0x3e938f13	0.28820094
163	0x3e79a0c6	0.24377736
164	0xbdb37bbc	-0.08763835
165	0xbe528a7c	-0.2056064
166	0x3e5ef0da	0.21771565
167	0xbe875de6	-0.26438826
168	0x3e8f70ef	0.2801585
169	0xbe85d25e	-0.2613706
170	0xbe17afb4	-0.14813119
171	0x3e44fe7a	0.192377
172	0x3deceb88	0.115683615
173	0x3e61b506	0.22041711
174	0xbe6c3777	-0.23068033
175	0x3e72165a	0.23641339
176	0x3ea1a061	0.31567672
177	0x3e7bea32	0.24601057
178	0xbced98f0	-0.02900359
179	0xbb192480	-0.0023367703
180	0x3e1c6166	0.1527153
181	0x3e4fcfc6	0.20294103
182	0xbcfc58e0	-0.030804098
183	0x3da42ddc	0.080165595
184	0x3d9144cc	0.070932
185	0x3d94d700	0.072675705
186	0xbc968350	-0.018373162
187	0xbe7aed9a	-0.245047
188	0x3a903b00	0.0011003911
189	0xbe85d691	-0.26140264
190	0x3e4ae9fe	0.19815823
191	0x3e817e9f	0.25291917
192	0x3d11a710	0.035559714
193	0x3e481426	0.19538936
194	0x3db4faec	0.08836922
195	0x3dab0300	0.083501816
196	0xbe668ed6	-0.22515425
197	0xbe46d990	-0.19418931
198	0x3e5ffd9a	0.21874085
199	0xbca21ae0	-0.019788206
200	0xbd0d39d8	-0.034478992
201	0xbc819280	-0.015816927
202	0x3e7d09be	0.24710748
203	0xbe769288	-0.24079335
204	0xbe96b229	-0.294328
205	0xbe9ffefe	-0.3124923
206	0xbc7e3880	-0.0155164
207	0xbddc71ca	-0.10763891
208	0xbe275d9a	-0.163443
209	0x3e0f8f40	0.1401949
210	0xbd279c30	-0.040920436
211	0x3e54076a	0.20705953
212	0x3de3bb94	0.11119762
213	0x3cc1b780	0.02364707
214	0x3e020e32	0.12700728
215	0xbea1c09e	-0.31592268
216	0x3e453a46	0.19260511
217	0x3bc9bf40	0.006156832
218	0x3d6fe2d0	0.058565915
219	0x3e3bbf68	0.18334734
220	0xbe533f2b	-0.20629565
221	0xbdf8b6f0	-0.121442676
222	0x3d2fac90	0.042889178
223	0xbd96326a	-0.073338345
224	0x3dba4588	0.09095293
225	0xbe8f7b21	-0.28023627
226	0xbe2e8145	-0.170415
227	0xbe516a0b	-0.20450608
228	0x3e1b0ce4	0.15141636
229	0x3e8739d5	0.2641131
230	0x3d2f8b10	0.04285723
231	0x3e17e800	0.14834595
232	0x3e93dc77	0.2887914
233	0xbd0bc410	-0.034122527
234	0x3e589c4a	0.2115337
235	0xbe96e031	-0.2946792
236	0x3e4e333e	0.20136735
237	0xbd099810	-0.033592284
238	0x3dbda8f4	0.09260741
239	0x3c8de2f0	0.017320126
240	0xbe7646f4	-0.24050504
241	0x3db469e0	0.088092566
242	0xbdfd922c	-0.12381396
243	0x3e73127a	0.23737517
244	0xbc112600	-0.008859158
245	0x3c51d5c0	0.01280731
246	0x3e709cda	0.23497334
247	0x3e5db976	0.21652779
248	0xbe122b5f	-0.14274357
249	0xbe55d5ee	-0.20882389
250	0xbe1b97fd	-0.15194698
251	0x3e3581b2	0.17725256
252	0xbe145965	-0.14487226
253	0x3b523f00	0.0032081008
254	0xbdb8fe26	-0.0903285
255	0x3ea07051	0.3133569

no_gnn_proj.bias f4 [64]
0	0x3e15a16c	0.14612359
1	0x3e834cbd	0.25644484
2	0xbe5cb140	-0.2155199
3	0x3e8f7141	0.28016093
4	0x3e54ed96	0.20793757
5	0x3e364522	0.1779981
6	0xbe1d9e26	-0.1539236
7	0x3e9a2605	0.30107132
8	0x3e8fa2bb	0.2805384
9	0x3e693852	0.2277539
10	0xbe987cd3	-0.29782733
11	0xbe98d5b6	-0.29850549
12	0x3e44ed02	0.19231036
13	0x3dc3f8ac	0.09568915
14	0xbe4d3c8a	-0.20042625
15	0x3e79fa12	0.244118
16	0x3e76b85a	0.24093762
17	0xbe085033	-0.13311844
18	0x3e61602e	0.22009346
19	0x3e309dec	0.17247742
20	0xbe9fd64b	-0.3121818
21	0xbe175a76	-0.14780602
22	0xbe67f8fc	-0.22653574
23	0xbe2bf688	-0.16793263
24	0x3d75e2f8	0.060030907
25	0x3db7c45c	0.089729995
26	0xbe86e259	-0.26344565
27	0xbdd0c83e	-0.10194443
28	0xbe0c7dcf	-0.13719867
29	0x3dcf6118	0.10125941
30	0x3e26f222	0.16303304
31	0xbdf11400	-0.11771393
32	0x3e718ea2	0.23589566
33	0x3e911037	0.28332683
34	0x3e9785f9	0.295944
35	0xbe485248	-0.19562638
36	0xbe4661c6	-0.19373235
37	0xbe2069f3	-0.15665416
38	0x3e5d3ca2	0.21605161
39	0xbd0a12c8	-0.033709317
40	0xbe654fb4	-0.22393686
41	0xbe6a03ee	-0.22853062
42	0x3966f800	0.00022026896
43	0x3e3eaeda	0.18621388
44	0x3b887e80	0.0041654706
45	0xbe44a903	-0.19205098
46	0x3d8b6f80	0.06808376
47	0xbe1f8228	-0.15576994
48	0xbd7dc8b0	-0.06195897
49	0xbce9d440	-0.028543591
50	0xbe850b12	-0.25985008
51	0x3e849a83	0.25899133
52	0x3e905601	0.28190616
53	0x3e0e9592	0.13924244
54	0x3e0110b4	0.12604028
55	0x3e9a6c39	0.30160692
56	0x3dfa989c	0.12236139
57	0xbe480346	-0.19532499
58	0xbe524970	-0.20535827
59	0xbe7cdc30	-0.2469337
60	0xbe63145c	-0.22175735
61	0x3d0a2300	0.033724785
62	0x3ca3b620	0.019984305
63	0xbe4d44f1	-0.2004583

post.0.weight f4 [128, 128]
0	0x3d754a0e	0.059885077
1	0x3d774a02	0.060373314
2	0xbd25be4d	-0.040464688
3	0xbd535104	-0.051590934
4	0x3d53a823	0.05167402
5	0xbc603806	-0.013685232
6	0x3b53240f	0.0032217538
7	0x3d1f366e	0.038870268
8	0xbdb65c08	-0.08904272
9	0xbd44ac73	-0.048016023
10	0x3d22932b	0.03969113
11	0x3d088194	0.0333267
12	0x3c6b4480	0.014359593
13	0x3d9b4c98	0.075829685
14	0x3d949c55	0.072563805
15	0xbd5bceb6	-0.05366393
16	0xbd9726e4	-0.07380465
17	0xbbecfb37	-0.0072320956
18	0xbbb7f78e	-0.0056142276
19	0x3d054d7a	0.03254459
20	0x3ccb442d	0.024812782
21	0xbd002e98	-0.031294435
22	0xbdb4e26e	-0.088322505
23	0x3c98b21b	0.018639615
24	0x3bcc5b63	0.00623648
25	0x3da2765e	0.07932733
26	0xbcd60b47	-0.026128424
27	0xbc2cae6f	-0.010539635
28	0xbc859878	-0.016308054
29	0xbd47b5e5	-0.048757453
30	0x3d14419c	0.036195382
31	0xbdb47cfa	-0.088129
32	0x3c1d3dfb	0.009597297
33	0x3cf2f4d4	0.029657759
34	0xbbaf9b98	-0.0053591244
35	0x3bcbd5ef	0.006220571
36	0x3d0b9cbe	0.034085028
37	0xbd9f9df1	-0.07793797
38	0x3d3f5afd	0.046717633
39	0xbd99b5a7	-0.075053506
40	0xbdad4600	-0.08460617
41	0xbd89bf4d	-0.06725941
42	0xbcad6bd3	-0.021169579
43	0x3cab8148	0.02093567
44	0x3a4e0ded	0.00078603515
45	0xbda24e26	-0.07925062
46	0x3d60ec98	0.054913133
47	0xbd6ba17c	-0.05752705
48	0xbda570b9	-0.08078141
49	0x3d086162	0.033295996
50	0xbd318937	-0.04334375
51	0x3d36efb8	0.044662207
52	0x3d0acaa1	0.03388465
53	0xbd820952	-0.06349434
54	0xbd776c65	-0.060406107
55	0x3d94d48c	0.072671026
56	0x3ca3e12d	0.020004833
57	0x3c4489cf	0.011995747
58	0xbd94eee6	-0.07272129
59	0x3c89aa36	0.016804796
60	0x3cda96c8	0.026683226
61	0xbd81da0a	-0.06340416
62	0x3d88a098	0.06671256
63	0x3c08d2ca	0.008351037
64	0xbcdc2eba	-0.02687775
65	0xbd4b741c	-0.049671277
66	0x3c498cbe	0.012301622
67	0xbd912d79	-0.07088751
68	0xbda98194	-0.08276668
69	0x3d0177f9	0.031608555
70	0x3d397b47	0.045283582
71	0x3c4514dd	0.0120289
72	0xbdb09424	-0.086220056
73	0xbc70e942	-0.0147040505
74	0x3d1360fc	0.035981163
75	0xbd6d84fc	-0.057988152
76	0x3d8676d2	0.06565632
77	0xbd6ac194	-0.057313517
78	0xbd2fffdf	-0.042968627
79	0x3d0dfb43	0.03466345
80	0xbd0f3f2f	-0.034972366
81	0xbccd26d0	-0.025042921
82	0xbd1d24f9	-0.038365338
83	0x3daa3b2f	0.083120696
84	0xbd5e1068	-0.054214865
85	0xbc9fdc08	-0.019514099
86	0x3d133128	0.03593555
87	0xbcd9374a	-0.026515622
88	0x3d3ed932	0.046593852
89	0x3db3df73	0.08782854
90	0xbcd77c34	-0.026304342
91	0x3bf6adef	0.0075280587
92	0xbd897e92	-0.067135945
93	0xbd820e62	-0.063503996
94	0xbc43c529	-0.011948862
95	0xbcefb4f8	-0.029261097
96	0xbd4190bb	-0.047257166
97	0x3d913a9e	0.070912585
98	0x3ccb94e8	0.024851277
99	0x3cb64153	0.022247946
100	0x3c82b67f	0.015956162
101	0xbd0f65cf	-0.0350092
102	0xbd8f3ab9	-0.06993622
103	0xbb884807	-0.004158977
104	0x3d6e113e	0.058121912
105	0x3d26ee36	0.04075452
106	0x3d040d83	0.03223945
107	0x3d77f937	0.060540404
108	0x3d5c1828	0.053733975
109	0x3bc61cf3	0.0060459315
110	0x3d24ae87	0.040205505
111	0xbd9f8817	-0.07789629
112	0xbd21ea8d	-0.039530326
113	0xbd1e1001	-0.03858948
114	0xbda833b8	-0.082129896
115	0xbd16eee9	-0.036848936
116	0x3d8a924f	0.067661874
117	0x3ce5a29d	0.028031642
118	0x3d9faeee	0.07797037
119	0xbcd944f9	-0.026522147
120	0xbcf660e4	-0.030075498
121	0x3bb3957f	0.005480468
122	0xbd9f65b8	-0.07783073
123	0xbc8b2b91	-0.016988548
124	0x3d9feba9	0.078086205
125	0xbc3a1d70	-0.0113595575
126	0x3b9cdcd6	0.004787068
127	0xbd964c0f	-0.07338726
128	0xbc8029fa	-0.015645016
129	0x3cd4c42f	0.025972454
130	0x3d0cdc86	0.034389995
131	0xbd385438	-0.045002192
132	0x3ada2dad	0.0016645693
133	0xbd96bd6f	-0.0736035
134	0xbd8d4600	-0.06898117
135	0xbd02f8d8	-0.031975597
136	0xbdb22fc7	-0.08700519
137	0x3da5d969	0.08098108
138	0x3d9b3a25	0.075794496
139	0x3b11dfca	0.0022258633
140	0x3d030a0f	0.031992014
141	0x3d1486c9	0.036261354
142	0xbd366cd4	-0.04453738
143	0xbd05c214	-0.03265579
144	0xbd1d9645	-0.038473386
145	0x3d9ec4c3	0.07752373
146	0x3d48ffd1	0.04907209
147	0xbd2e61c6	-0.042573713
148	0x3d87dc8c	0.06633863
149	0x3ce3cf06	0.027808677
150	0x3d589575	0.05287691
151	0xbdb1fdf6	-0.08691017
152	0x3d9b7875	0.07591335
153	0x3c58e870	0.013239011
154	0x3d2005ba	0.03906796
155	0x3c5d4ad4	0.01350661
156	0x3d419a07	0.047266033
157	0xbd8c3158	-0.06845349
158	0x3ccbc410	0.024873763
159	0xbd47dae1	-0.048792724
160	0x3c6375db	0.013883079
161	0xbd24a3f9	-0.04019544
162	0x3d9192d9	0.07108087
163	0x3db11660	0.08646846
164	0xbd3bef50	-0.045882523
165	0xbcea72d4	-0.028619207
166	0x3c925778	0.017863974
167	0x3beab285	0.0071623945
168	0xbcc19767	-0.023631765
169	0x3c91026e	0.017701354
170	0xbc07409b	-0.008255149
171	0x3cc291eb	0.02375122
172	0xbce45675	-0.027873257
173	0xbd83df15	-0.06439034
174	0x3c1fbef7	0.009750119
175	0x3d977741	0.07395793
176	0xbd3b495c	-0.045724258
177	0xbcf4a0ba	-0.029861797
178	0x3dae947e	0.085244164
179	0xbbaf29c0	-0.005345553
180	0xbc3ce380	-0.01152885
181	0xbd512606	-0.051061653
182	0x3d332756	0.043738686
183	0x3cb78482	0.022402052
184	0x3da1a5f9	0.07892985
185	0xbd8cf5ce	-0.06882821
186	0xbdaf89c3	-0.08571198
187	0xbd97596b	-0.07390102
188	0xbbf9ce20	-0.007623449
189	0xbda4c9a7	-0.08046275
190	0x3cdd8ed8	0.027045652
191	0x3d7121ca	0.058870114
192	0x3cc227a0	0.023700535
193	0xbc9ce0e0	-0.019150198
194	0x3dbc4644	0.091930896
195	0xbd323158	-0.04350409
196	0x3c55af52	0.013042288
197	0xbbafd80f	-0.0053663324
198	0x3d758e5a	0.05995021
199	0xbcb8c9d9	-0.022557186
200	0x3d9d2cae	0.076745376
201	0xbca619d4	-0.020275988
202	0xbd2ca0e5	-0.04214563
203	0x3d97dee5	0.07415561
204	0xbbd103cc	-0.0063786265
205	0x3bc570a0	0.006025389
206	0xbd44fb2a	-0.04809109
207	0xbd831198	-0.0639984
208	0x3d3685fe	0.04456138
209	0xbdb35c95	-0.08757893
210	0x3c7fb760	0.015607685
211	0x3c81e36d	0.015855515
212	0xbca726f1	-0.02040431
213	0xbd29229f	-0.041292783
214	0x3d3b8a9a	0.045786478
215	0xbd5c714c	-0.053818986
216	0x3d6b126a	0.057390608
217	0xbd4e6da0	-0.050397515
218	0x3d9ac1f3	0.07556524
219	0xbd3eef66	-0.046615027
220	0x3da1bb05	0.07896999
221	0x3d31435b	0.043277126
222	0xbdb39e1d	-0.08770392
223	0xbd34edb2	-0.044171996
224	0xbd6f9f4e	-0.058501534
225	0xbcbdc6b3	-0.023166036
226	0xbc530410	-0.012879387
227	0xbbeaa311	-0.0071605523
228	0xbda1d574	-0.07902041
229	0xbda8fdcd	-0.08251534
230	0xbc952e40	-0.01821053
231	0xbc072c59	-0.008250319
232	0xbd899645	-0.06718115
233	0xbd3164eb	-0.043309133
234	0x3d0bc14b	0.034119885
235	0x3cf03bdb	0.029325416
236	0x3d992eed	0.074796535
237	0xbd309267	-0.04310837
238	0xbd3ee5c8	-0.046605855
239	0x3b338231	0.0027390833
240	0x3c8afae0	0.01696533
241	0xbd90ccc5	-0.07070307
242	0xbb062385	-0.0020467949
243	0x3da69485	0.081337966
244	0x3b2204ac	0.0024722023
245	0x3d8736e5	0.06602267
246	0xbd665cb0	-0.056240737
247	0x3cff1ec3	0.031142598
248	0x3cc74e35	0.024329284
249	0x3b92060d	0.0044562877
250	0xbd496106	-0.049164794
251	0xbd1cc739	-0.03827593
252	0x3d8992cc	0.067174524
253	0x3db1f420	0.08689141
254	0x3c8c2344	0.01710666
255	0xbd4c0fbb	-0.04981969

post.0.bias f4 [128]
0	0x3d66c5cb	0.056340974
1	0xbd988cbd	-0.07448719
2	0x3ccb6f8d	0.024833465
3	0x3d800d21	0.06252504
4	0xbcd629fc	-0.026143067
5	0x3c567061	0.013088317
6	0xbdafecad	-0.08590064
7	0xbd960746	-0.07325606
8	0xbdbfa6e1	-0.093580015
9	0x3b5c58a3	0.0033622168
10	0xbd99efd3	-0.07516446
11	0xbcad29a2	-0.021138016
12	0x3d4052ea	0.046954073
13	0x3d42ed04	0.047589317
14	0xbc41b1bb	-0.011822159
15	0x3cd78197	0.02630691
16	0x3d08309e	0.03324949
17	0x3cf747e3	0.030185645
18	0x3dba4b56	0.090964004
19	0xbd587d51	-0.052853886
20	0x3d54f8c6	0.05199506
21	0xbd44b5a3	-0.048024785
22	0x3cc943b9	0.024568425
23	0x3d77c8f7	0.06049439
24	0x3d13adf4	0.036054567
25	0xbb5955bc	-0.0033162674
26	0x3d8fcb2d	0.070211746
27	0x3a921eb4	0.0011148066
28	0xbc00df2a	-0.007865706
29	0xbd864d9b	-0.06557771
30	0x3d521d57	0.051297512
31	0x3b136bc2	0.0022494649
32	0xbcde4179	-0.02713083
33	0x3cd244f8	0.025667652
34	0x3d86864e	0.06568585
35	0xbd1c9362	-0.038226493
36	0xbdb28113	-0.08716025
37	0xbd9e0025	-0.07714871
38	0xbcd5ed92	-0.026114259
39	0x3d8b2cae	0.06795631
40	0xbdabfe5d	-0.08398125
41	0x3d0d5dbd	0.034513224
42	0x3d9ec955	0.07753245
43	0xbda1872b	-0.07887109
44	0xbd937256	-0.07199542
45	0xbd23b427	-0.03996673
46	0x3c2743a6	0.010209
47	0x3d8a85c4	0.06763795
48	0xbce546d7	-0.02798788
49	0xbd9f134b	-0.07767352
50	0x3d67f5c7	0.056630876
51	0x39c0cbad	0.00036772844
52	0xbd8449f7	-0.0645942
53	0x3d415aff	0.04720592
54	0x3da1f5a7	0.079081826
55	0x3d118db4	0.03553553
56	0x3d442f3c	0.04789661
57	0x3bc28c35	0.005937124
58	0x3d2eca10	0.04267317
59	0x3d0d3833	0.034477424
60	0x3d8c392e	0.06846844
61	0x3d8fafd1	0.07015956
62	0xbd3e422c	-0.046449825
63	0xbc24ba2e	-0.010054154
64	0x3d42f1e7	0.047593977
65	0x3c1bb5a1	0.009503753
66	0xbd65b98a	-0.056085147
67	0x3d6b02e6	0.05737581
68	0xbd792402	-0.060825355
69	0xbd2c9215	-0.042131502
70	0x3d63d963	0.055627238
71	0x3c2aa0c9	0.010414311
72	0x3d3e207b	0.046417695
73	0xbd85223e	-0.06500672
74	0xbd2dd288	-0.042437106
75	0x3d1d8772	0.03845925
76	0xbd89691b	-0.067095004
77	0xbc97180a	-0.01844408
78	0x3ca7c054	0.020477451
79	0x3c16619a	0.009178543
80	0xbd350899	-0.044197652
81	0xbdb1779e	-0.08665393
82	0x3d432861	0.04764593
83	0xbd981ef2	-0.07427777
84	0x3d43ddfc	0.047819123
85	0xbc64c915	-0.013963957
86	0x3da6f5fd	0.08152387
87	0x3d18e5b6	0.037328444
88	0x3d7bc930	0.061471164
89	0x3cdd9206	0.027047168
90	0x3c5cb488	0.013470776
91	0xbdb2530f	-0.087072484
92	0x3c1bec1f	0.009516745
93	0xbd9a52cf	-0.07535326
94	0x3da4e5ba	0.08051629
95	0xbbf43932	-0.0074531073
96	0x3c18a458	0.009316526
97	0x3c541dc4	0.01294655
98	0xbc8b2bd5	-0.016988674
99	0xbda0fc6c	-0.07860646
100	0x3d13f9c4	0.036126867
101	0x3d22cc47	0.039745595
102	0xbda80911	-0.08204854
103	0x3aff0239	0.0019455618
104	0x3d437ae4	0.04772462
105	0xbd55d3de	-0.052204005
106	0xbdba139d	-0.09085772
107	0x3c4d4bdf	0.012530296
108	0xbc49deda	-0.012321198
109	0x3d79948c	0.06093268
110	0xbbd6bd38	-0.0065533184
111	0x3da1b8c4	0.07896569
112	0x3cff4b42	0.031163815
113	0xbd640c29	-0.05567566
114	0x3d4720e9	0.04861537
115	0xbd26ff92	-0.040771075
116	0xbd0cb1a5	-0.034349103
117	0x3cd9541c	0.026529364
118	0x3d89bcc3	0.067254566
119	0x3c9c13bf	0.019052384
120	0x3d2dbfb5	0.042419154
121	0xbc1213e0	-0.008915871
122	0x3d93d37b	0.07218071
123	0xbd19f57f	-0.03758764
124	0x3d82a4c7	0.06379085
125	0x3d420efb	0.047377568
126	0xbd4104d2	-0.047123738
127	0x3d8c9765	0.06864814

post.2.weight f4 [128, 128]
0	0xbd7f3cc8	-0.062313825
1	0x3db9e167	0.09076195
2	0x3cbfdc65	0.023420522
3	0xbda8eb9b	-0.08248063
4	0xbd972403	-0.073799156
5	0x3d7fbcbc	0.06243585
6	0xbd7fafc3	-0.06242348
7	0x3d14f41a	0.036365606
8	0x3d9b1fa3	0.075743936
9	0xbd96085f	-0.073258154
10	0xbb2e17e6	-0.0026564538
11	0x3da2ea38	0.0795483
12	0xbdb80cf9	-0.08986849
13	0xbd73be0c	-0.059507415
14	0xbdb2bb50	-0.08727133
15	0x3bd75e38	0.006572511
16	0xbd8dfb3a	-0.06932683
17	0xbcfdb976	-0.030972224
18	0x3cb4d00e	0.022071864
19	0x3d379a62	0.044824965
20	0xbdba7dbc	-0.09106013
21	0xbd4ef1e7	-0.050523665
22	0xbd2a26ec	-0.041541025
23	0x3d6cc36b	0.057803553
24	0xbcbc7f86	-0.023010027
25	0x3d3f9841	0.04677606
26	0x3b273bde	0.0025517861
27	0x3d959b20	0.07304978
28	0xbc4a6e0c	-0.012355339
29	0xbd1a28a0	-0.0376364
30	0xbc949abb	-0.018140187
31	0xbdabf830	-0.083969474
32	0xbbcca6a7	-0.0062454524
33	0xbd9d77cb	-0.07688864
34	0xbb7afa3b	-0.0038296122
35	0x3ce232b0	0.02761206
36	0x3d5c36bd	0.05376314
37	0x3d86fa9d	0.065907694
38	0x3cf01e27	0.029311253
39	0x3da8546d	0.08219228
40	0xbc90ad22	-0.017660681
41	0xbba3f944	-0.00500408
42	0x3b8568b4	0.0040713195
43	0x3d2ee9a1	0.042703275
44	0xbd7aee4b	-0.06126241
45	0x3d2067a7	0.03916135
46	0xbc88e766	-0.016711902
47	0xbd2787cc	-0.04090099
48	0x3d870a2d	0.06593738
49	0x3d2a0bb8	0.041515082
50	0x3c6d97eb	0.014501552
51	0xbd29e8ce	-0.041481785
52	0x3bc91be3	0.0061373576
53	0xbd903850	-0.07041991
54	0x3d95c393	0.073126934
55	0xbd69268b	-0.056921523
56	0x3d9b789f	0.07591366
57	0x3cc034c5	0.023462662
58	0x3cf339ec	0.029690705
59	0xbc16b23f	-0.009197771
60	0xbd97d71b	-0.07414075
61	0xbd8b969d	-0.068158366
62	0x3d85bf8c	0.06530675
63	0x3ca8b90c	0.02059605
64	0xbc6099aa	-0.013708511
65	0xbd2b21ea	-0.04178039
66	0x3ccd44bc	0.02505719
67	0x3cbbe46a	0.022936065
68	0xba546994	-0.00081028906
69	0x3d21c1c7	0.03949144
70	0xbd0dc901	-0.03461552
71	0xbce4d100	-0.02793169
72	0x3d933622	0.071880594
73	0x3d61cb17	0.055125322
74	0xbceb3c6a	-0.028715331
75	0x3d53ae51	0.051679913
76	0xbd387fc0	-0.045043707
77	0xbcaa8968	-0.020817474
78	0x3d909297	0.0705921
79	0x3d734ef3	0.059401464
80	0x3c9ec20d	0.01937964
81	0x3d81e1ec	0.06341919
82	0x3da83f90	0.082152486
83	0x3ca4efc0	0.020133853
84	0x3d9a13d6	0.07523315
85	0xbc4088ad	-0.011751336
86	0xbd20e233	-0.03927822
87	0x3da1c826	0.078995034
88	0x3b274824	0.0025525177
89	0x3d4c1b8e	0.049830966
90	0xbd922b22	-0.07137133
91	0xbc1155aa	-0.008870522
92	0xbbd556b6	-0.006510581
93	0xbd9a75ae	-0.07541977
94	0x3c849ab9	0.016187059
95	0xbbdbaec8	-0.006704185
96	0xbd613393	-0.054980826
97	0xbc9c41a4	-0.019074269
98	0x3db0a430	0.08625066
99	0xbc3a905e	-0.011386959
100	0xbd81e8ce	-0.06343232
101	0xbd831d2c	-0.064020485
102	0x3da38679	0.07984633
103	0xbb11ce1e	-0.00222481
104	0xbd120974	-0.035653546
105	0xbd74415b	-0.05963264
106	0xbd8f90e1	-0.07010055
107	0xbd88de4f	-0.06683027
108	0x3d0aeb7b	0.033915978
109	0x3d82fcb3	0.06395855
110	0xbca94cb1	-0.020666452
111	0xbadc947f	-0.0016828923
112	0x3da211ed	0.07913575
113	0x3c969891	0.018383296
114	0xbbc9a61b	-0.0061538345
115	0xbd6fd961	-0.058556918
116	0xbd8c1d7d	-0.06841562
117	0xbd8bcbef	-0.068260066
118	0xbd0931da	-0.033494808
119	0x3d50877e	0.050910465
120	0x3db56126	0.0885642
121	0xbd60907b	-0.054825287
122	0xbc284827	-0.010271109
123	0x3d81957b	0.06327339
124	0xbc7de8e1	-0.015497417
125	0x3ce22c78	0.027609095
126	0x3d69e7b3	0.05710573
127	0xbcd7df29	-0.026351528
128	0xbd3bc3ed	-0.045841146
129	0xbd4555aa	-0.0481774
130	0xbd998071	-0.074952014
131	0x3dadd701	0.08488274
132	0x3d53fc75	0.051754434
133	0xbbc305b8	-0.0059516095
134	0xbda57014	-0.08078018
135	0x3d18c9bd	0.037301768
136	0x3d15783f	0.03649163
137	0x3d14c62f	0.036321815
138	0xbd8ca542	-0.06867458
139	0x3bea38c4	0.0071478803
140	0xbda78c44	-0.081810504
141	0xbccbc934	-0.024876215
142	0x3d75b8d7	0.05999073
143	0xbd7a0240	-0.061037302
144	0x3d22bf57	0.039733257
145	0x3cfdf976	0.031002741
146	0x3d97314f	0.07382452
147	0xbd0992b5	-0.033587176
148	0x3d7da121	0.061921243
149	0x3d7b6e5c	0.061384544
150	0x3c939c27	0.018018795
151	0xbda2b27a	-0.07944198
152	0x3bb96bf0	0.005658619
153	0x3ce955d3	0.028483307
154	0x3d032d95	0.032025892
155	0x3b6f0bab	0.003647546
156	0x3da27074	0.07931605
157	0x3cac4323	0.021028107
158	0xbb86a174	-0.004108602
159	0x3d8acaf1	0.06776989
160	0x3d8f5aea	0.06999762
161	0xbcd40362	-0.02588052
162	0x3c2655da	0.010152305
163	0x3d0aa561	0.033849124
164	0x3d97668f	0.073926084
165	0x3da4d491	0.08048356
166	0xbd8e8476	-0.06958859
167	0x3d108fc3	0.03529335
168	0x3a32dd11	0.00068231026
169	0xbd92aa4e	-0.07161389
170	0x3d9a0611	0.07520688
171	0xbcc5d98f	-0.024151592
172	0xbd80cde9	-0.06289274
173	0x3d27c915	0.04096325
174	0xbc48f75b	-0.012266005
175	0xbd20e0e6	-0.03927698
176	0x3c4d7d71	0.012542115
177	0x3d365900	0.04451847
178	0xbcb0cf15	-0.02158312
179	0x3cc7f386	0.024408113
180	0xbc648c1e	-0.013949422
181	0xbd9b6155	-0.07586924
182	0xbd232332	-0.039828487
183	0xbd0456fe	-0.032309525
184	0xbd81dd9f	-0.06341099
185	0x3b4b024b	0.0030976709
186	0xbcdf693d	-0.027271861
187	0x3d3e1fb5	0.046416957
188	0xbccf3d84	-0.025297888
189	0x3d623faf	0.055236515
190	0x3c31a470	0.010842428
191	0x3b346262	0.002752446
192	0xb9cfda94	-0.0003964497
193	0x3d4e6249	0.0503867
194	0xbc31f3c0	-0.010861337
195	0x3d8fa8f0	0.07014644
196	0x3d72a6c2	0.059241064
197	0xbdaa1693	-0.08305087
198	0xbd030c2e	-0.031994037
199	0x3b20f08d	0.0024557442
200	0xbdbfd92c	-0.09367594
201	0x3d6f5762	0.058432944
202	0x3da7a1d7	0.081851654
203	0xbd97d6bc	-0.07414004
204	0x3d817e5c	0.06322929
205	0x3ccb2b08	0.024800792
206	0x3da50e56	0.08059375
207	0x3d8592bc	0.06522128
208	0xbd85d7a9	-0.065352745
209	0xbcb67d38	-0.022276506
210	0x3c5d969c	0.013524678
211	0xbb220178	-0.0024720114
212	0xbd2e8698	-0.042608827
213	0x3b9cea29	0.0047886563
214	0x3cb300ba	0.021850932
215	0x3c72efe7	0.014827705
216	0xbd45c3f8	-0.048282593
217	0x3cac5afc	0.021039478
218	0x3bff5a1a	0.0077927234
219	0xbd12c829	-0.03583542
220	0xbd2179e9	-0.039422903
221	0xbd6aac20	-0.057293057
222	0x3dab230e	0.083562955
223	0x3d38bbb1	0.04510087
224	0xbd5d4d54	-0.054028824
225	0x3cceae38	0.025229558
226	0x3ac99e12	0.0015382192
227	0x3d71463b	0.058904868
228	0x3dac6a0e	0.08418666
229	0xbb8302ab	-0.003998121
230	0xbdb64a0b	-0.08900841
231	0x3cbdfda1	0.023192229
232	0x3d628a22	0.055307515
233	0x3cfd8d44	0.03095115
234	0x3d9d0d4c	0.07668552
235	0xbdb004b1	-0.08594645
236	0xbd895d47	-0.06707244
237	0xbd8d19f1	-0.068897136
238	0x3d06a71a	0.032874204
239	0xbd3775fb	-0.04479025
240	0xbd4147c4	-0.04718758
241	0xbd9c958f	-0.076457135
242	0xbcfa97dd	-0.030589992
243	0x3d8f087a	0.06984039
244	0x3d7e3212	0.06205947
245	0xbd978006	-0.073974654
246	0x3c9e5aee	0.019330468
247	0x3d02cd02	0.031933792
248	0x3d975ff5	0.07391349
249	0x3d4c4231	0.049867813
250	0x3b366550	0.0027831383
251	0xbdac2fac	-0.0840753
252	0x3d9c9e6f	0.07647406
253	0x3c47bf4b	0.012191604
254	0x3d240710	0.040045798
255	0x3d20096f	0.039071497

post.2.bias f4 [128]
0	0x3cf62f2d	0.030051792
1	0xbc791605	-0.015203004
2	0x3d3db97c	0.04631947
3	0x3d2b829e	0.041872613
4	0x3b2002f9	0.0024415834
5	0x3dad3470	0.08457267
6	0x3d6b2105	0.057404537
7	0xba5d9c2c	-0.00084537524
8	0xbd647134	-0.05577202
9	0x3d3d5c4c	0.0462306
10	0x3c89bec0	0.01681459
11	0xb9d71b86	-0.00041028502
12	0x3d820c24	0.06349972
13	0x3dab893a	0.08375783
14	0xbd16ea9e	-0.036844842
15	0x3d2ed83b	0.042686682
16	0xbcb2418f	-0.021759776
17	0x3d3ae5bc	0.045629248
18	0x3d5c2be8	0.05375281
19	0x3d8fbc10	0.07018292
20	0xbdaac50d	-0.08338366
21	0xbd749d05	-0.059720058
22	0x3bf65444	0.0075173695
23	0xbcb7bb69	-0.022428231
24	0xbcc3ec7d	-0.023916477
25	0xbd85025c	-0.06494591
26	0xbcde275c	-0.027118377
27	0xbd4a15a9	-0.049337063
28	0xbd00e202	-0.031465538
29	0xbbba3f62	-0.0056838254
30	0x3b8bc17a	0.0042650076
31	0xbd572c4f	-0.05253249
32	0x3c3d21d7	0.011543713
33	0x3d5607eb	0.052253645
34	0xbd8e80f9	-0.06958193
35	0xbb807c43	-0.003921063
36	0x3d8734df	0.06601881
37	0x3aa72afa	0.0012753897
38	0x3d1b5c91	0.037930075
39	0x3d8b225c	0.06793663
40	0xbcabbc38	-0.020963773
41	0xbce1be82	-0.027556662
42	0x3d54c2a5	0.05194344
43	0x3cfec78e	0.031101014
44	0xbae9fcd4	-0.0017851838
45	0x3dadb70b	0.08482178
46	0x3d984d73	0.07436647
47	0xbd92f2a9	-0.0717519
48	0xbc1f4d54	-0.009723026
49	0x3d619757	0.05507597
50	0x3d5e2fef	0.05424493
51	0x3d81ae32	0.06332053
52	0xbc215bea	-0.009848574
53	0xbd20dcde	-0.039273135
54	0xbd336794	-0.04379995
55	0xbcc5243e	-0.024065133
56	0x3d823b3a	0.06358953
57	0xbd4ee614	-0.05051239
58	0xbca811c8	-0.020516291
59	0xbc5228af	-0.012827083
60	0xbdac2b54	-0.08406702
61	0xbd68f521	-0.0568744
62	0x3d7099cf	0.058740433
63	0x3d98c1c5	0.074588336
64	0xbdbdc26f	-0.09265601
65	0x3da03c6f	0.07824027
66	0xbd999fa8	-0.07501155
67	0xbc34fb11	-0.011046187
68	0xbd886dc4	-0.06661561
69	0x3c96dca6	0.01841576
70	0x3d7bb93b	0.061455946
71	0x3d6633dc	0.0562018
72	0xbdc3a35e	-0.09552644
73	0xbc9a2d98	-0.018820569
74	0xbdc1e754	-0.094679505
75	0xbd96439f	-0.073371165
76	0xbdbe16b6	-0.092816755
77	0xbd73ebae	-0.059550934
78	0xbda0958f	-0.07841026
79	0xbd0c15d7	-0.034200516
80	0xbdaf9230	-0.08572805
81	0x3d926bb7	0.07149451
82	0x3c594040	0.013259947
83	0x3da7529d	0.08170054
84	0x3d58db29	0.052943382
85	0x3d09a9d7	0.033609238
86	0xbd81067d	-0.06300066
87	0xbbe2a357	-0.0069164443
88	0xbd87f786	-0.06639008
89	0x3ca76358	0.020433113
90	0xbd9308ec	-0.07179436
91	0xbd28576d	-0.041099
92	0xbd86b8d2	-0.065782204
93	0x3d01dd57	0.031705227
94	0xbcdae00b	-0.02671816
95	0x3c7e21aa	0.015510956
96	0xbd3e48e8	-0.046456248
97	0x3d8c2812	0.0684358
98	0xbd6b21f4	-0.057405427
99	0xbd8d3be6	-0.0689619
100	0xbc953658	-0.01821439
101	0x3db0c140	0.086306095
102	0x3d970eee	0.073758945
103	0x3bdf34a6	0.006811696
104	0x3d99cf04	0.07510188
105	0x3d97fdf0	0.074214816
106	0xbd05e384	-0.03268768
107	0x3d36756e	0.044545583
108	0xbd705932	-0.058678813
109	0x3d2fa482	0.042881496
110	0x3d241e07	0.0400677
111	0xbbf49c91	-0.007464953
112	0x3d8006c5	0.06251291
113	0x3d393749	0.04521874
114	0x3d69d1ba	0.057084776
115	0xbd651d97	-0.055936422
116	0xbb42c980	-0.0029722154
117	0xbdb255e5	-0.08707789
118	0xbd40dd27	-0.047085907
119	0xbc3f7615	-0.011685868
120	0xbd43e2b7	-0.047823634
121	0xbd2fb3ab	-0.042895954
122	0x3cabd378	0.02097486
123	0x3d41646a	0.047214903
124	0x3c0c51a7	0.008564389
125	0xbc00878d	-0.007844818
126	0x3cf7cf83	0.030250316
127	0x3b5f3e76	0.003406433
