RL/ablation_Baseline_20260128_233211/best.pt (torch, 783126 bytes, 31 tensors)

gcn1.lin.weight f4 [64, 10]
0.28026116 -0.16738674 -0.30417156 -0.10930812 0.1388904 0.17491618 0.0069551216 -0.08739766
0.08254518 0.043750025 0.064393386 -0.037451953 0.11299008 0.23680899 0.12592457 0.20736697
-0.23289368 -0.14391637 -0.22356063 -0.29498914 -0.2190729 0.28935176 -0.246892 -0.25923696
0.09644637 0.12772709 0.32080856 -0.2651671 -0.1540299 0.21095651 0.050822776 -0.14730346
-0.07223469 0.23139033 0.1914539 0.08681592 0.29766962 0.1345044 0.05697874 0.2999252
0.23025477 -0.14135544 0.071191706 -0.20946567 -0.31443438 -0.16631791 -0.028881496 0.03994626
-0.2535475 0.140511 -0.29236317 -0.12359514 0.1541715 0.12347023 0.1517015 -0.0010362267
-0.25825903 0.07813233 0.1246738 0.1652227 -0.14682458 0.13194203 -0.115159065 -0.16482736
-0.22479577 -0.24065085 0.059124287 0.1927161 -0.23428005 0.13146344 -0.25788563 -0.110671036
-0.16049649 0.031060178 0.21791565 0.11781809 -0.022477083 0.22220585 -0.19598773 -0.27492547
-0.29754493 -0.23198664 -0.1755977 0.07724891 -0.15979968 0.025210977 -0.11651497 0.2765787
-0.2801445 0.1920186 0.16508779 -0.077218324 -0.29183802 0.092433125 -0.04413021 -0.100222796
-0.22238716 -0.25834364 -0.10132236 0.126919 0.21367584 -0.03485592 0.27621707 0.14355649
-0.29456607 -0.04709488 0.14671275 -0.23830259 0.18287113 -0.18699723 0.10741402 -0.18128513
-0.14699385 0.052945554 0.25144598 0.09208867 0.14206332 0.10894616 -0.17170459 -0.09942545
-0.1750373 0.17960691 0.2290154 0.2633277 0.16429956 -0.14969385 0.07990502 -0.1356297
0.17851588 -0.16181445 -0.2858242 -0.1511351 -0.29906106 0.2609867 0.057918727 0.2259781
-0.1459378 -0.23923536 0.22879131 -0.23548292 -0.25544444 -0.30053014 0.06077666 0.19245404
0.22965376 -0.23344421 -0.19760767 0.28017685 0.14399956 0.104725964 -0.027838565 0.111138605
-0.24877653 0.1928566 -0.18898757 -0.23249373 0.11973839 0.2645709 0.08009366 -0.15408875
-0.27791375 0.1436063 -0.29793477 0.25964072 -0.006894489 -0.293828 -0.07351641 0.099251255
-0.09629898 0.059410237 -0.29108235 0.11240581 0.23194157 0.2665236 -0.31147656 0.073126286
-0.27023026 0.11133075 -0.0004742849 -0.29394034 -0.21756229 -0.25143757 0.053035554 0.24099155
-0.009936026 0.15938753 0.0049781576 -0.16043204 -0.059710767 -0.24879298 0.030818209 0.29084316
0.21098928 0.075138785 0.053822443 0.13934207 -0.22308815 0.26880705 0.024496416 -0.07042671
0.26114187 0.30341968 -0.24653344 -0.2572356 4.544568e-05 -0.16576631 0.14213797 -0.24789444
0.2461031 -0.21213694 0.094462916 0.011167495 0.30693823 0.21238233 0.016845645 -0.28404948
-0.26638097 0.23210095 -0.19236077 0.19828154 -0.29577488 -0.27020317 -0.2967162 0.09623191
-0.054486215 0.13190642 0.035745747 -0.1813018 -0.22670516 0.3044245 0.23284107 0.20131618
0.1406367 0.19113652 0.27903947 -0.24241343 0.13390043 0.17033821 0.0033150187 -0.27360594
-0.042671114 -0.18527982 -0.2670416 0.19071035 -0.2811259 -0.03472954 0.17076254 0.03616339
-0.24225387 0.052541897 0.18066643 0.09504021 -0.22827795 -0.17960389 0.2614063 0.25339833
00000000: 647e 8f3e 6e67 2bbe 60bc 9bbe f0dc dfbd
00000010: 4939 0e3e 3a1d 333e cae7 e33b 8bfd b2bd
00000020: 730d a93d 3a33 333d aee0 833d 3867 19bd
00000030: 5867 e73d 0e7e 723e 5ff2 003e 0258 543e
00000040: ae7b 6ebe d05e 13be 14ed 64be d108 97be
00000050: a554 60be ea25 943e 42d1 7cbe b5ba 84be
00000060: ad85 c53d e4ca 023e 0541 a43e fbc3 87be
00000070: 04ba 1dbe fc04 583e 8b2b 503d b8d6 16be
00000080: c8ef 93bd 96f1 6c3e 7e0c 443e 8ccc b13d
00000090: 2768 983e 85bb 093e 8a62 693d cc8f 993e
000000a0: e8c7 6b3e 7bbf 10be f5cc 913d 2b7e 56be
000000b0: 8bfd a0be 3e4f 2abe e398 ecbc b19e 233d
000000c0: fad0 81be 1ee2 0f3e a0b0 95be 731f fdbd
000000d0: 22df 1d3e f6dd fc3d a357 1b3e 00d2 87ba
000000e0: 873a 84be d803 a03d fa54 ff3d 2430 293e
000000f0: 2f59 16be d01b 073e 84d8 ebbd 81c8 28be
00000100: dd30 66be 2d6d 76be 4f2c 723d 5f57 453e
00000110: 1ce7 6fbe 5a9e 063e 9609 84be 7fa7 e2bd
00000120: 3159 24be ea71 fe3c 4825 5f3e 9c4a f13d
00000130: dc21 b8bc ee89 633e 02b1 48be 08c3 8cbe
00000140: cf57 98be e88d 6dbe e2cf 33be ad34 9e3d
00000150: 87a2 23be 4087 ce3c 679f eebd b99b 8d3e
00000160: 1a6f 8fbe 86a0 443e c60c 293e a424 9ebd
00000170: cb6b 95be 944d bd3d e1c1 34bd 9c41 cdbd
00000180: 76b9 63be 9e45 84be 1982 cfbd 0ef7 013e
00000190: d7cd 5a3e 15c5 0ebd 536c 8d3e 7900 133e
000001a0: 5dd1 96be 90e6 40bd de3b 163e 9805 74be
000001b0: 9242 3b3e 347c 3fbe e2fb db3d cfa2 39be
000001c0: 8e85 16be 70dd 583d 87bd 803e fc98 bc3d
000001d0: 0c79 113e 2a1f df3d 54d3 2fbe 929f cbbd
000001e0: fa3c 33be e0ea 373e 0383 6a3e e3d2 863e
000001f0: 253e 283e 5849 19be 3ea5 a33d 83e2 0abe
00000200: decc 363e b0b2 25be 8d57 92be 29c3 1abe
00000210: 881e 99be 0ca0 853e 303c 6d3d ce66 673e
00000220: b870 15be 1dfa 74be 4548 6a3e 6f22 71be
00000230: 9dc9 82be 16df 99be f2f0 783d ac12 453e
00000240: 5b2a 6b3e 000c 6fbe aa59 4abe 5773 8f3e
00000250: 9f74 133e 917a d63d b40d e4bc a39c e33d
00000260: 46bf 7ebe 337c 453e f585 41be d612 6ebe
00000270: 6739 f53d d675 873e 2508 a43d 71c9 1dbe
00000280: b64a 8ebe 880d 133e e88a 98be a1ef 843e
00000290: 2aeb e1bb a070 96be c68f 96bd 3e44 cb3d
000002a0: 6638 c5bd 2658 733d bf08 95be 0435 e63d
000002b0: 1782 6d3e c875 883e db79 9fbe 3cc3 953d
000002c0: 9f5b 8abe 6001 e43d 71a9 f8b9 597f 96be
000002d0: a6c8 5ebe 6dbc 80be cf3b 593d 7dc6 763e
000002e0: b7ca 22bc 7c36 233e d01f a33b 4c48 24be
000002f0: 4793 74bd 96c3 7ebe 7876 fc3c 65e9 943e
00000300: 930d 583e 5de2 993d ec74 5c3d b0af 0e3e
00000310: 3871 64be 14a1 893e b5ac c83c e13b 90bd
00000320: 63b4 853e d359 9b3e 4373 7cbe 62b4 83be
00000330: ed9c 3e38 a5be 29be 9e8c 113e 0ad8 7dbe
00000340: 7302 7c3e 6d3a 59be c675 c13d def7 363c
00000350: 0227 9d3e c17a 593e e1ff 893c ef6e 91be
00000360: 1663 88be dfab 6d3e 39fa 44be 510a 4b3e
00000370: ce6f 97be 1258 8abe 30eb 97be 3c15 c53d
00000380: f02c 5fbd 7a12 073e 226a 123d 2ea7 39be
00000390: 6625 68be 87dd 9b3e e46d 6e3e d425 4e3e
000003a0: 1103 103e 4bb9 433e 43de 8e3e 3a3b 78be
000003b0: 321d 093e 246d 2e3e c940 593b 1416 8cbe
000003c0: e8c7 2ebd feb9 3dbe adb9 88be 9349 433e
000003d0: bcef 8fbe 9040 0ebd 60dc 2e3e 1020 143d
000003e0: 6611 78be 2c36 573d 9f00 393e 71a4 c23d
000003f0: b2c1 69be 15ea 37be 0cd7 853e 6dbd 813e

gcn1.lin.bias f4 [64]
0.22363031 0.27919152 -0.12055532 0.17676558 0.1420947 0.26346195 -0.2680724 -0.06354382
0.13877112 0.023620943 -0.22303915 0.1829884 -0.21749613 -0.0061514964 -0.15703371 0.25716543
-0.14870788 0.008864375 -0.1693349 0.29960898 -0.21804194 0.25396124 -0.22585179 0.21862422
0.0049280724 -0.22805628 0.08463751 -0.11578185 -0.25024173 -0.2620024 0.07786716 0.12969267
0.009477317 0.023516618 0.26463935 -0.016682109 0.19331442 0.017327828 -0.19963063 0.025530221
-0.21684483 0.024456717 -0.04546834 -0.2782215 0.25793707 -0.15038083 -0.22345914 -0.18089378
-0.14140072 -0.24217367 0.14879867 0.17017718 0.12760909 0.20771517 0.31682956 0.30853292
-0.25506923 0.09071523 -0.13065802 -0.16645728 0.06404061 -0.17971404 0.15809567 -0.21999677
00000000: 58ff 643e 31f2 8e3e b5e5 f6bd 0902 353e
00000010: 4681 113e 7ce4 863e c940 89be 4323 82bd
00000020: 041a 0e3e b580 c13c 6064 64be 5061 3b3e
00000030: 4eb7 5ebe 7e92 c9bb 72cd 20be 30ab 833e
00000040: e146 18be e23b 113c 2166 2dbe 5966 993e
00000050: 6346 5fbe 3507 823e b145 67be 07df 5f3e
00000060: ab7b a13b 9687 69be 6e56 ad3d 091f edbd
00000070: af1f 80be 2e25 86be d178 9f3d 28ce 043e
00000080: c046 1b3c eca5 c03c cf7e 873e eba8 88bc
00000090: 37f4 453e 17f3 8d3c f96b 4cbe c124 d13c
000000a0: 920c 5ebe 7459 c83c 033d 3abd 0c73 8ebe
000000b0: 5410 843e 6ffd 19be 79d2 64be 383c 39be
000000c0: 5acb 10be 60fc 77be ae5e 183e ed42 2e3e
000000d0: f5ab 023e 49b3 543e 7c37 a23e 07f8 9d3e
000000e0: 6f98 82be e8c8 b93d 37cb 05be c773 2abe
000000f0: b927 833d f506 38be d5e3 213e d546 61be

gcn2.lin.weight f4 [64, 64]
-0.102610864 0.13505304 0.045005366 -0.0620124 0.11168319 0.083971485 0.052434813 -0.049181752
-0.0144219175 -0.09682452 -0.017809637 -0.07616702 -0.014251451 -0.06258087 -0.0013833072 0.12653019
-0.10937707 -0.05013504 -0.0059119463 0.10426996 -0.0935973 -0.06881424 0.039285876 -0.048118316
-0.114562586 -0.042510517 -0.009511024 -0.004666591 -0.11313876 -0.08676296 0.013072852 -0.056602433
0.061768223 0.01741838 -0.08649559 -0.019783529 0.11955498 0.0068507288 0.060045127 -0.07576953
-0.082542606 -0.09892698 0.01089606 0.12868561 0.11555861 -0.049613718 -0.089259975 0.014111122
0.12891881 0.13360214 0.06791435 0.08552692 -0.0060259067 -0.098761216 0.04726061 0.11066095
0.060377568 -0.09575771 -0.08209258 -0.099007316 -0.015642274 0.10789176 0.05360182 -0.10360864
0.04563613 0.05759205 -0.034176823 -0.117653705 0.10690064 0.054973595 -0.075149395 0.0007230207
0.09519582 -0.07576666 -0.08124445 0.030013433 0.052507244 -0.060670223 0.11152883 -0.0165265
0.051294535 0.11527619 -0.08505349 0.06710302 0.068831615 0.034123298 -0.029102081 -0.0662392
-0.12120527 -0.11797381 -0.015401497 0.103045404 0.10511964 0.07876843 0.08837001 0.027335472
-0.09670766 -0.07020359 -0.07529002 -0.08157819 0.04543075 -0.022636749 0.11872985 0.0773872
-0.050802194 -0.03276941 0.040081628 -0.11556696 0.10274592 0.084894724 -0.06329279 -0.09642901
-0.038318347 -0.073965326 0.09073166 0.070291765 0.059664637 0.06425202 0.01609 -0.08644853
0.051738914 -0.06111345 -0.00017836635 0.070448466 0.11919094 -0.042538453 -0.104472496 0.052508216
0.12731886 0.114021756 -0.033083577 0.0870363 -0.0082998555 -0.019585883 0.1339997 0.08403818
0.1298785 0.13218223 -0.07306354 -0.08534785 0.045375284 -0.042887073 -0.051992234 0.019104036
0.0432429 -0.055844255 -0.06845578 -0.0405359 -0.033814304 0.05014391 -0.031075424 -0.031414296
-0.08556865 -0.07856878 0.030921115 0.05543592 0.118618034 0.027522951 0.033312146 0.10405811
0.07049606 -0.008656868 0.11842426 -0.02083994 -0.09925218 0.10746859 0.09882868 -0.04965818
-0.10421436 -0.054843884 -0.013171414 -0.07159531 0.0048259124 -0.068925105 -0.055326696 0.020016974
-0.054914873 -0.10126564 -0.055645887 -0.08363758 0.039325964 0.020603597 -0.09680911 0.09369678
0.06690851 -0.10911353 0.112315565 0.044127867 0.049824838 0.024653457 -0.006011638 -0.098695494
0.067229055 0.05314435 -0.037733395 0.08725962 0.09368581 0.0230937 0.009950055 0.12250691
-0.005565987 0.117057115 -0.08931328 0.011602817 0.020581618 -0.03222774 0.12348247 0.056771595
-0.11083261 0.09593012 -0.027725354 -0.10078195 -0.021370329 0.032233343 -0.07616711 -0.05898102
0.07650935 -0.08186349 -0.099778146 0.04471939 -0.10950422 0.10821759 0.09073619 0.077099785
-0.016240537 0.1199916 -0.09791394 -0.084476165 -0.08378959 0.07387048 0.08663635 0.032094993
0.048126034 0.12692378 0.038749848 -0.10858751 0.09172722 -0.024939617 -0.020389851 -0.055059742
0.05764288 -0.0204083 0.12092602 0.073465675 0.005009735 0.021002242 0.091760896 -0.108330995
0.11736223 -0.011220771 -0.003467007 0.1245487 -0.060130347 0.0140757095 0.03763972 -0.097086325
00000000: a525 d2bd 584b 0a3e 8c57 383d b700 7ebd
00000010: 28ba e43d 3ef9 ab3d e3c5 563d ce72 49bd
00000020: e849 6cbc ef4b c6bd 84e5 91bc 74fd 9bbd
00000030: eb7e 69bc 662a 80bd 1650 b5ba 2191 013e
00000040: 1601 e0bd 665a 4dbd 00b9 c1bb 7d8b d53d
00000050: f1af bfbd 7bee 8cbd 3aea 203d b617 45bd
00000060: ca9f eabd 821f 2ebd 20d4 1bbc 34ea 98bb
00000070: 4bb5 e7bd c7b0 b1bd 842f 563c f4d7 67bd
00000080: ad00 7d3d feb0 8e3c 9a24 b1bd 1111 a2bc
00000090: 3ed9 f43d 147c e03b e1f1 753d 0e2d 9bbd
000000a0: 190c a9bd 3a9a cabd 6385 323c 29c6 033e
000000b0: fea9 ec3d c137 4bbd efcd b6bd 5632 673c
000000c0: 4b03 043e 00cf 083e ae16 8b3d bd28 af3d
000000d0: f874 c5bb 5243 cabd 5794 413d 35a2 e23d
000000e0: 784e 773d 9e1c c4bd 2820 a8bd 59c4 cabd
000000f0: 3a24 80bc 5bf6 dc3d 958d 5b3d c430 d4bd
00000100: f3ec 3a3d a4e5 6b3d fffc 0bbd 6df4 f0bd
00000110: b9ee da3d fe2b 613d ede7 99bd 1989 3d3a
00000120: 07f6 c23d 8d2b 9bbd 7d63 a6bd bbde f53c
00000130: d611 573d 5781 78bd 3a69 e43d 9562 87bc
00000140: 381a 523d ec15 ec3d 8630 aebd 4f6d 893d
00000150: 97f7 8c3d dfc4 0b3d 7d67 eebc 6ba8 87bd
00000160: 783a f8bd 419c f1bd 8f56 7cbc 7809 d33d
00000170: f748 d73d 5851 a13d 56fb b43d a4ee df3c
00000180: aa0e c6bd e6c6 8fbd a731 9abd 7712 a7bd
00000190: 9815 3a3d b470 b9bc a328 f33d 2e7d 9e3d
000001a0: f615 50bd 3839 06bd a22c 243d 5fae ecbd
000001b0: 746c d23d 49dd ad3d a69f 81bd 937c c5bd
000001c0: b3f3 1cbd 227b 97bd 85d1 b93d 21f5 8f3d
000001d0: e862 743d 9096 833d 2dcf 833c ed0b b1bd
000001e0: 2fec 533d 1952 7abd da07 3bb9 4947 903d
000001f0: 611a f43d cd3c 2ebd adf5 d5bd db12 573d
00000200: e05f 023e 3d84 e93d a582 07bd 1640 b23d
00000210: 1efc 07bc 9372 a0bc 3837 093e 361c ac3d
00000220: dffe 043e c75a 073e 56a2 95bd dbca aebd
00000230: 6fdb 393d 5baa 2fbd cff5 54bd 1180 9c3c
00000240: 781f 313d f2bc 64bd 8b32 8cbd f908 26bd
00000250: de80 0abd b363 4d3d e391 febc 47ac 00bd
00000260: 9e3e afbd abe8 a0bd 474e fd3c c610 633d
00000270: 03ee f23d d077 e13c 5172 083d 6b1c d53d
00000280: 3d60 903d 89d5 0dbc 6b88 f23d 86b8 aabc
00000290: ba44 cbbd 7e18 dc3d b166 ca3d 6066 4bbd
000002a0: 576e d5bd fba3 60bd eacc 57bc 90a0 92bd
000002b0: b022 9e3b 9b28 8dbd 3f9e 62bd a3fa a33c
000002c0: 6bee 60bd 5c64 cfbd f1ec 63bd 2e4a abbd
000002d0: 4314 213d e0c8 a83c db43 c6bd 19e4 bf3d
000002e0: 5407 893d ea76 dfbd b405 e63d 6cbf 343d
000002f0: 2115 4c3d 0cf6 c93c 46fd c4bb dd20 cabd
00000300: 63af 893d e4ad 593d 558e 1abd 2cb5 b23d
00000310: 59de bf3d 002f bd3c 8e05 233c e7e4 fa3d
00000320: e262 b6bb a4bb ef3d e2e9 b6bd be19 3e3c
00000330: c89a a83c 3c01 04bd 61e4 fc3d 5589 683d
00000340: 35fc e2bd 0377 c43d 4820 e3bc c466 cebd
00000350: d410 afbc 1c07 043d 80fd 9bbd 1596 71bd
00000360: efb0 9c3d 0ca8 a7bd 7c58 ccbd ae2b 373d
00000370: c043 e0bd 2fa1 dd3d e5d3 b93d 7ee6 9d3d
00000380: e00a 85bc 28be f53d 1b87 c8bd d701 adbd
00000390: e099 abbd 6849 973d 666e b13d 0a76 033d
000003a0: ce1f 453d 4ff8 013e 29b8 1e3d 2163 debd
000003b0: 7bdb bb3d 2b4e ccbc 9e08 a7bc 5386 61bd
000003c0: f11a 6c3d 4f2f a7bc 10a8 f73d 2c75 963d
000003d0: b428 a43b e50c ac3c 23ed bb3d a4dc ddbd
000003e0: 9c5b f03d 53d7 37bc ba36 63bb 6413 ff3d
000003f0: 3d4b 76bd ce9d 663c 1b2c 1a3d 32d5 c6bd

gcn2.lin.bias f4 [64]
-0.06086443 0.09161244 0.13840806 0.030656265 0.07203649 0.04835978 0.061225276 0.082192086
0.022315167 -0.13338216 -0.019920317 0.120277844 0.12277285 0.0011840629 0.10025239 0.03458784
-0.08521566 0.08195111 0.13898407 -0.034017388 0.008996942 -0.10757745 0.08088443 0.1189914
0.062313557 -0.06903584 0.071320556 0.028201628 0.016609708 0.11316027 -0.0483594 0.05630125
0.13555132 0.08261493 0.028443707 -0.03579903 -0.043805525 0.103601955 -0.03722202 -0.06994987
0.039980806 0.108696766 -0.008830514 -0.082066834 -0.05143383 0.09572073 0.025104845 0.07156668
0.13413863 -0.082132034 0.0517095 -0.044126455 -0.045533676 0.01714952 -0.07132579 0.13455282
-0.05264633 0.082797736 -0.107148096 0.041873045 0.010969095 -0.021463353 0.11112814 0.038262792
00000000: fb4c 79bd 4e9f bb3d d8ba 0d3e d922 fb3c
00000010: de87 933d e814 463d 5bc7 7a3d 5354 a83d
00000020: 4cce b63c 5595 08be ef2f a3bc 3b54 f63d
00000030: 5570 fb3d 8f32 9b3a 2051 cd3d fbab 0d3d
00000040: 8c85 aebd fcd5 a73d d751 0e3e d155 0bbd
00000050: e967 133c 9151 dcbd bca6 a53d c3b1 f33d
00000060: 803c 7f3d aa62 8dbd 8310 923d 1a07 e73c
00000070: 1511 883c 92c0 e73d 8214 46bd 249c 663d
00000080: f7cd 0a3e 0432 a93d c702 e93c 01a2 12bd
00000090: 6c6d 33bd 432d d43d 1e76 18bd e141 8fbd
000000a0: eac2 233d 699c de3d dcad 10bc a812 a8bd
000000b0: 48ac 52bd 3b09 c43d ada8 cd3c 8d91 923d
000000c0: a35b 093e d734 a8bd 57cd 533d f1bd 34bd
000000d0: 8581 3abd 267d 8c3c 4113 92bd 37c8 093e
000000e0: aea3 57bd dc91 a93d 7670 dbbd 1283 2b3d
000000f0: b8b7 333c ead3 afbc 2697 e33d 72b9 1c3d

no_gnn_proj.weight f4 [64, 10]
0.15391037 -0.017272174 0.067319244 0.08117017 0.28733703 -0.18474136 0.024015576 0.18857995
0.18688902 0.23252526 0.30104932 0.18421945 0.0054289103 -0.20414326 0.021932632 0.08257976
-0.16610725 0.3111954 0.13484174 0.08059099 0.21674064 -0.21979663 0.031629264 -0.03313297
-0.309953 -0.17485337 0.23291388 0.018326193 0.035973996 -0.08945088 0.27857378 0.22220924
0.13626513 0.21927384 -0.02234608 0.24786475 -0.07476759 -0.2778926 0.033406973 -0.025965273
0.010009617 -0.19596452 -0.3159669 -0.2271367 0.21671513 -0.08117771 -0.122561604 -0.036913514
0.1642339 -0.23810685 -0.074256346 0.023416162 -0.060709774 0.20596424 -0.25220066 0.24930307
0.24883875 0.2513869 0.2210876 -0.2270082 0.31312147 -0.047964364 -0.053777665 0.26965132
0.1522305 -0.25899398 -0.28400344 0.015787572 0.3156164 0.22861472 0.23297372 0.16589534
0.037293315 -0.059355557 0.12150413 -0.20980908 0.2239621 0.14163795 -0.09288585 0.102797985
0.17830795 -0.19595118 0.23840562 -0.05624351 0.04356891 0.18834105 -0.2454142 0.034044117
-0.30161583 0.25413367 -0.13090296 0.010113984 -0.13359146 -0.1451654 0.10288823 0.25867644
0.30925128 -0.15353295 -0.11533904 -0.17058083 0.30776933 0.2357277 -0.0002836585 0.23897007
0.058415174 0.3113564 -0.09996635 -0.0065300763 -0.25101757 0.19111827 0.054976642 -0.21830487
-0.21744609 0.20196709 -0.021424979 0.020955652 0.1992741 0.08028945 -0.025517493 0.11500883
-0.080665186 0.30561998 0.13858542 -0.23746079 -0.28933474 0.0900456 0.17113441 -0.27839082
0.12311414 -0.07259913 0.2577285 0.04092425 -0.30950528 -0.08783668 -0.0703163 -0.26820704
-0.020454437 -0.31294882 -0.11462557 -0.24416274 -0.22647259 -0.043355644 0.24460766 0.072102964
-0.0670574 0.24117365 0.22239754 0.041814238 0.18913761 -0.24014843 0.14391643 0.10612205
0.2789378 -0.11841351 0.23817793 -0.077739835 -0.025111526 0.27033958 0.035529852 0.047346354
-0.08041155 0.047356963 -0.2065095 0.27457246 -0.1573306 0.22103319 -0.17189828 -0.20740648
-0.088804364 0.090284854 -0.28186485 -0.18359374 0.026931554 0.29080483 0.17491594 -0.0852299
-0.09433572 -0.21526678 0.2470778 -0.06431964 0.061507195 0.08226812 -0.13787922 -0.038045883
0.293124 -0.23690724 -0.0088045895 0.2505972 -0.0802778 -0.28794447 0.02481559 -0.23318139
-0.11494057 0.29095384 -0.026392967 0.12898931 -0.23187035 -0.29143155 0.12882853 0.059484214
0.040682465 -0.25400063 0.2795913 -0.2759655 0.088124454 0.17498392 0.065202355 -0.26484007
-0.25113273 0.2802581 -0.18224448 -0.2685221 -0.13820425 -0.19862655 0.27970544 -0.17139325
-0.008051395 0.04079607 -0.027578592 -0.15056387 0.24756 0.023171216 -0.10632075 -0.017718464
-0.30296025 -0.13302596 -0.21514261 0.16104037 -0.09042667 0.24346688 0.09244239 0.15733889
-0.052619636 0.025541574 -0.3143194 0.06814447 -0.20259431 0.23742417 -0.0049945116 0.24026468
0.08197078 -0.15945794 -0.0811235 -0.17523606 0.0061384737 0.025057197 0.16032514 -0.0673669
0.26432136 -0.120476276 0.039772093 0.054406226 0.23163679 -0.03371185 -0.028634518 0.18439391
00000000: ae9a 1d3e 607e 8dbc acde 893d 8c3c a63d
00000010: d71d 933e d72c 3dbe 50bc c43c 1a1b 413e
00000020: d65f 3f3e 1a1b 6e3e 2323 9a3e 06a4 3c3e
00000030: 00e5 b13b ee0a 51be 10ac b33c 941f a93d
00000040: 0518 2abe 0155 9f3e f413 0a3e e40c a53d
00000050: 42f1 5d3e 5e12 61be b08d 013d 70b6 07bd
00000060: 29b2 9ebe c30c 33be fa80 6e3e d020 963c
00000070: 7859 133d 0632 b7bd 39a1 8e3e d28a 633e
00000080: 1689 0b3e 5289 603e 200f b7bc 42d0 7d3e
00000090: c01f 99bd f047 8ebe c0d5 083d 20b5 d4bc
000000a0: 60ff 233c ecaa 48be 6ac6 a1be 8696 68be
000000b0: 92ea 5d3e 8040 a6bd 9401 fbbd a032 17bd
000000c0: ee2c 283e 48d2 73be b613 98bd 40d3 bf3c
000000d0: d0aa 78bd 4ae8 523e 7220 81be 4e49 7f3e
000000e0: 96cf 7e3e c9b5 803e ca64 623e d674 68be
000000f0: 7551 a03e 4876 44bd f845 5cbd bd0f 8a3e
00000100: 50e2 1b3e dc9a 84be e668 91be f054 813c
00000110: 7998 a13e fa19 6a3e aa90 6e3e 78e0 293e
00000120: e0c0 183d d01e 73bd 28d7 f83d 31d8 56be
00000130: 5256 653e 8a09 113e f03a bebd c087 d23d
00000140: 5c96 363e 6da7 48be 9a20 743e 985f 66bd
00000150: 5075 323d 7adc 403e dc4d 7bbe d871 0b3d
00000160: 646d 9abe cf1d 823e 6d0b 06be 20b5 253c
00000170: 33cc 08be 3da6 14be 10b7 d23d 3d71 843e
00000180: 2f56 9e3e be37 1dbe e036 ecbd beac 2ebe
00000190: f193 9d3e 9a62 713e 00b8 94b9 92b4 743e
000001a0: c044 6f3d 1b6a 9f3e 28bb ccbd 40fa d5bb
000001b0: 6085 80be 82b4 433e 302f 613d 508b 5fbe
000001c0: 30aa 5ebe 76d0 4e3e 7083 afbc 30ab ab3c
000001d0: 820e 4c3e cc6e a43d 100a d1bc c089 eb3d
000001e0: ca33 a5bd 397a 9c3e 56e9 0d3e ec28 73be
000001f0: af23 94be d469 b83d dc3d 2f3e 3e89 8ebe
00000200: 4423 fc3d daae 94bd fdf4 833e 30a0 273d
00000210: 7a77 9ebe b8e3 b3bd fe01 90bd 6f52 89be
00000220: 1090 a7bc d43a a0be d0c0 eabd cc05 7abe
00000230: 6ee8 67be b095 31bd 6e7a 7a3e b8aa 933d
00000240: 6455 89bd 3af6 763e 2ebc 633e 6845 2b3d
00000250: 4aad 413e 78e9 75be d45e 133e 8456 d93d
00000260: efd0 8e3e c882 f2bd eae4 733e 1036 9fbd
00000270: b0b6 cdbc f369 8a3e c087 113d 40ee 413d
00000280: d0ae a4bd 60f9 413d 3a77 53be c394 8c3e
00000290: 461b 21be 8656 623e 1a06 30be 5d62 54be
000002a0: 10df b5bd 44e7 b83d 9750 90be ffff 3bbe
000002b0: 909f dc3c 5fe4 943e 2a1d 333e 048d aebd
000002c0: 1633 c1bd e56e 5cbe f601 7d3e 04ba 83bd
000002d0: f8ee 7b3d 307c a83d 3630 0dbe 00d6 1bbd
000002e0: 5914 963e d097 72be 2041 10bc 474e 803e
000002f0: b068 a4bd 756d 93be 104a cb3c 1ac7 6ebe
00000300: f665 ebbd e7f7 943e 1036 d8bc c615 043e
00000310: 6c6f 6dbe 8436 95be a0eb 033e b8a5 733d
00000320: a8a2 263d 5f0c 82be 9726 8f3e 5a4b 8dbe
00000330: 987a b43d fc2e 333e d088 853d 1e99 87be
00000340: 7894 80be fd7d 8f3e 4c9e 3abe bb7b 89be
00000350: 6a85 0dbe c264 4bbe 8d35 8f3e b681 2fbe
00000360: 00ea 03bc c819 273d 80ec e1bc 6a2d 1abe
00000370: 5e80 7d3e 90d1 bd3c b2be d9bd 5026 91bc
00000380: 9b1d 9bbe f537 08be 584e 5cbe c4e7 243e
00000390: 9e31 b9bd 624f 793e 7052 bd3d 721d 213e
000003a0: b087 57bd 903c d13c 79ee a0be 548f 8b3d
000003b0: e274 4fbe 521f 733e 00a9 a3bb f207 763e
000003c0: 4ce0 a73d f148 23be 1424 a6bd 1571 33be
000003d0: 4025 c93b c044 cd3c 462c 243e a8f7 89bd
000003e0: 2155 873e 44bc f6bd 10e8 223d 10d9 5e3d
000003f0: 3232 6d3e 7015 0abd f092 eabc c2d1 3c3e

no_gnn_proj.bias f4 [64]
0.029094726 -0.27131322 0.2089841 -0.10914187 0.03001669 -0.14104111 -0.2621243 0.086443484
-0.14681013 -0.26952872 -0.11592968 -0.15278062 0.067272365 0.033682913 0.05645618 -0.23907816
-0.1833 -0.006839484 0.23312876 -0.1551917 -0.22193715 -0.068923384 0.097317874 0.005648643
-0.19270223 -0.18083397 0.13560686 0.22218403 0.21382454 0.24620345 -0.1137525 0.112442374
0.15844476 0.15514088 -0.27579606 -0.20974514 0.15960899 0.1301628 -0.002805531 -0.21733665
-0.07773572 0.23347536 -0.31260622 -0.2661064 -0.00297907 0.2623618 0.020208955 0.1535385
-0.24282432 -0.009830087 0.03368655 -0.21104762 -0.022470891 0.3105841 -0.2759774 0.2211648
-0.28652182 -0.27640325 0.20723674 0.2898964 0.17818514 -0.2103993 -0.16001523 -0.050393403
00000000: 1058 ee3c 91e9 8abe eeff 553e c685 dfbd
00000010: 90e5 f53c 156d 10be 2835 86be 4809 b13d
00000020: 6555 16be abff 89be 8a6c edbd 8672 1cbe
00000030: 18c6 893d 18f7 093d 983e 673d e8d0 74be
00000040: ffb2 3bbe c01d e0bb 4eb9 6e3e 93ea 1ebe
00000050: 7e43 63be b427 8dbd 984e c73d 4018 b93b
00000060: bc53 45be 8a2c 39be 86dc 0a3e 3684 633e
00000070: d2f4 5a3e c21c 7c3e 12f7 e8bd 3048 e63d
00000080: 583f 223e 40dd 1e3e 2435 8dbe 6ec7 56be
00000090: 8a70 233e 6649 053e 00dd 37bb 808d 5ebe
000000a0: e833 9fbd 2a14 6f3e ec0d a0be 193f 88be
000000b0: 803c 43bb 4954 863e 408d a53c 3239 1d3e
000000c0: f0a6 78be 600e 21bc e8fa 093d de1c 58be
000000d0: e014 b8bc e104 9f3e e94c 8dbe 0679 623e
000000e0: fdb2 92be ba84 8dbe de35 543e 4d6d 943e
000000f0: 2a76 363e ea72 57be 08db 23be 5069 4ebd

post.0.weight f4 [128, 128]
0.074960314 0.06699364 -0.08067828 0.03402749 0.069846414 -0.053587124 -0.047074776 -0.087134324
0.010039475 0.050078 0.01538432 -0.0041891565 -0.07042897 -0.08749677 -0.02813436 -0.052783765
-0.07614447 -0.037587486 0.06281842 -0.07504029 -0.022290707 -0.03754772 -0.04130613 -0.027476419
-0.073512815 0.037306733 0.0353129 -0.04386998 -0.011598013 -0.04561127 0.05885678 -0.06862642
-0.043016087 0.0006548943 -0.030134505 -0.065451115 0.06579416 -0.040123582 -0.081920825 0.081788786
0.03969013 0.007072659 -0.054614745 -0.007264128 -0.07722294 0.08396255 0.001282534 0.06889926
-0.0664335 -0.0317839 0.009637576 -0.03380535 -0.033637095 -0.02652461 0.08658782 -0.059519175
0.032141827 -0.04568437 0.0051609413 -0.023538016 0.08208472 -0.019862786 -0.04324638 -0.010835711
-0.05570847 -0.087143585 0.021470971 -0.060371887 0.0359952 0.013533479 -0.08634836 0.07324736
-0.012850304 -0.016679265 0.020501425 -0.03092085 -0.058284424 0.037351616 -0.0772836 -0.040521517
-0.06662497 0.04920552 0.032156706 0.023233967 -0.030872196 -0.04720682 -0.06759334 -0.020534322
-0.07143472 0.0833709 -0.077580065 0.016940564 0.076044746 -0.04944161 -0.07483066 -0.020375384
-0.024785168 0.0141586475 -0.019444948 -0.04012602 0.03832784 0.010328114 0.006419574 -0.075947054
0.04128399 0.026065324 0.05093963 -0.04832979 0.017635051 -0.04263714 0.0135341585 0.038705435
0.0052789557 -0.061829876 -0.023260763 0.0058654877 -0.055009674 -0.08623415 0.06588644 0.013962705
0.047991686 -0.005212223 -0.0447325 -0.011387542 -0.06450534 0.06883811 -0.0010712538 0.031744324
-0.00070886186 0.07262538 -0.052271493 0.084903784 0.043510146 0.001091443 0.049748126 0.06913215
-0.018286511 -0.0023927328 0.0042887335 -0.06317365 -0.004674409 -0.040443458 -0.08318855 0.044670045
-0.07447263 -0.022497116 0.081824325 0.07109874 -0.0139337825 0.059438862 -0.035302043 0.051215213
0.012286371 0.08385238 0.0055265315 0.008091079 -0.010892713 0.05135033 0.057229765 0.029734904
0.039308123 -0.0034897984 0.015504507 0.09000915 0.0444626 -0.0039301896 0.028065447 -0.056778047
0.042119145 0.037313584 0.0029289778 0.041763637 0.09124619 0.08276112 0.06391094 0.035670023
0.07053091 -0.03360813 0.018102322 -0.075178914 0.05218386 0.06953655 0.03301096 0.0025689462
0.076484054 -0.08752475 0.017333636 -0.025996698 0.013840481 0.0010530672 -0.03753979 0.085793726
-0.08564225 -0.018699495 -0.033816632 0.045081317 0.0049375645 0.08412074 -0.07652605 0.06825967
-0.02747509 0.024731167 -0.03623503 -0.0062169544 -0.07922792 0.057212405 -0.040925357 0.035256818
-0.054434534 0.012932874 0.016081236 0.072635986 0.079073064 0.0012911484 0.054771446 -0.03157375
-0.038804 0.084333666 0.05172617 0.06049702 -0.058256213 -0.08304242 -0.011125964 -0.024388142
-0.023798507 -0.058693822 0.0768357 0.081776604 -0.08860816 0.024511905 0.084670484 -0.03257178
-0.06886694 -0.029087454 0.05839003 0.07915783 -0.05648297 0.078317836 0.01093028 -0.049141116
0.010257504 0.025977015 0.046598118 0.052825984 0.056711067 -0.058030568 -0.056702025 0.03903345
0.06528585 0.051753357 0.033312626 0.08586712 0.015067235 0.07854217 -0.009822575 -0.036431897
00000000: cb84 993d f633 893d a73a a5bd 6960 0b3d
00000010: a30b 8f3d 2c7e 5bbd 7bd1 40bd 7b73 b2bd
00000020: 9c7c 243c 971e 4d3d 840e 7c3c 3145 89bb
00000030: 103d 90bd 8231 b3bd 087a e6bc ca33 58bd
00000040: a2f1 9bbd 56f5 19bd f2a6 803d b9ae 99bd
00000050: 009b b6bc a3cb 19bd 9e30 29bd 3a16 e1bc
00000060: e38d 96bd f2ce 183d 42a4 103d 02b1 33bd
00000070: 9805 3ebc e2d2 3abd cf13 713d 028c 8cbd
00000080: a331 30bd 36ad 2b3a a3dc f6bc 3c0b 86bd
00000090: 17bf 863d a058 24bd 1bc6 a7bd e180 a73d
000000a0: 1e92 223d c4c1 e73b b6b3 5fbd ec07 eebb
000000b0: 1027 9ebd 8ff4 ab3d b31a a83a 0e1b 8d3d
000000c0: 490e 88bd d62f 02bd ece6 1d3c 7b77 0abd
000000d0: 0dc7 09bd 244a d9bc f454 b13d 61ca 73bd
000000e0: 26a7 033d 891f 3bbd 1d1d a93b ccd2 c0bc
000000f0: 091c a83d 48b7 a2bc 1e23 31bd 4488 31bc
00000100: 912e 64bd 5678 b2bd e4e3 af3c 8348 77bd
00000110: b46f 133d 86bb 5d3c 69d7 b0bd b602 963d
00000120: 158a 52bc f4a2 88bc 9bf2 a73c b94d fdbc
00000130: a6bb 6ebd 02fe 183d dd46 9ebd e4f9 25bd
00000140: ac72 88bd ba8b 493d c0b6 033d 2955 be3c
00000150: b0e7 fcbc f05b 41bd 616e 8abd 9837 a8bc
00000160: 5e4c 92bd 5dbe aa3d 4ce2 9ebd f0c6 8a3c
00000170: 59bd 9b3d 4983 4abd d140 99bd 47ea a6bc
00000180: 440a cbbc acf9 673c 034b 9fbc 2e5b 24bd
00000190: a7fd 1c3d 4037 293c 4a5b d23b 218a 9bbd
000001a0: 6719 293d f286 d53c 13a6 503d 75f5 45bd
000001b0: 6277 903c 48a4 2ebd 60be 5d3c 9789 1e3d
000001c0: 17fb ac3b 5341 7dbd 5b8d bebc 4733 c03b
000001d0: d351 61bd 889b b0bd 78ef 863d d4c3 643c
000001e0: ee92 443d 4ccb aabb 6d39 37bd d092 3abc
000001f0: 601b 84bd fffa 8c3d 5069 8cba 5606 023d
00000200: ead2 39ba 9dbc 943d a21a 56bd 09e2 ad3d
00000210: b237 323d c00e 8f3a b1c4 4b3d 2895 8d3d
00000220: 98cd 95bc 65cf 1cbb 8188 8c3b 3061 81bd
00000230: c92b 99bb 0aa8 25bd c25e aabd f0f7 363d
00000240: 1b85 98bd df4b b8bc 8393 a73d 379c 913d
00000250: 854a 64bc 2a76 733d e098 10bd 0bc7 513d
00000260: c64c 493c ccba ab3d e817 b53b 7290 043c
00000270: 5a77 32bc b954 523d c269 6a3d 9d96 f33c
00000280: 8e01 213d 1ab5 64bb 9e06 7e3c b856 b83d
00000290: 6a1e 363d d2c8 80bb 82e9 e53c 1990 68bd
000002a0: 2085 2c3d 21d6 183d 18f4 3f3b 5910 2b3d
000002b0: 48df ba3d a97e a93d bde3 823d bb1a 123d
000002c0: 8272 903d aea8 09bd 524b 943c 67f7 99bd
000002d0: bebe 553d 2e69 8e3d 8036 073d c45b 283b
000002e0: aca3 9c3d 2d40 b3bd 45ff 8d3c 07f7 d4bc
000002f0: 2fc3 623c 1207 8a3a 53c3 19bd 9fb4 af3d
00000300: 3465 afbd af2f 99bc 4f83 0abd 30a7 383d
00000310: 4bcb a13b 7f47 ac3d b1b9 9cbd bacb 8b3d
00000320: 7113 e1bc 0499 ca3c 2f6b 14bd 98b7 cbbb
00000330: 3f42 a2bd 8e57 6a3d 59a1 27bd 7469 103d
00000340: bff6 5ebd 68e4 533c ccbc 833c 2dc2 943d
00000350: 0ff1 a13d c03b a93a 0658 603d 7a53 01bd
00000360: f1f0 1ebd 21b7 ac3d d2de 533d b9cb 773d
00000370: 119e 6ebd 2512 aabd ad49 36bc a4c9 c7bc
00000380: 16f5 c2bc ef68 70bd 095c 9d3d 7e7a a73d
00000390: 3278 b5bd 31cd c83c b867 ad3d fd69 05bd
000003a0: 1c0a 8dbd d048 eebc 622a 6f3d 801d a23d
000003b0: b05a 67bd 1a65 a03d eb14 333c 3248 49bd
000003c0: 170f 283c c0cd d43c abdd 3e3d 0f60 583d
000003d0: dd49 683d 76b1 6dbd 6240 68bd 8ae1 1f3d
000003e0: 96b4 853d 54fb 533d d272 083d 1adb af3d
000003f0: 90dc 763c b8da a03d deee 20bc 9d39 15bd

post.0.bias f4 [128]
0.02016004 -0.031580813 0.07189083 0.03594041 0.029117092 -0.00011876188 0.019646935 0.06382083
-0.035731666 -0.04095129 0.012282894 -0.047147844 0.006676307 0.04929289 0.049218446 -0.007893417
0.0032315447 0.019612096 0.07604737 0.03737777 -0.053455643 0.03699371 -0.042216644 -0.051086262
-0.017797403 -0.07714766 0.058259107 -0.06421352 0.03830284 0.06474371 0.017714791 0.069510706
-0.0039249836 0.010346788 0.047989104 -0.026804168 0.03286986 0.037731912 -0.011878895 0.07379052
0.04676246 0.06401998 -0.04571466 -0.056492988 -0.02830486 -0.021738641 -0.0010805955 0.059815563
-0.07198332 0.070858695 -0.053007126 0.07862342 0.05262562 -0.024044616 -0.0040928065 0.082132354
-0.038402226 -0.012514606 0.055216394 0.0673742 -0.081900336 0.009382991 0.0541716 -0.018302104
-0.04554736 -0.07175064 -0.032699723 0.07803077 0.01748839 -0.04479439 -0.0445758 -0.089630656
-0.050704896 0.069295436 0.035159003 0.012045201 0.074996516 -0.0363938 -0.036713 0.028395835
-0.07461976 -0.061083496 -0.05507754 0.005376588 -0.051749498 -0.041395944 0.039103262 0.07865694
-0.026239743 -0.028706964 0.04067283 -0.014058067 0.03341034 -0.041016616 -0.06374671 0.062622316
0.09626933 0.027832935 0.007219275 0.053863026 0.07603664 -0.04699779 0.07804482 0.07865889
-0.0024344581 0.015455291 -0.010366194 0.04143218 0.094561994 0.01120653 -0.04282154 -0.033304878
-0.044665907 0.06614696 -0.007671112 -0.011456534 -0.030985445 -0.03748193 -0.0698206 0.06842114
-0.04948772 0.020812102 -0.033059638 -0.027408116 -0.055728246 0.056484524 0.04155194 0.058123812
00000000: ab26 a53c e25a 01bd 803b 933d 4036 133d
00000010: f886 ee3c cc0f f9b8 9cf2 a03c 7fb4 823d
00000020: 5e5b 12bd 8abc 27bd 313e 493c 191e 41bd
00000030: ecc4 da3b 57e7 493d 4899 493d 6453 01bc
00000040: 53c8 533b 8ca9 a03c b9be 9b3d 6f19 193d
00000050: 4ef4 5abd b786 173d 5ceb 2cbd d43f 51bd
00000060: dccb 91bc 98ff 9dbd 1aa1 6e3d 6182 83bd
00000070: 70e3 1c3d 5a98 843d 9c1e 913c a15b 8e3d
00000080: 269d 80bb 9385 293c 3990 443d 6a94 dbbc
00000090: 8ca2 063d c78c 1a3d b29f 42bc 7c1f 973d
000000a0: fe89 3f3d e81c 833d 4c3f 3bbd 3165 67bd
000000b0: 98df e7bc 3c15 b2bc c5a2 8dba 2a01 753d
000000c0: fe6b 93bd 5d1e 913d 001e 59bd 5105 a13d
000000d0: f68d 573d 37f9 c4bc f31c 86bb 0235 a83d
000000e0: a74b 1dbd 100a 4dbc 962a 623d 7cfb 893d
000000f0: 5dbb a7bd 1ebb 193c 0ae3 5d3d 4bee 95bc
00000100: de8f 3abd 00f2 92bd 25f0 05bd 99ce 9f3d
00000110: d043 8f3c 537a 37bd 1d95 36bd 4790 b7bd
00000120: f0af 4fbd c4ea 8d3d e302 103d 3c59 453c
00000130: c697 993d aa11 15bd 5f60 16bd 629e e83c
00000140: 3fd2 98bd b032 7abd fd98 61bd 172e b03b
00000150: 48f7 53bd cb8e 29bd be2a 203d e416 a13d
00000160: bbf4 d6bc de2a ebbc 8e98 263d cf53 66bc
00000170: 48d9 083d 0a01 28bd a38d 82bd 2140 803d
00000180: db28 c53d e501 e43c ab8f ec3b 7a9f 5c3d
00000190: 19b9 9b3d c180 40bd f6d5 9f3d ea17 a13d
000001a0: 6e8b 1fbb 3038 7d3c f8d6 29bc cab4 293d
000001b0: b8a9 c13d 989b 373c a465 2fbd b26a 08bd
000001c0: 99f3 36bd 0f78 873d f45d fbbb 30b4 3bbc
000001d0: 30d5 fdbc a786 19bd 1afe 8ebd 6220 8c3d
000001e0: a3b3 4abd 247e aa3c 8b69 07bd fc86 e0bc
000001f0: 4d43 64bd 515c 673d 5e32 2a3d 3c13 6e3d

post.2.weight f4 [128, 128]
0.086519666 0.024939613 -0.036398154 0.09013994 0.015752489 0.083919354 0.07740845 -0.07878624
-0.050337642 0.08221936 -0.030358465 0.012905054 -0.023221726 0.074732736 -0.055731494 0.029882705
-0.020730078 -0.072726585 0.011582358 -0.029189454 -0.036350437 -0.078056954 0.05610959 0.033667754
-0.0013253393 0.08630868 -0.034326512 0.03413607 0.0870746 -0.050818764 0.008248371 0.060655307
0.034798045 0.037347022 0.0668454 -0.079348415 -0.019700121 0.020464668 0.029432213 0.016661128
0.02216357 0.01588685 -0.021666126 0.06354348 -0.06652864 -0.03980275 0.09462148 -0.039319996
-0.022287175 0.053658735 0.014784289 0.047767717 0.055730216 0.08226818 0.046776824 0.04399547
0.07180474 -0.051048163 -0.030658582 -0.02679711 0.06385743 0.03233191 0.0031800303 0.03273845
-0.028270448 0.09144665 0.00909082 0.0058669155 0.03815972 -0.0044623096 0.05471261 -0.027657475
0.06570857 -0.07671822 0.06201625 -0.035770744 0.063691966 0.08364868 0.08560371 -0.044945277
0.014918434 0.014459157 -0.04198427 0.013960486 -0.05925647 -0.06659418 0.031607598 0.06648803
0.05957083 -0.06025495 0.05530264 0.04942898 -0.0067934874 0.004836917 0.060788795 0.0074289576
0.030872425 -0.024870092 -0.008113964 0.0058151293 -0.054832354 0.057921402 0.042639766 0.046622925
0.0019715456 0.042661626 0.05858971 -0.019945938 -0.00831705 0.017546505 -0.06348204 -0.051734302
0.03011393 0.027157184 -0.060322497 0.0683284 0.087054454 -0.028022598 0.06418856 0.06834348
0.07882197 0.06553365 -0.051999297 -0.052167747 -0.057399865 -0.04027842 0.070286006 -0.038724486
-0.0028132447 -0.06184299 0.04650442 0.033682704 0.024345629 -0.024725271 -0.0002601811 0.08607251
-0.022710094 -0.034054186 -0.052475102 0.042891823 0.019651003 -0.061753146 0.03145913 -0.046223503
-0.06598494 0.0014033869 -0.04748829 -0.054679185 0.027618999 0.033444397 0.031003404 -0.06864315
0.07712488 -0.035529796 0.0731441 -0.0026104907 -0.074452125 0.06573603 -0.01937606 -0.07673187
-0.03462612 -0.016331445 0.041430052 -0.032507278 -0.053455155 0.0682588 0.008221304 0.028384177
0.05292032 -0.04437743 0.0037581867 0.07530101 0.034721322 -0.020668874 -0.075811505 -0.022303954
-0.06614655 0.02423665 -0.06314786 0.08389615 -0.052223306 0.014935767 0.03070504 -0.009270372
0.023694353 0.069633916 -0.008871981 0.04005944 -0.08231764 0.050138157 0.011982045 0.04086659
0.040787175 -0.06796478 0.0947629 -0.04184963 0.04966689 -0.018141566 -0.064343184 -0.017973857
-0.03773909 -0.0440874 -0.06428233 -0.060430884 -0.005263734 -0.06517098 0.08061017 -0.07141321
0.038351204 0.013562558 0.047025003 0.05215206 0.050471965 0.0802387 -0.07274344 0.06320262
0.08863284 0.05455783 0.05169133 -0.049536236 0.06371299 -0.053487375 0.04701285 0.0513783
0.015168426 0.08002908 -0.0738455 0.040550593 -0.005464893 -0.04259279 -0.017008688 -0.0317978
0.060491122 0.08086442 0.060471043 -0.030806823 0.07848492 0.065004 0.028691443 -0.018799527
0.026414005 -0.031127222 0.05243711 -0.017494164 0.054287083 0.07960493 -0.0049142665 -0.01955921
0.042234056 -0.04480616 0.06504361 0.028498232 0.007268582 0.008999555 0.037825707 0.061483894
00000000: 3931 b13d 294e cc3c 3b16 15bd 4a9b b83d
00000010: 5d0b 813c e9dd ab3d 5288 9e3d ae5a a1bd
00000020: d82e 4ebd a062 a83d 51b2 f8bc b86f 533c
00000030: 7d3b bebc 7a0d 993d b546 64bd 93cc f43c
00000040: 20d2 a9bc adf1 94bd eec3 3d3c b91e efbc
00000050: 32e4 14bd 53dc 9fbd 2bd3 653d 33e7 093d
00000060: 02b7 adba 9bc2 b03d f599 0cbd 44d2 0b3d
00000070: 2b54 b23d 5627 50bd 2d24 073c b371 783d
00000080: 6588 0e3d 31f9 183d 3ee6 883d 6c81 a2bd
00000090: 2662 a1bc 85a5 a73c d31b f13c eb7c 883c
000000a0: 6090 b53c 2425 823c 297d b1bc 1623 823d
000000b0: 2b40 88bd 3508 23bd e8c8 c13d 010e 21bd
000000c0: 9893 b6bc 43c9 5b3d cd39 723c 15a8 433d
000000d0: 5e45 643d 387c a83d 0e99 3f3d 9834 343d
000000e0: 5d0e 933d e117 51bd b527 fbbc 9d85 dbbc
000000f0: afc7 823d 776e 043d 0e68 503b c118 063d
00000100: 6d97 e7bc 6248 bb3d aaf1 143c 413f c03b
00000110: 5e4d 1c3d 9138 92bb 541a 603d ee91 e2bc
00000120: 3792 863d 711e 9dbd c004 7e3d 5884 12bd
00000130: ef70 823d 0050 ab3d ff50 af3d 8a18 38bd
00000140: 736c 743c 1ae6 6c3c b3f7 2bbd 86ba 643c
00000150: eab6 72bd 8862 88bd f876 013d e02a 883d
00000160: 8b00 743d e5cd 76bd 0585 623d 0b76 4a3d
00000170: e79b debb 007f 9e3b acfd 783d 9d6e f33b
00000180: 2be8 fc3c 5dbc cbbc 6ff0 04bc d78c be3b
00000190: e497 60bd fe3e 6d3d 09a7 2e3d aef7 3e3d
000001a0: 0c35 013b f5bd 2e3d c4fb 6f3d aa65 a3bc
000001b0: 3c44 08bc b0bd 8f3c df02 82bd 59e7 53bd
000001c0: 7db1 f63c be78 de3c b914 77bd c3ef 8b3d
000001d0: 9b49 b23d a68f e5bc 4b75 833d abf7 8b3d
000001e0: 6a6d a13d 8236 863d 37fd 54bd d9ad 55bd
000001f0: 1f1c 6bbd fcfa 24bd 1cf2 8f3d 919d 1ebd
00000200: 6a5e 38bb 134f 7dbd 6b7b 3e3d e0f6 093d
00000210: 7c70 c73c a78c cabc eb68 88b9 c946 b03d
00000220: 850a babc 677c 0bbd 22f0 56bd 56af 2f3d
00000230: 24fb a03c def0 7cbd 4adb 003d db54 3dbd
00000240: 1d23 87bd daf1 b73a 1583 42bd 48f7 5fbd
00000250: 3d41 e23c fefc 083d dafa fd3c c894 8cbd
00000260: a6f3 9d3d b187 11bd 93cc 953d c414 2bbb
00000270: 5b7a 98bd 9da0 863d 8bba 9ebc 9925 9dbd
00000280: 1ed4 0dbd 86c9 85bc 8fb2 293d 5a26 05bd
00000290: cbf3 5abd 45cb 8b3d a6b2 063c ef85 e83c
000002a0: fac2 583d 1cc5 35bd e94b 763b 6a37 9a3d
000002b0: f237 0e3d c551 a9bc 1043 9bbd c8b6 b6bc
000002c0: d877 87bd f08b c63c aa53 81bd bfd1 ab3d
000002d0: 1be8 55bd 26b5 743c 2389 fb3c c2e2 17bc
000002e0: a91a c23c 3a9c 8e3d c95b 11bc 5e15 243d
000002f0: 2796 a8bd ab5d 4d3d 5750 443c ba63 273d
00000300: 7410 273d 1e31 8bbd 0d13 c23d 856a 2bbd
00000310: 826f 4b3d 9f9d 94bc 5cc6 83bd e93d 93bc
00000320: 4e94 1abd fd94 34bd 74a6 83bd 6086 77bd
00000330: 677b acbb 5d78 85bd f216 a53d 1741 92bd
00000340: 2716 1d3d 7e35 5e3c 4a9d 403d 669d 553d
00000350: b1bb 4e3d 3054 a43d 83fa 94bd 6070 813d
00000360: 2285 b53d 0878 5f3d 4aba 533d 82e6 4abd
00000370: f57b 823d 9415 5bbd 8c90 403d 0d72 523d
00000380: fd84 783c 49e6 a33d 4f3c 97bd 6118 263d
00000390: d812 b3bb c775 2ebd ce55 8bbc 693e 02bd
000003a0: 8ac5 773d 3f9c a53d 7cb0 773d 975e fcbc
000003b0: b4bc a03d d120 853d 510a eb3c 7701 9abc
000003c0: 2f62 d83c 84fe febc 4cc8 563d ec4f 8fbc
000003d0: 225c 5e3d e907 a33d db07 a1bb a33a a0bc
000003e0: 9efd 2c3d aa86 37bd 9635 853d 2075 e93c
000003f0: 492d ee3b df72 133c 21ef 1a3d 89d6 7b3d

post.2.bias f4 [128]
-0.0690571 0.08392566 0.04943463 -0.0060234116 -0.061130818 0.05832994 0.023479061 -0.008161996
-0.09068656 0.021621274 0.036021423 -0.01646358 -0.08740772 0.06698891 -0.04257182 -0.046642583
0.076646544 0.05997939 0.04706963 -0.062909886 -0.05909848 0.029741738 -0.025013678 0.028874522
0.019811613 -0.024040563 -0.04083651 0.05678401 -0.07446824 0.003150338 0.08799663 0.016268276
-0.05961045 -0.0018042848 0.041723657 -0.07507966 -0.06336991 0.004919754 -0.051041458 -0.06716778
0.016679723 0.05866726 -0.045849532 0.014744563 -0.06459591 0.040474966 -0.013187695 0.035220925
0.04592035 -0.024994344 0.088793844 0.0010135623 -0.030100113 -0.0112901 0.05174761 -0.053034328
-0.08267931 0.09862595 0.004776859 -0.068822265 0.03548955 0.05485649 -0.03522953 -0.05104302
-0.027418684 0.009740708 -0.0051035597 0.038023125 0.049157117 -0.013289735 0.06681568 -0.056560624
-0.060234033 0.067934506 -0.045104414 0.05220016 0.046379004 0.088045314 -0.07073133 0.057996508
-0.0050686244 -0.008655429 -0.02111034 0.042591408 0.02189286 -0.049739458 0.015587516 0.0099294055
0.08511602 0.069343895 -0.036086097 0.051297244 0.057958707 -0.028036168 0.09378718 0.045836158
0.08516192 -0.006035076 0.02049536 0.012624886 0.032414936 -0.029654106 0.06513172 0.012329821
0.011147486 -0.026407894 0.044197895 0.068599544 0.0871359 -0.063957006 -0.072981864 0.070687115
0.06173131 -0.037606105 0.0665447 0.05124414 -0.0349776 -0.0003145337 0.07095099 0.07399212
-0.05003288 0.005284532 -0.026982732 -0.073775396 0.0449976 -7.6753495e-06 0.032417897 0.05692487
00000000: cf6d 8dbd 37e1 ab3d f77b 4a3d 0a60 c5bb
00000010: 4f64 7abd 60eb 6e3d 2957 c03c e4b9 05bc
00000020: e0b9 b9bd 191f b13c 338b 133d a1de 86bc
00000030: d202 b3bd 7b31 893d ca5f 2ebd 4b0c 3fbd
00000040: ddf8 9c3d f3ac 753d 16cc 403d e6d6 80bd
00000050: 3f11 72bd f2a4 f33c 7ce9 ccbc 438a ec3c
00000060: f74b a23c b7f0 c4bc 2f44 27bd 5a96 683d
00000070: ce82 98bd e775 4e3b 9437 b43d 0c45 853c
00000080: 162a 74bd c07d ecba 6de6 2a3d 5dc3 99bd
00000090: 15c8 81bd e335 a13b d910 51bd 438f 89bd
000000a0: eaa3 883c 154d 703d b8cc 3bbd 2e93 713c
000000b0: dc4a 84bd 14c9 253d 3411 58bc d143 103d
000000c0: fa16 3c3d f0c0 ccbc 8cd9 b53d 82d9 843a
000000d0: 8394 f6bc 1dfa 38bc 4df5 533d 863a 59bd
000000e0: c553 a9bd 67fc c93d 3387 9c3b b0f2 8cbd
000000f0: 7e5d 113d 33b1 603d d74c 10bd 7c12 51bd
00000100: 269d e0bc 7e97 1f3c c33b a7bb 23be 1b3d
00000110: f958 493d 30bd 59bc a9d6 883d 1dac 67bd
00000120: f6b7 76bd 3f21 8b3d 68bf 38bd d6cf 553d
00000130: e9f7 3d3d 1a51 b43d 96db 90bd bf8d 6d3d
00000140: b416 a6bb 80cf 0dbc 97ef acbc 5474 2e3d
00000150: a858 b33c 9abb 4bbd c862 7f3c f2ae 223c
00000160: 4f51 ae3d 2c04 8e3d 04cf 13bd 0f1d 523d
00000170: 1c66 6d3d 1bac e5bc 7e13 c03d b2be 3b3d
00000180: 5f69 ae3d e3c1 c5bb e3e5 a73c 9cd8 4e3c
00000190: 86c5 043d 2bed f2bc c763 853d 0403 4a3c
000001a0: f2a3 363c 5e55 d8bc da08 353d eb7d 8c3d
000001b0: 4f74 b23d e4fb 82bd 8477 95bd 68c4 903d
000001c0: f8d9 7c3d dc08 1abd 9648 883d 60e5 513d
000001d0: ac44 0fbd 00e8 a4b9 c14e 913d 2e89 973d
000001e0: 47ef 4cbd de29 ad3b e40a ddbc 8e17 97bd
000001f0: 674f 383d 60c5 00b7 a1c8 043d 0d2a 693d

lstm.weight_ih_l0 f4 [512, 128]
0.04548967 0.011985089 0.07383536 0.03620468 0.05909751 -0.035369784 -0.05438589 -0.06356765
0.036639206 -0.0748377 0.069690466 0.07628908 0.07981931 -0.010244501 0.0023537285 -0.01053934
-0.037242904 0.041640818 -0.0683139 0.09807076 0.021517344 -0.06330354 -0.06781215 0.008917212
0.08673072 0.08971735 0.003565419 -0.01696857 -0.016852975 -0.051722642 0.08388895 0.03404291
0.019591741 0.052804 0.005081689 -0.039782286 -0.07432043 -0.070284806 -0.016920883 0.032145787
-0.018145738 -0.07718501 -0.043934457 0.011816672 0.010962787 0.0780389 0.020166537 0.02532839
0.06861682 -0.07180031 0.01078985 0.052639876 -0.042926427 -0.037500683 -0.0015604871 0.08182513
0.023464499 0.06116825 0.003529418 0.08373019 -0.0749281 -0.04110223 0.015971122 0.038615312
-0.02410794 0.09488011 -0.038632877 0.077900596 0.07550472 0.04382137 -0.02216609 -0.072609305
-0.07999893 0.031214781 -0.07153198 -0.011739233 0.09306767 0.03966208 -0.0469803 -0.018903691
-0.07968774 0.015395949 0.025366528 0.04627119 0.02245617 0.098666504 0.04950329 -0.015772551
0.06912598 0.022261415 0.032318983 -0.04678492 0.020542014 -0.037306238 -0.01609277 0.07488439
0.0201281 0.07398136 -0.07121467 -0.017070102 -0.057210647 0.04419788 0.0016545774 -0.058435183
0.07610214 -0.04280478 0.03723999 -0.037242677 0.0244555 0.039951902 0.10167828 0.0055555957
0.08747595 -0.0719437 0.07417733 0.0550381 0.072481774 -0.012701988 0.017069275 -0.055627484
0.053686205 0.030984776 0.09469527 0.007983396 0.044760436 0.025835885 0.07901831 -0.032044068
0.004129436 -0.031447653 -0.030696856 0.06701129 0.09985039 -0.040049862 0.063982725 -0.021628719
-0.0009344769 0.06035224 0.05576283 0.075016156 -0.07816816 0.064734176 0.06948379 0.069014855
-0.024481945 0.006216166 0.015164452 0.0042580627 -0.025011688 -0.009800595 -0.0707561 0.0921328
0.0056037493 -0.0010333479 -0.008351363 -0.030400552 -0.06748539 -0.034803096 -0.037343353 -0.024991795
-0.024038747 -0.051835112 0.08722977 0.09731598 -0.0075447154 0.025607226 0.016617225 0.0806537
-0.022319058 -0.038559433 -0.030894306 0.062373515 -0.08274222 0.033123903 -0.06535408 -0.0032270763
0.0041276864 0.045116834 0.10004331 0.038279988 -0.02773248 0.056024045 -0.044220783 0.077505715
0.04001626 0.09062057 -0.0006928088 -0.021002842 -0.045147378 -0.063802205 0.016511325 0.04930349
0.08378164 0.08401939 -0.07776249 0.055572346 -0.033470564 0.0067917723 0.0033794201 -0.018403746
0.036984168 0.068798944 -0.02902236 0.0042650155 -0.010267315 -0.031744286 -0.043504912 0.078167014
0.028518233 0.09017943 0.07339539 -0.010815131 -0.07187351 -0.06464709 -0.02198883 -0.0713961
0.06707845 -0.003764325 -0.07331275 0.031548698 -0.036834225 0.0009382069 0.019362697 -0.042241536
-0.020088146 -0.02011697 -0.021656247 0.00083824527 0.050610922 0.0070709283 -0.0024285764 -0.03384485
0.022759296 0.09963119 0.067679055 -0.069301024 0.07924498 -0.0014234338 -0.06484378 0.022855034
0.0014564487 0.007483906 -0.050497342 -0.03661324 0.07213265 0.046818443 -0.049015198 0.0404872
0.04501442 -0.08865561 -0.009973199 0.047288895 0.06327232 0.09793713 0.019105516 0.041726068
00000000: 6053 3a3d 1b5d 443c fe36 973d 5c4b 143d
00000010: 3b10 723d e8df 10bd bdc3 5ebd c22f 82bd
00000020: fe12 163d 8244 99bd e0b9 8e3d 733d 9c3d
00000030: 4e78 a33d 8dd8 27bc 0341 1a3b 32ad 2cbc
00000040: 048c 18bd 908f 2a3d 28e8 8bbd 53d9 c83d
00000050: 2445 b03c 49a5 81bd 19e1 8abd 7f19 123c
00000060: e09f b13d bbbd b73d cea9 693b ac01 8bbc
00000070: 400f 8abc 1fdb 53bd f8cd ab3d 9470 0b3d
00000080: dc7e a03c 0249 583d 4c84 a63b c0f2 22bd
00000090: 4f35 98bd 7bf1 8fbd aa9d 8abc 4dab 033d
000000a0: 5fa6 94bc 2d13 9ebd 9ef4 33bd b79a 413c
000000b0: 439d 333c dcd2 9f3d 4b34 a53c 7c7d cf3c
000000c0: fa86 8c3d 0a0c 93bd e9c7 303c e99c 573d
000000d0: 9fd3 2fbd 519a 19bd 4289 ccba ef93 a73d
000000e0: 9f38 c03c 8f8b 7a3d cf4d 673b bc7a ab3d
000000f0: e773 99bd d05a 28bd dfd5 823c 172b 1e3d
00000100: 047e c5bc 8150 c23d 823d 1ebd 598a 9f3d
00000110: 38a2 9a3d 097e 333d a995 b5bc 30b4 94bd
00000120: 7bd6 a3bd 24b6 ff3c 5c7f 92bd e955 40bc
00000130: 439a be3d b574 223d 6a6e 40bd eadb 9abc
00000140: 5333 a3bd 4a3f 7c3c 77cd cf3c dc86 3d3d
00000150: 00f6 b73c aa11 ca3d f6c3 4a3d 7035 81bc
00000160: ec91 8d3d 925d b63c e960 043d 8ba1 3fbd
00000170: ba47 a83c 6dce 18bd fcd4 83bc fd5c 993d
00000180: afe3 a43c 8a83 973d ffd8 91bd 99d6 8bbc
00000190: b655 6abd d608 353d 68de d83a bb59 6fbd
000001a0: 70db 9b3d 1154 2fbd f688 183d c78b 18bd
000001b0: e756 c83c 9ba4 233d b43c d03d b70b b63b
000001c0: 9726 b33d 3857 93bd 49ea 973d a16f 613d
000001d0: 5371 943d 001c 50bc ddd4 8b3c a5d9 63bd
000001e0: 11e6 5b3d c9d3 fd3c 98ef c13d cacc 023c
000001f0: b856 373d c7a5 d33c 5ad4 a13d a440 03bd
00000200: 3850 873b 41cf 00bd f977 fbbc 373d 893d
00000210: 5c7e cc3d 530b 24bd 6009 833d b62e b1bc
00000220: aff7 74ba e933 773d 9167 643d 12a2 993d
00000230: a116 a0bd 5a93 843d 844d 8e3d a957 8d3d
00000240: 5c8e c8bc fbb0 cb3b 5274 783c 3887 8b3b
00000250: 50e5 ccbc ad92 20bc 93e8 90bd 1fb0 bc3d
00000260: a89f b73b 6771 87ba 28d4 08bc 940a f9bc
00000270: c835 8abd b18d 0ebd 58f5 18bd 98bb ccbc
00000280: e8ec c4bc 0e51 54bd 86a5 b23d 9a4d c73d
00000290: a939 f7bb 3fc6 d13c d920 883c c42d a53d
000002a0: 75d6 b6bc 7ff0 1dbd 0e16 fdbc 5f7b 7f3d
000002b0: c174 a9bd eeac 073d 5cd8 85bd 5b7d 53bb
000002c0: 8b41 873b 6ecc 383d 82e3 cc3d 7acb 1c3d
000002d0: 3a2f e3bc 7879 653d da20 35bd 51bb 9e3d
000002e0: 17e8 233d 4797 b93d 9d9d 35ba 270e acbc
000002f0: 75ec 38bd bbaa 82bd c242 873c 75f2 493d
00000300: b595 ab3d 5c12 ac3d f141 9fbd d49f 633d
00000310: 6e18 09bd 848d de3b 4379 5d3b 74c3 96bc
00000320: b67c 173d 76e6 8c3d 4dc0 edbc 8bc1 8b3b
00000330: 3e38 28bc 4c06 02bd 3532 32bd 0716 a03d
00000340: 129f e93c feaf b83d 5250 963d f231 31bc
00000350: 6b32 93bd b265 84bd eb21 b4bc 1e38 92bd
00000360: 6d60 893d e5b2 76bb ff24 96bd 3539 013d
00000370: 7cdf 16bd 00f2 753a 859e 9e3c 7605 2dbd
00000380: e58f a4bc 58cc a4bc 7168 b1bc b0bd 5b3a
00000390: 664d 4f3d 3fb3 e73b c028 1fbb e6a0 0abd
000003a0: b471 ba3c 700b cc3d 519b 8a3d b2ed 8dbd
000003b0: 314b a23d 8392 baba d1cc 84bd 7b3a bb3c
000003c0: 4fe6 be3a 8e3b f53b 4dd6 4ebd c4f7 15bd
000003d0: 48ba 933d b2c4 3f3d 29c4 48bd e8d5 253d
000003e0: 0a61 383d 1391 b5bd a166 23bc 00b2 413d
000003f0: eb94 813d 4393 c83d 2c83 9c3c f4e8 2a3d
