RL/ablation_Baseline_20260128_233211/ckpt_ep100.pt (torch, 784866 bytes, 31 tensors)

gcn1.lin.weight f4 [64, 10]
00000000: 7f75 963e 3d79 1dbe e72e 97be 50c8 bebd
00000010: 6bf5 1c3e 3a1d 333e 9713 4c3a a3ba bdbd
00000020: 7eae bc3d 1ed2 5d3d 88e2 993d 21c7 dabc
00000030: 79d5 f63d 4212 7f3e 4179 0c3e 0258 543e
00000040: 39b7 73be 72e0 14be b08f 65be c2da 96be
00000050: 0b15 4ebe b845 9d3e 55b6 6ebe d088 76be
00000060: 83c1 e93d e4ca 023e f50c ab3e a9ad 8ebe
00000070: 1cca 23be a7a1 643e a8ac 783d 70b6 0cbe
00000080: 87a2 86bd 3336 793e 52cf 4e3e 8ccc b13d
00000090: 0cba 9a3e c40a 0c3e 4bf4 7e3d e719 9d3e
000000a0: 8c5a 753e d72c 07be 61dc a23d 3dbf 48be
000000b0: 2bcb 9bbe 3e4f 2abe 4e8c dabc 72e5 083d
000000c0: 5ec3 84be e6f6 163e 0f1a 8fbe 1fc5 e2bd
000000d0: af81 263e ce74 0e3e 4251 293e 00d2 87ba
000000e0: 158b 8abe 9259 b33d a537 083e c733 313e
000000f0: 28e2 15be d792 073e c153 ebbd e858 28be
00000100: 84cb 65be 2d6d 76be f8c1 703d 1f87 453e
00000110: fc5e 70be 1aea 063e ff03 7abe 1989 c6bd
00000120: 3020 1cbe 73e8 373d 7b32 6d3e 9c4a f13d
00000130: 5209 d4bc c015 6c3e 08bb 4ebe 42d1 8fbe
00000140: 46af 96be cf3c 6abe f5a9 32be 97f1 a53d
00000150: 7ee7 1fbe 4087 ce3c b67c f5bd 395a 8f3e
00000160: 4293 90be d863 473e c341 3a3e 5c75 77bd
00000170: 86f0 8dbe 9dc6 df3d b814 e0bc 9c41 cdbd
00000180: c4db 6ebe 8d0a 89be f0d2 d2bd 2b65 0b3e
00000190: 7a9c 673e ff14 b7bc 1776 913e 1167 273e
000001a0: 270c 8fbe 90e6 40bd af7a 1f3e 5460 7ebe
000001b0: dfe3 3f3e b4b8 48be 0a32 f83d bb87 2bbe
000001c0: 4788 0dbe 0894 8d3d c018 883e fc98 bc3d
000001d0: 1835 133e a7f4 d53d dc57 2cbe 48aa c3bd
000001e0: ac55 28be 2ed2 423e 23bc 713e 3430 8d3e
000001f0: 5d96 333e 5849 19be 7e97 ac3d 5d89 0ebe
00000200: d819 3e3e fad6 27be 8694 88be 173d 07be
00000210: 7e53 94be f45b 8f3e 66a1 9d3d ce66 673e
00000220: 8bdc 1bbe c003 7abe bc7e 713e 63cf 75be
00000230: 0a30 81be 8345 98be d334 793d 3148 483e
00000240: 955b 6e3e 000c 6fbe 2e56 4dbe a5af 903e
00000250: 2ce7 143e 6294 d43d f77c 92bc d300 f83d
00000260: 0427 78be f84f 513e 1594 36be d612 6ebe
00000270: eb86 f83d ae8b 8b3e 3dbc af3d c907 20be
00000280: 3133 81be 8c3c 2d3e 66ea 93be 5108 923e
00000290: b23d 993c a070 96be d8ae b4bd c6e4 e33d
000002a0: 06e7 cdbd 100e 933d df64 96be 91c4 e03d
000002b0: 468d 6b3e 86b4 863e 350c a1be 3cc3 953d
000002c0: 7278 88be 84cc e03d 804b 1a3a 3cd2 95be
000002d0: 05f1 5cbe 39a1 7fbe ec72 5c3d 89c8 783e
000002e0: 5911 07bc 7c36 233e 2652 843b ecc4 25be
000002f0: 7716 7bbd 9544 80be afb8 263d 14f9 993e
00000300: 4dec 5e3e d601 b23d 91a8 833d b0af 0e3e
00000310: 097a 66be 8629 8d3e e08c 073d 48e3 88bd
00000320: 853f 8d3e f5e4 a23e 26b7 72be e14a 77be
00000330: bca3 7a3c a5be 29be 1573 143e 2e52 83be
00000340: 9ad7 823e cf9c 5ebe 5eb4 d93d 5976 bc3c
00000350: f1d7 a03e 0ef6 683e de47 f33c ef6e 91be
00000360: d198 8bbe ecce 753e f021 43be 07a8 533e
00000370: 82c9 95be c6b1 88be 4752 97be a266 cc3d
00000380: 341f 51bd 7a12 073e 4866 0b3d d297 37be
00000390: c6a5 6bbe a737 9d3e 3bac 783e 2b64 583e
000003a0: b982 163e 5ea3 503e 755f 943e 3a3b 78be
000003b0: 1d36 093e be5f 293e ab05 273c ec54 89be
000003c0: fa91 d4bc 3f9a 2cbe f3c3 87be 9225 543e
000003d0: 707c 87be 9040 0ebd 8650 393e 9217 013d
000003e0: 25ba 78be c1b4 4c3d f6b5 433e 150f d83d
000003f0: d57c 63be 8e09 2bbe 1076 8b3e 6dbd 813e
0.29386517 -0.1537828 -0.2952797 -0.0931555 0.15327995 0.17491618 0.00077849015 -0.09264114
0.09212969 0.05415546 0.075139105 -0.02670628 0.120524354 0.24909309 0.1371813 0.20736697
-0.23800363 -0.14538744 -0.22418094 -0.29463774 -0.20125215 0.30717254 -0.23311742 -0.24075627
0.114138626 0.12772709 0.33408323 -0.27866867 -0.15995067 0.2232729 0.060711533 -0.1374147
-0.065739684 0.24337082 0.20196274 0.08681592 0.30220068 0.13675982 0.062244695 0.30683824
0.23960322 -0.13200699 0.0795219 -0.19604202 -0.30428442 -0.16631791 -0.02667823 0.03342194
-0.25930303 0.14742622 -0.2794957 -0.11072754 0.16260408 0.13911745 0.16534904 -0.0010362267
-0.27059236 0.087573186 0.13302477 0.17304908 -0.14637053 0.13239609 -0.11490584 -0.16440165
-0.22440916 -0.24065085 0.058778733 0.19289826 -0.23473734 0.1317524 -0.24415587 -0.09694118
-0.15246654 0.044899415 0.23163788 0.11781809 -0.02588335 0.23055172 -0.20188534 -0.2808934
-0.29430598 -0.22874759 -0.17447646 0.0810272 -0.15615651 0.025210977 -0.11986677 0.27998522
-0.2823735 0.19471681 0.18189149 -0.060414657 -0.27722567 0.10926554 -0.02735363 -0.100222796
-0.23326021 -0.26765862 -0.102941394 0.13612811 0.22618285 -0.022348879 0.28410408 0.1634791
-0.2793896 -0.04709488 0.15574144 -0.24841434 0.1873927 -0.19601709 0.12118919 -0.16750996
-0.13821517 0.06913 0.26581383 0.09208867 0.14375722 0.10447054 -0.1683039 -0.09553963
-0.16438931 0.1902549 0.23606925 0.2757584 0.17537828 -0.14969385 0.08427332 -0.13919587
0.18564546 -0.16390601 -0.26675814 -0.13206898 -0.2896995 0.27999842 0.076968 0.2259781
-0.15220849 -0.24415493 0.23583502 -0.24004893 -0.25231963 -0.29740533 0.060841393 0.19558789
0.23277123 -0.23344421 -0.20052406 0.28259006 0.1454131 0.10379864 -0.017881854 0.12109532
-0.24233633 0.20440662 -0.17829926 -0.23249373 0.121351086 0.27255005 0.085808255 -0.1562797
-0.25234368 0.16917628 -0.2888977 0.2852197 0.018706176 -0.293828 -0.08822411 0.111276194
-0.1005383 0.071804166 -0.29373834 0.10974992 0.2300311 0.26309603 -0.31454626 0.073126286
-0.26654392 0.10976508 0.0005885884 -0.2926196 -0.21576317 -0.24963845 0.053820536 0.24295248
-0.008243882 0.15938753 0.004038113 -0.16188401 -0.06130072 -0.25052324 0.04070347 0.30072844
0.21769829 0.086917564 0.06428636 0.13934207 -0.2250749 0.27570742 0.033093333 -0.066839755
0.27587524 0.31815305 -0.23702678 -0.24149658 0.015297826 -0.16576631 0.14497025 -0.25648636
0.25555116 -0.21739505 0.106301054 0.023005651 0.3141475 0.22750112 0.029697355 -0.28404948
-0.27265027 0.24004716 -0.19055915 0.20669566 -0.292553 -0.2669813 -0.2955496 0.09980513
-0.05105515 0.13190642 0.03403309 -0.17929009 -0.23012456 0.30706522 0.2428445 0.21131961
0.14698304 0.2037482 0.28979078 -0.24241343 0.13399549 0.16540429 0.010194222 -0.26822603
-0.025948513 -0.16855715 -0.26516685 0.20717457 -0.26462126 -0.03472954 0.18097124 0.03151662
-0.24289759 0.049977068 0.19112381 0.10549752 -0.22215588 -0.16702864 0.27238512 0.25339833

gcn1.lin.bias f4 [64]
00000000: 0b93 733e 17e3 943e 7c66 d2bd b101 403e
00000010: 9525 213e 36da 8d3e 4a05 89be b709 4cbd
00000020: e280 1a3e 4051 263d bd95 57be c0cf 4a3e
00000030: 00d0 53be 43a8 8d3c 5a9a 1dbe 482c 893e
00000040: bb2f fcbd b22d be3b 808e 2bbe 37ec 9e3e
00000050: 2330 50be 678e 883e 19f9 63be eae1 6a3e
00000060: f98e bd3a 3ed2 5ebe d56c d03d 64c5 ffbd
00000070: c6ae 80be a549 7ebe 36be c13d e3a5 0f3e
00000080: 637c b13c 1ba4 c43c 6abf 8c3e e6a1 93bc
00000090: a758 513e eee0 873c 7008 4abe 3b49 193d
000000a0: 2fdd 61be dd53 163d 97df 22bd 360e 8dbe
000000b0: 48de 893e 7072 08be 165a 55be de0a 3cbe
000000c0: 03cc ffbd efe6 76be 48de 253e 0530 2e3e
000000d0: ce3c 0e3e 927b 5f3e e8fa a73e 105f a23e
000000e0: ad2e 75be 28a2 dc3d 0a80 09be 7849 27be
000000f0: ddd1 983d 2a0a 3bbe c6e3 183e 4eb8 56be
0.23786561 0.29079506 -0.102734536 0.18750645 0.15736993 0.27705544 -0.26761848 -0.049813952
0.15088227 0.04060483 -0.21053214 0.19805813 -0.20684814 0.017292148 -0.15390912 0.26791596
-0.12313791 0.005803787 -0.16753578 0.31039593 -0.20330863 0.26671144 -0.22262992 0.22937742
0.0014462165 -0.21759889 0.10177008 -0.12488821 -0.25133342 -0.2483278 0.09460108 0.14028125
0.021665758 0.024004033 0.27489787 -0.018021535 0.20443974 0.016586747 -0.19729781 0.037423354
-0.22057031 0.036701072 -0.039764013 -0.27549905 0.269274 -0.13324904 -0.20835146 -0.1836352
-0.12490084 -0.24111532 0.16198075 0.17010505 0.13890383 0.21824482 0.32808614 0.31713152
-0.23943587 0.10773116 -0.1342775 -0.1633662 0.07461903 -0.18265596 0.14930639 -0.20968744

gcn2.lin.weight f4 [64, 64]
00000000: c709 bcbd a935 143e a5d4 553d 2ec9 53bd
00000010: b9b4 f53d 3617 c23d 76a3 663d 1e4f 21bd
00000020: cba8 c1bb 37f9 aebd 3aa0 1ebc 7820 86bd
00000030: 1cc3 4ebb 25de 47bd c25f 773a ae35 0d3e
00000040: c374 c7bd d0b4 2ebd cfcf 1fbb 627e e83d
00000050: b16a abbd 9f91 74bd fca7 2f3d bd72 1ebd
00000060: fde8 e1bd 7c69 fcbc 734b 073b 8715 713b
00000070: fa62 e0bd dcac 99bd 981e c73c be44 41bd
00000080: 22a9 943d 8d21 e03c 9779 9ebd a720 20bc
00000090: e63a 043e ef92 893c f278 7f3d fb96 87bd
000000a0: 1883 9fbd 2a25 b8bd 1e43 893c 389b 073e
000000b0: a921 003e 2a03 1fbd bfff 9fbd 6f1f 9c3c
000000c0: ab7a 0e3e e58e 133e ab14 9e3d 9577 c23d
000000d0: 70eb ba3a 5b9d b4bd 698b 663d 43e4 f53d
000000e0: 7b78 913d af4e aabd e943 a0bd 1fe0 c2bd
000000f0: 5616 95bb b2a5 e43d 0e07 833d 3641 c1bd
00000100: 1701 7a3d 629b 923d 4cbd cdbc 5d13 d2bd
00000110: a082 f23d 4ea2 8f3d 7c49 91bd 5f4a f33b
00000120: fc9a d63d f756 74bd 1acc 97bd 3fff 383d
00000130: fb21 883d c891 56bd fb09 eb3d c23d 6cba
00000140: 3fad 843d bf3a f63d b9af a7bd 85c1 a53d
00000150: 73b1 a53d 6349 443d 6390 c7bc 8f45 56bd
00000160: 7bfa efbd cc0e d5bd cfde b4bb 1c07 ec3d
00000170: 1c7a df3d 5a16 c13d 7cd2 d23d b83d 213d
00000180: 86ae a7bd 6ffa 6abd 8961 7cbd 8462 97bd
00000190: 905b 733d 93f5 10bc 8041 f93d 2cb6 bb3d
000001a0: f551 39bd 8cb0 a5bc 9c82 363d 9c3d e3bd
000001b0: 2017 f03d 5ce7 c93d af03 48bd 8eb2 b9bd
000001c0: ac3b d0bc 9fe4 72bd 024f d63d 6f99 a83d
000001d0: b979 933d 61db a13d 89b1 f63c 0e1c 94bd
000001e0: a6a4 893d 5c4f 43bd 3754 713b 5324 993d
000001f0: e324 063e 3034 1bbd 595a b8bd a409 863d
00000200: 8f0b 0c3e e7a4 fa3d 9a58 e6bc 1dda c43d
00000210: e493 0dbb 0837 26bc 22b1 0b3e c7b4 b93d
00000220: a6a6 0a3e f66d 113e e0cf 86bd bbd1 9bbd
00000230: 397c 603d 673f f5bc 8271 4bbd 339b ef3c
00000240: 994a 523d bcc5 40bd eb07 80bd 364f 05bd
00000250: ae2a d3bc 2587 6d3d e86f e9bc b47f bebc
00000260: 705d aabd 6a36 8dbd 56d2 213d 241a 803d
00000270: 7782 f83d c486 1a3d c5d6 313d 1791 e43d
00000280: e3cc a33d dda1 a7b9 5847 013e 958b 38bc
00000290: 776a babd 485d ed3d 2e35 cf3d eb92 29bd
000002a0: db56 cfbd 2539 41bd fac3 f4bb d068 8dbd
000002b0: 7b5d 583c a456 75bd cbcd 3abd dc3e bd3c
000002c0: 5ca2 41bd cdb8 bcbd 7468 43bd 2fc8 9abd
000002d0: c519 3b3d 3eb1 f33c 380d b6bd f289 d03d
000002e0: e411 9c3d 386e cabd f19e ea3d 09d3 3e3d
000002f0: c147 713d 4489 de3c 7e8a 423b ec59 babd
00000300: 6e8f a83d efd8 883d 5d20 f6bc 14b3 d03d
00000310: 8a12 d63d 75eb 1b3d 0d21 5d3c 220f 043e
00000320: 35b4 443b 6ecb 063e e194 a8bd 7f7f d43c
00000330: 3a29 0d3d 7abb c6bc ab68 013e 0253 923d
00000340: 36e5 c9bd bf1a cf3d 7766 c9bc cf4e b1bd
00000350: f3d9 13bc d6fb 3c3d e332 94bd 30c9 37bd
00000360: 24e6 a33d afb6 8bbd d0d6 b8bd 6435 693d
00000370: e7ec d8bd 6751 fb3d 1742 d53d b234 b53d
00000380: 3f47 a3ba 82e7 073e d5e8 aabd bc07 9dbd
00000390: 1596 8ebd e918 b33d cafd b63d 0376 3d3d
000003a0: 9013 583d fceb 0e3e 8e94 2d3d 6cb3 d6bd
000003b0: 09f9 d83d fb8a 47bc 5dd5 f8bb 7d39 4dbd
000003c0: 9806 8e3d 63f5 e8bb 04c4 093e 0a4c af3d
000003d0: 830d 8f3c 802e 113d 294e d93d e410 c1bd
000003e0: b977 063e cef9 b63a 668d 23b9 3c3d 033e
000003f0: dd5c 48bd dedf 913c f258 523d 1d9d abbd
-0.091815524 0.14473595 0.052204747 -0.05170553 0.11997361 0.094770834 0.056308232 -0.039382093
-0.0059100143 -0.08543628 -0.009681756 -0.06549162 -0.00315494 -0.048795838 0.0009436571 0.13790008
-0.097390674 -0.042652905 -0.0024385338 0.113522306 -0.08369959 -0.059709188 0.04288481 -0.03868364
-0.11030767 -0.030812018 0.0020644336 0.0036786513 -0.10956378 -0.075036734 0.02430658 -0.0471847
0.07258822 0.027359748 -0.07738035 -0.00977341 0.12913093 0.016793696 0.0623712 -0.06620594
-0.07788676 -0.089914635 0.016755637 0.13242805 0.1251284 -0.038821377 -0.078124516 0.019057957
0.13913982 0.14409979 0.07718786 0.09495465 0.001426084 -0.08819076 0.056285296 0.12006428
0.07103058 -0.08315789 -0.07825453 -0.09515404 -0.004549782 0.111644164 0.0639783 -0.09436266
0.061036196 0.07158543 -0.025114678 -0.102575995 0.11841321 0.07013379 -0.07094094 0.007424637
0.1047878 -0.05965325 -0.07411976 0.045165297 0.06647106 -0.05238512 0.11476513 -0.0009011888
0.064783566 0.12022924 -0.08187813 0.080935515 0.080904864 0.04792155 -0.024360841 -0.05231243
-0.11717697 -0.10403213 -0.005519725 0.115247935 0.109119624 0.09428091 0.10294053 0.0393655
-0.081875846 -0.05736774 -0.061616454 -0.07391837 0.059413493 -0.008847612 0.12170696 0.09165606
-0.045244176 -0.020225786 0.044558153 -0.110957354 0.11723161 0.098585814 -0.048831638 -0.0906726
-0.025419079 -0.05930006 0.10464288 0.0823239 0.07200951 0.07903171 0.030113952 -0.072319135
0.06720857 -0.047683105 0.0036823878 0.074776314 0.13100009 -0.037891567 -0.090016074 0.065448076
0.13676284 0.12238484 -0.02811842 0.09611914 -0.0021603042 -0.010144956 0.1364179 0.09067684
0.13540134 0.14202103 -0.06582618 -0.07608362 0.054805968 -0.02993746 -0.049668796 0.02924881
0.051340673 -0.047063574 -0.0625151 -0.032546245 -0.025777187 0.057990212 -0.028495744 -0.023254253
-0.08318603 -0.06895144 0.039507233 0.06254986 0.12134259 0.03772618 0.04341771 0.11160486
0.079980634 -0.0003197332 0.12624872 -0.011263748 -0.09102338 0.115900576 0.10117565 -0.041399878
-0.10123988 -0.047173638 -0.0074696513 -0.06904757 0.013205881 -0.05989708 -0.045606416 0.023101263
-0.04727398 -0.092149355 -0.047707036 -0.07557713 0.045678873 0.029747602 -0.0888924 0.10182561
0.076206 -0.09884304 0.11456097 0.046587978 0.05890632 0.027165063 0.0029684599 -0.090991825
0.08230482 0.06682002 -0.030044729 0.101904064 0.10452755 0.038066346 0.013496649 0.12896398
0.0030014638 0.1316354 -0.082315214 0.025939701 0.034463145 -0.024259318 0.12637584 0.07144739
-0.09858172 0.10112523 -0.024584992 -0.0865761 -0.009024131 0.046138607 -0.07236268 -0.0448696
0.0800288 -0.068219535 -0.09025347 0.056935683 -0.105920605 0.12271386 0.10412996 0.088479415
-0.0012457146 0.13271907 -0.083451904 -0.07667491 -0.069622196 0.087449856 0.08935125 0.046255123
0.05275303 0.13957208 0.042378 -0.10483441 0.10594375 -0.012179132 -0.0075937943 -0.050103653
0.069348514 -0.0071093305 0.1345368 0.08559425 0.017462498 0.035444736 0.10610611 -0.0942705
0.13131608 0.0013959946 -0.00015597566 0.12816328 -0.048916686 0.017806944 0.051354356 -0.08379576

gcn2.lin.bias f4 [64]
00000000: 17b8 52bd 6294 d83d 8313 163e 3a00 383d
00000010: 4fb4 af3d e814 463d fdd5 8e3d 1b93 b93d
00000020: cefe 163d 7035 0bbe c2bd 02bc 05c3 0d3e
00000030: 6cdc 0d3e 0dcc 3d3c bd4c cd3d 1396 3a3d
00000040: f24d 8abd dc61 d53d faab 193e 9485 c6bc
00000050: f3a3 b83c aae1 dcbd dc89 bd3d 3731 043e
00000060: 5908 8b3d 7ce5 31bd 703f 913d e1b0 143d
00000070: 7bfb 873c cd53 013e 3b88 46bd 0d41 683d
00000080: f1d7 133e 3008 c53d 50f7 1c3d d164 d5bc
00000090: 6c6d 33bd 5b0e e63d 6457 c9bc 9f73 90bd
000000a0: 545d 4e3d d899 fc3d c518 283b 3dd8 8cbd
000000b0: 6719 53bd c44c da3d 95a5 073d 5dcc a93d
000000c0: 4db8 113e 0850 3ebd dce4 513d c2de dabc
000000d0: f24e 3bbd bbe6 003d 4d23 7fbd d92c 123e
000000e0: 70ad f4bc 46c2 a93d fca4 c8bd 32a1 4a3d
000000f0: 96ad 293c 8dc2 20bc 60f9 e13d 6269 773d
-0.051445093 0.10575177 0.1465588 0.04492209 0.08579313 0.04835978 0.06974409 0.09061261
0.036864094 -0.13594604 -0.007979812 0.13843925 0.13853616 0.011584294 0.10024402 0.04555328
-0.06753148 0.10419056 0.1500701 -0.024233617 0.022539115 -0.107852295 0.0925481 0.12909399
0.067887016 -0.043431744 0.07092178 0.036301497 0.016599407 0.12629624 -0.048469763 0.056702662
0.14437844 0.09620702 0.038321793 -0.02604905 -0.043805525 0.11233207 -0.024577804 -0.07053303
0.050381973 0.12334031 0.002564953 -0.06877182 -0.051537897 0.10659173 0.033116896 0.08290932
0.14230461 -0.046463042 0.051243648 -0.026717547 -0.045729585 0.03147004 -0.062289525 0.1427492
-0.029867858 0.08289008 -0.09797093 0.049470134 0.0103563275 -0.0098120095 0.11033893 0.060403235

no_gnn_proj.weight f4 [64, 10]
00000000: ae9a 1d3e 607e 8dbc acde 893d 8c3c a63d
00000010: d71d 933e d72c 3dbe 50bc c43c 1a1b 413e
00000020: d65f 3f3e 1a1b 6e3e 2323 9a3e 06a4 3c3e
00000030: 00e5 b13b ee0a 51be 10ac b33c 941f a93d
00000040: 0518 2abe 0155 9f3e f413 0a3e e40c a53d
00000050: 42f1 5d3e 5e12 61be b08d 013d 70b6 07bd
00000060: 29b2 9ebe c30c 33be fa80 6e3e d020 963c
00000070: 7859 133d 0632 b7bd 39a1 8e3e d28a 633e
00000080: 1689 0b3e 5289 603e 200f b7bc 42d0 7d3e
00000090: c01f 99bd f047 8ebe c0d5 083d 20b5 d4bc
000000a0: 60ff 233c ecaa 48be 6ac6 a1be 8696 68be
000000b0: 92ea 5d3e 8040 a6bd 9401 fbbd a032 17bd
000000c0: ee2c 283e 48d2 73be b613 98bd 40d3 bf3c
000000d0: d0aa 78bd 4ae8 523e 7220 81be 4e49 7f3e
000000e0: 96cf 7e3e c9b5 803e ca64 623e d674 68be
000000f0: 7551 a03e 4876 44bd f845 5cbd bd0f 8a3e
00000100: 50e2 1b3e dc9a 84be e668 91be f054 813c
00000110: 7998 a13e fa19 6a3e aa90 6e3e 78e0 293e
00000120: e0c0 183d d01e 73bd 28d7 f83d 31d8 56be
00000130: 5256 653e 8a09 113e f03a bebd c087 d23d
00000140: 5c96 363e 6da7 48be 9a20 743e 985f 66bd
00000150: 5075 323d 7adc 403e dc4d 7bbe d871 0b3d
00000160: 646d 9abe cf1d 823e 6d0b 06be 20b5 253c
00000170: 33cc 08be 3da6 14be 10b7 d23d 3d71 843e
00000180: 2f56 9e3e be37 1dbe e036 ecbd beac 2ebe
00000190: f193 9d3e 9a62 713e 00b8 94b9 92b4 743e
000001a0: c044 6f3d 1b6a 9f3e 28bb ccbd 40fa d5bb
000001b0: 6085 80be 82b4 433e 302f 613d 508b 5fbe
000001c0: 30aa 5ebe 76d0 4e3e 7083 afbc 30ab ab3c
000001d0: 820e 4c3e cc6e a43d 100a d1bc c089 eb3d
000001e0: ca33 a5bd 397a 9c3e 56e9 0d3e ec28 73be
000001f0: af23 94be d469 b83d dc3d 2f3e 3e89 8ebe
00000200: 4423 fc3d daae 94bd fdf4 833e 30a0 273d
00000210: 7a77 9ebe b8e3 b3bd fe01 90bd 6f52 89be
00000220: 1090 a7bc d43a a0be d0c0 eabd cc05 7abe
00000230: 6ee8 67be b095 31bd 6e7a 7a3e b8aa 933d
00000240: 6455 89bd 3af6 763e 2ebc 633e 6845 2b3d
00000250: 4aad 413e 78e9 75be d45e 133e 8456 d93d
00000260: efd0 8e3e c882 f2bd eae4 733e 1036 9fbd
00000270: b0b6 cdbc f369 8a3e c087 113d 40ee 413d
00000280: d0ae a4bd 60f9 413d 3a77 53be c394 8c3e
00000290: 461b 21be 8656 623e 1a06 30be 5d62 54be
000002a0: 10df b5bd 44e7 b83d 9750 90be ffff 3bbe
000002b0: 909f dc3c 5fe4 943e 2a1d 333e 048d aebd
000002c0: 1633 c1bd e56e 5cbe f601 7d3e 04ba 83bd
000002d0: f8ee 7b3d 307c a83d 3630 0dbe 00d6 1bbd
000002e0: 5914 963e d097 72be 2041 10bc 474e 803e
000002f0: b068 a4bd 756d 93be 104a cb3c 1ac7 6ebe
00000300: f665 ebbd e7f7 943e 1036 d8bc c615 043e
00000310: 6c6f 6dbe 8436 95be a0eb 033e b8a5 733d
00000320: a8a2 263d 5f0c 82be 9726 8f3e 5a4b 8dbe
00000330: 987a b43d fc2e 333e d088 853d 1e99 87be
00000340: 7894 80be fd7d 8f3e 4c9e 3abe bb7b 89be
00000350: 6a85 0dbe c264 4bbe 8d35 8f3e b681 2fbe
00000360: 00ea 03bc c819 273d 80ec e1bc 6a2d 1abe
00000370: 5e80 7d3e 90d1 bd3c b2be d9bd 5026 91bc
00000380: 9b1d 9bbe f537 08be 584e 5cbe c4e7 243e
00000390: 9e31 b9bd 624f 793e 7052 bd3d 721d 213e
000003a0: b087 57bd 903c d13c 79ee a0be 548f 8b3d
000003b0: e274 4fbe 521f 733e 00a9 a3bb f207 763e
000003c0: 4ce0 a73d f148 23be 1424 a6bd 1571 33be
000003d0: 4025 c93b c044 cd3c 462c 243e a8f7 89bd
000003e0: 2155 873e 44bc f6bd 10e8 223d 10d9 5e3d
000003f0: 3232 6d3e 7015 0abd f092 eabc c2d1 3c3e
0.15391037 -0.017272174 0.067319244 0.08117017 0.28733703 -0.18474136 0.024015576 0.18857995
0.18688902 0.23252526 0.30104932 0.18421945 0.0054289103 -0.20414326 0.021932632 0.08257976
-0.16610725 0.3111954 0.13484174 0.08059099 0.21674064 -0.21979663 0.031629264 -0.03313297
-0.309953 -0.17485337 0.23291388 0.018326193 0.035973996 -0.08945088 0.27857378 0.22220924
0.13626513 0.21927384 -0.02234608 0.24786475 -0.07476759 -0.2778926 0.033406973 -0.025965273
0.010009617 -0.19596452 -0.3159669 -0.2271367 0.21671513 -0.08117771 -0.122561604 -0.036913514
0.1642339 -0.23810685 -0.074256346 0.023416162 -0.060709774 0.20596424 -0.25220066 0.24930307
0.24883875 0.2513869 0.2210876 -0.2270082 0.31312147 -0.047964364 -0.053777665 0.26965132
0.1522305 -0.25899398 -0.28400344 0.015787572 0.3156164 0.22861472 0.23297372 0.16589534
0.037293315 -0.059355557 0.12150413 -0.20980908 0.2239621 0.14163795 -0.09288585 0.102797985
0.17830795 -0.19595118 0.23840562 -0.05624351 0.04356891 0.18834105 -0.2454142 0.034044117
-0.30161583 0.25413367 -0.13090296 0.010113984 -0.13359146 -0.1451654 0.10288823 0.25867644
0.30925128 -0.15353295 -0.11533904 -0.17058083 0.30776933 0.2357277 -0.0002836585 0.23897007
0.058415174 0.3113564 -0.09996635 -0.0065300763 -0.25101757 0.19111827 0.054976642 -0.21830487
-0.21744609 0.20196709 -0.021424979 0.020955652 0.1992741 0.08028945 -0.025517493 0.11500883
-0.080665186 0.30561998 0.13858542 -0.23746079 -0.28933474 0.0900456 0.17113441 -0.27839082
0.12311414 -0.07259913 0.2577285 0.04092425 -0.30950528 -0.08783668 -0.0703163 -0.26820704
-0.020454437 -0.31294882 -0.11462557 -0.24416274 -0.22647259 -0.043355644 0.24460766 0.072102964
-0.0670574 0.24117365 0.22239754 0.041814238 0.18913761 -0.24014843 0.14391643 0.10612205
0.2789378 -0.11841351 0.23817793 -0.077739835 -0.025111526 0.27033958 0.035529852 0.047346354
-0.08041155 0.047356963 -0.2065095 0.27457246 -0.1573306 0.22103319 -0.17189828 -0.20740648
-0.088804364 0.090284854 -0.28186485 -0.18359374 0.026931554 0.29080483 0.17491594 -0.0852299
-0.09433572 -0.21526678 0.2470778 -0.06431964 0.061507195 0.08226812 -0.13787922 -0.038045883
0.293124 -0.23690724 -0.0088045895 0.2505972 -0.0802778 -0.28794447 0.02481559 -0.23318139
-0.11494057 0.29095384 -0.026392967 0.12898931 -0.23187035 -0.29143155 0.12882853 0.059484214
0.040682465 -0.25400063 0.2795913 -0.2759655 0.088124454 0.17498392 0.065202355 -0.26484007
-0.25113273 0.2802581 -0.18224448 -0.2685221 -0.13820425 -0.19862655 0.27970544 -0.17139325
-0.008051395 0.04079607 -0.027578592 -0.15056387 0.24756 0.023171216 -0.10632075 -0.017718464
-0.30296025 -0.13302596 -0.21514261 0.16104037 -0.09042667 0.24346688 0.09244239 0.15733889
-0.052619636 0.025541574 -0.3143194 0.06814447 -0.20259431 0.23742417 -0.0049945116 0.24026468
0.08197078 -0.15945794 -0.0811235 -0.17523606 0.0061384737 0.025057197 0.16032514 -0.0673669
0.26432136 -0.120476276 0.039772093 0.054406226 0.23163679 -0.03371185 -0.028634518 0.18439391

no_gnn_proj.bias f4 [64]
00000000: 1058 ee3c 91e9 8abe eeff 553e c685 dfbd
00000010: 90e5 f53c 156d 10be 2835 86be 4809 b13d
00000020: 6555 16be abff 89be 8a6c edbd 8672 1cbe
00000030: 18c6 893d 18f7 093d 983e 673d e8d0 74be
00000040: ffb2 3bbe c01d e0bb 4eb9 6e3e 93ea 1ebe
00000050: 7e43 63be b427 8dbd 984e c73d 4018 b93b
00000060: bc53 45be 8a2c 39be 86dc 0a3e 3684 633e
00000070: d2f4 5a3e c21c 7c3e 12f7 e8bd 3048 e63d
00000080: 583f 223e 40dd 1e3e 2435 8dbe 6ec7 56be
00000090: 8a70 233e 6649 053e 00dd 37bb 808d 5ebe
000000a0: e833 9fbd 2a14 6f3e ec0d a0be 193f 88be
000000b0: 803c 43bb 4954 863e 408d a53c 3239 1d3e
000000c0: f0a6 78be 600e 21bc e8fa 093d de1c 58be
000000d0: e014 b8bc e104 9f3e e94c 8dbe 0679 623e
000000e0: fdb2 92be ba84 8dbe de35 543e 4d6d 943e
000000f0: 2a76 363e ea72 57be 08db 23be 5069 4ebd
0.029094726 -0.27131322 0.2089841 -0.10914187 0.03001669 -0.14104111 -0.2621243 0.086443484
-0.14681013 -0.26952872 -0.11592968 -0.15278062 0.067272365 0.033682913 0.05645618 -0.23907816
-0.1833 -0.006839484 0.23312876 -0.1551917 -0.22193715 -0.068923384 0.097317874 0.005648643
-0.19270223 -0.18083397 0.13560686 0.22218403 0.21382454 0.24620345 -0.1137525 0.112442374
0.15844476 0.15514088 -0.27579606 -0.20974514 0.15960899 0.1301628 -0.002805531 -0.21733665
-0.07773572 0.23347536 -0.31260622 -0.2661064 -0.00297907 0.2623618 0.020208955 0.1535385
-0.24282432 -0.009830087 0.03368655 -0.21104762 -0.022470891 0.3105841 -0.2759774 0.2211648
-0.28652182 -0.27640325 0.20723674 0.2898964 0.17818514 -0.2103993 -0.16001523 -0.050393403

post.0.weight f4 [128, 128]
00000000: e023 993d 1ee5 883d 34a6 a5bd 1d9a 0a3d
00000010: 08aa 8e3d 2c7e 5bbd 3995 41bd 1bcc b2bd
00000020: babf 213c 2205 4d3d f794 793c 2b57 8cbb
00000030: 7095 90bd 4e9c b3bd 087a e6bc eaf6 58bd
00000040: 03f3 9bbd e67e 1abd 5448 803d 1708 9abd
00000050: 7da7 b7bc a3cb 19bd bf31 29bd 9785 e2bc
00000060: e38d 96bd e8ce 183d 4587 103d 2e57 34bd
00000070: 9805 3ebc 139d 3bbd cf13 713d 438c 8cbd
00000080: f7f0 30bd f367 183a aa6b f8bc 4c66 86bd
00000090: 17bf 863d 5b0e 25bd 4d0a a8bd e180 a73d
000000a0: 7cdc 213d 2cd9 e43b 0726 60bd 61c7 f2bb
000000b0: 1027 9ebd 11da ab3d a66c 8f3a 6abb 8c3d
000000c0: 2972 88bd 5b30 02bd 0f9e 1d3c a9e7 0abd
000000d0: 0dc7 09bd 808b dabc 9501 b13d 0a78 74bd
000000e0: 027d 033d 891f 3bbd 32d9 a33b 7e3d c2bc
000000f0: 861a a83d 4839 a4bc c225 31bd afbd 31bc
00000100: 912e 64bd 6e85 b2bd 3a19 af3c 3db6 77bd
00000110: 7f56 123d 2ebd 5d3c f9df b0bd c7e0 953d
00000120: d41d 55bc f4a2 88bc 45ac a63c 9f8c febc
00000130: 5727 6fbd 02fe 183d dd46 9ebd ea96 26bd
00000140: 667c 88bd ba8b 493d c0b6 033d 1924 be3c
00000150: b0e7 fcbc f05b 41bd 616e 8abd 6c37 a8bc
00000160: 5e4c 92bd 5dbe aa3d 4ce2 9ebd f0c6 8a3c
00000170: 59bd 9b3d 6fe1 4abd c47c 99bd d439 a5bc
00000180: ebaf c9bc a33e 6b3c 0de8 9dbc d05a 25bd
00000190: f718 1e3d 4cf8 243c ac59 ce3b 972b 9bbd
000001a0: 105a 2a3d 2ee1 d43c 6414 503d 88cb 46bd
000001b0: 7780 8e3c 6391 2fbd a5fa 5c3c 0d9d 1d3d
000001c0: 7c65 b43b e66a 7cbd 9442 c0bc 971e c53b
000001d0: 453c 62bd b41f b0bd be69 873d a0e4 673c
000001e0: bfc4 443d cfec a3bb 3a40 38bd a2ef 3ebc
000001f0: d337 84bd 9899 8c3d 4a3a 92ba 5c6a 013d
00000200: 3bc1 9c3c 2d0c bb3d 6f79 0abd 4464 d53d
00000210: 2a62 8a3d c00e 8f3a e679 813d 9a2f b03d
00000220: 01c4 003b 2257 c03a 777c d03c ea8e 21bd
00000230: d28f 1c3c e7d9 c5bc ca5e aabd 8b3a 833d
00000240: a6d2 69bd 5add 96bb 2375 c63d 7df0 b33d
00000250: adbc a3bb 15b7 733d 81c1 e7bc ffe1 903d
00000260: 46ed 633c 1803 c13d 3019 073c 80b2 be3c
00000270: 6e78 32bc 27f0 863d c9bf 733d 13bf 063d
00000280: 9eef 6f3d 922d 953b 0a87 013d 4a7c e03d
00000290: 6a1e 363d 7586 753c 9577 463d 4fe1 63bd
000002a0: 2fa3 723d 69d4 613d fc6e 993c 7a5c 743d
000002b0: a968 bb3d cb7c e13d 9a0c a53d 9d0d 653d
000002c0: 22cd b33d 9c28 03bc 89f2 ab3c 7570 6dbd
000002d0: 02b6 563d b0a1 b23d a73d 553d 18b2 a43c
000002e0: e56a b73d a73e b3bd 7a8a fe3c 4208 16bc
000002f0: 5e56 793c 3dfd 903c d345 19bd 4295 ee3d
00000300: 3465 afbd 1308 973b 04b6 2ebc f655 853d
00000310: 0135 953c 44e4 bd3d 399e 8cbd 3ef6 973d
00000320: 19dc 89bc 862b b53c 5f70 d1bc 273f a13b
00000330: e64c 6dbd 8e57 6a3d 59a1 27bd de84 483d
00000340: 9ad6 38bd 68e4 533c ccbc 833c fd66 b23d
00000350: bf2f b43d c03b a93a 0658 603d cdc1 87bc
00000360: b9f3 dfbc 21b7 ac3d d2de 533d a968 9d3d
00000370: 3dd2 36bd 9b78 79bd adfd a63b b47e 31bd
00000380: d5e6 3cbd e3c8 9cbd c7c0 b13d 3fec d63d
00000390: 8c11 e2bd 0e95 333d 1c38 873d 1377 52bd
000003a0: 8318 b8bd 9cb5 b5bb 598c a33d 452a c83d
000003b0: c96c 17bd 0e72 c73d d6a0 42bc 5a00 fbbc
000003c0: 58d2 48bc b0e3 e33b 1500 853d 4d44 243d
000003d0: 4ced 9b3d bf35 9fbd 58bc 9dbd d107 b33c
000003e0: b773 b43d 0605 ea3c 5496 5e3d 0046 e13d
000003f0: 603d c73b f942 cc3d db48 673c 0c35 9dbc
0.07477546 0.06684326 -0.08088341 0.03383838 0.06966025 -0.053587124 -0.04726145 -0.08730336
0.009872371 0.050053723 0.01523327 -0.004282852 -0.07059753 -0.08770047 -0.02813436 -0.05296985
-0.0761471 -0.037718676 0.062637955 -0.07521074 -0.022418732 -0.03754772 -0.041307207 -0.027651591
-0.073512815 0.037306696 0.035285253 -0.044028454 -0.011598013 -0.045804095 0.05885678 -0.0686269
-0.043198552 0.00058138295 -0.030324776 -0.0656248 0.06579416 -0.040296894 -0.0820509 0.081788786
0.03951691 0.0069838967 -0.054723766 -0.0074090217 -0.07722294 0.08391202 0.0010942414 0.06871684
-0.06662399 -0.031784397 0.009620204 -0.033912335 -0.033637095 -0.026677847 0.0864288 -0.05968479
0.03210164 -0.04568437 0.005000257 -0.023710962 0.08208184 -0.020046845 -0.0432489 -0.010848447
-0.05570847 -0.08716856 0.021374334 -0.06047653 0.03572702 0.0135338735 -0.086364694 0.073182635
-0.0130076 -0.016679265 0.020345816 -0.031072913 -0.058387127 0.037351616 -0.0772836 -0.040671267
-0.06664352 0.04920552 0.032156706 0.023210572 -0.030872196 -0.04720682 -0.06759334 -0.02053424
-0.07143472 0.0833709 -0.077580065 0.016940564 0.076044746 -0.049531396 -0.074945 -0.020169176
-0.024620017 0.0143581955 -0.01927569 -0.04036981 0.038598027 0.010068964 0.006297311 -0.075766735
0.041589797 0.02598628 0.050800696 -0.048533946 0.017395241 -0.04286326 0.013487493 0.038479853
0.005505262 -0.061625384 -0.023469247 0.0060156095 -0.05523326 -0.08599797 0.066119656 0.01415363
0.048039194 -0.005002595 -0.044983126 -0.011653813 -0.0645596 0.06865233 -0.0011156288 0.031595573
0.019135108 0.09133182 -0.033807214 0.10419515 0.067570046 0.001091443 0.063220784 0.08602829
0.0019648077 0.0014674405 0.025449974 -0.039442934 0.009555774 -0.024151755 -0.08318861 0.064076506
-0.057085656 -0.004604024 0.09690311 0.08786104 -0.004996857 0.059500773 -0.028290512 0.07074355
0.013911551 0.09424418 0.008245751 0.023278475 -0.0108929705 0.06588774 0.059509072 0.032897066
0.058578126 0.0045525515 0.031622924 0.10961206 0.0444626 0.01498567 0.048453886 -0.055634793
0.059237655 0.05513421 0.01872968 0.059658505 0.09150822 0.110101305 0.08059044 0.055921186
0.0877936 -0.0080052875 0.020989673 -0.057968576 0.05241967 0.08722246 0.05206075 0.020104453
0.089559354 -0.08752184 0.03107189 -0.009157242 0.015218345 0.017698878 -0.037420105 0.116495624
-0.08564225 0.004609117 -0.010663513 0.065105364 0.01821375 0.09272054 -0.06866116 0.07420014
-0.016828584 0.02211548 -0.025566278 0.0049208584 -0.057934664 0.057212405 -0.040925357 0.048954837
-0.045126535 0.012932874 0.016081236 0.0871105 0.08798169 0.0012911484 0.054771446 -0.016571904
-0.027337896 0.084333666 0.05172617 0.07685978 -0.044634093 -0.060906034 0.0050961585 -0.043333724
-0.046118576 -0.076555036 0.086793475 0.10494279 -0.11038503 0.04384332 0.06602499 -0.05138309
-0.0898905 -0.005545331 0.079857536 0.09773687 -0.03696898 0.09738551 -0.011879167 -0.030639816
-0.012257181 0.0069546327 0.06494156 0.0401042 0.0761362 -0.07773923 -0.07701939 0.021854313
0.08811133 0.028566848 0.054342583 0.109996796 0.0060803145 0.099737115 0.014116491 -0.019190334

post.0.bias f4 [128]
00000000: a0c6 a33c c15b 66bc 7a5b 9f3d 69af 5c3d
00000010: eed5 0c3d 6236 893c 9bc1 933c 86af 8e3d
00000020: d1d9 12bd 46e4 0dbd c6b9 833c 2c49 2bbd
00000030: 1e3a a63c 916e 733d d327 913d fa98 13bc
00000040: f6f4 8a3c d0a5 e23c 713d 9c3d efc5 0f3d
00000050: 72b1 45bd cf26 333d d449 f6bc 90ef 05bd
00000060: 19b5 51bc 9330 8cbd e94b 843d 072d 83bd
00000070: aa01 3c3d 6e70 923d 16da bf3c 49f7 9a3d
00000080: c6d1 d4bb 8f5d 253c 8fe3 5e3d e3da ecbc
00000090: 3573 213d c225 1a3d 8e09 bebb 1fa6 ac3d
000000a0: ce7f 333d 27e2 983d 0395 22bd 0c07 4abd
000000b0: 1029 aabc de75 31bb 42d8 e33b adb3 8a3d
000000c0: 8d98 7fbd d47d a03d 61fe 0abd 4564 9f3d
000000d0: dfb5 773d 4b21 bcbc 6927 833c e825 c43d
000000e0: ccea 82bc d41b d5bb 8c38 7c3d 2b68 8b3d
000000f0: efde a7bd 1f98 843c 41c7 5d3d 79de f3ba
00000100: cf35 16bd 1bd2 84bd acd2 9fbc b0f1 9e3d
00000110: d043 8f3c 575c afbc d087 1abd b8c2 b7bd
00000120: 7800 26bd 87ed 9c3d 4555 263d 7878 b83c
00000130: 5feb a33d d7df e3bc 5ef3 f4bc cfbe 243d
00000140: 6f86 2bbd 8588 61bd 2b83 48bd 132d 753c
00000150: d43c 3bbd 5ba5 0abd be0d 373d 3a44 9f3d
00000160: 3112 98bc 7c39 ebbc 06c4 233d b508 e6bb
00000170: 906f 3a3d 429e 0dbd 384e 66bd 3dce 983d
00000180: 841a d03d ddc8 e23c c44b e93b 3677 603d
00000190: 6465 9c3d 07fc 1fbd 1be7 ae3d 841d 9d3d
000001a0: 66f3 6a3b 4ec5 f73c 1c37 7bbb e33f 473d
000001b0: d821 d03d 989b 373c 3899 10bd c439 cabc
000001c0: fb22 1cbd fbb5 933d a46e 98ba 30b4 3bbc
000001d0: 30d5 fdbc ba89 cdbc 8ea3 74bd 8307 9b3d
000001e0: 9586 53bd f3f3 fa3c d75f 5cbc 2a97 a3bc
000001f0: 5090 4cbd 2a3e 823d 08ce 233d 17aa 8f3d
0.019992173 -0.014059962 0.0778112 0.05387822 0.034383707 0.016749565 0.018036654 0.06967072
-0.035852257 -0.034641527 0.016079795 -0.04181783 0.020291384 0.059431616 0.07087674 -0.00900864
0.01696251 0.027666956 0.076289065 0.035100874 -0.04826493 0.043738183 -0.0300645 -0.032699168
-0.012799525 -0.06845202 0.06459791 -0.06405073 0.045900024 0.071503505 0.023419421 0.07566697
-0.0064947335 0.010093107 0.054416236 -0.028912967 0.03941651 0.037633665 -0.005799479 0.084301226
0.043823056 0.0746501 -0.03969289 -0.049323127 -0.020771533 -0.002707831 0.00695327 0.06772552
-0.062401343 0.078365 -0.033934 0.07782797 0.06047618 -0.022965094 0.016010003 0.095775425
-0.0159811 -0.0065035615 0.061577365 0.06806978 -0.08196818 0.016185818 0.0541451 -0.0018605731
-0.03667241 -0.06485387 -0.019509636 0.07760942 0.01748839 -0.021406336 -0.037727177 -0.089726865
-0.04052779 0.07662492 0.040608663 0.022518381 0.08003878 -0.027816696 -0.029901203 0.04022103
-0.041876253 -0.055061836 -0.048953217 0.01496436 -0.045712307 -0.0338491 0.04469084 0.07776685
-0.018563362 -0.028713934 0.039981864 -0.007020081 0.04551655 -0.034574755 -0.05622694 0.07461212
0.101613075 0.02768367 0.0071196277 0.05480119 0.07636526 -0.03905871 0.085401736 0.07671645
0.0035850643 0.03024545 -0.0038332408 0.04864491 0.10162705 0.01120653 -0.03530237 -0.024685748
-0.038119297 0.072124444 -0.0011629653 -0.011456534 -0.030985445 -0.025090087 -0.05972629 0.07569792
-0.05164202 0.030633902 -0.013450584 -0.019969542 -0.049942315 0.06359513 0.03999141 0.07014864

post.2.weight f4 [128, 128]
00000000: f846 b13d d973 303d 93f3 e9bc 4fb4 ea3d
00000010: 66f6 b83c 72f3 ce3d 7e22 9a3d eb6b 92bd
00000020: 0117 4ebd b84b b73d 662b c1bc 4d7b a53c
00000030: ca81 51bc 22a0 ab3d d575 00bd 5ff3 eb3c
00000040: 905d 31bc c2f4 83bd 34dc 4f3c e285 e0bc
00000050: 32a4 fdbc 1e37 90bd 64fa 893d 7046 5a3d
00000060: 7cfa b73b e699 c53d 658b e0bc bec2 0e3d
00000070: 0a25 c23d 2df5 30bd 7a91 7e3c 5209 8b3d
00000080: 3f34 163d cf96 193d 4ff7 983d 38e4 a0bd
00000090: 3c19 48bc 6818 af3c dfe2 173d b617 ec3c
000000a0: 8ad4 cc3c e4e4 c33c e8a8 6dbc 457b 943d
000000b0: cc8d 6fbd d152 c6bc 6be3 d13d c4a6 ffbc
000000c0: 89a5 56bc 6c52 703d 7519 f13c 2e16 423d
000000d0: 2a13 823d dea5 9a3d dee1 883d c8a3 763d
000000e0: e4f9 cd3d d72b 34bd 0921 b9bc 80fe c6bc
000000f0: e5b0 883d 4ec1 283d d6a5 513b 7b52 5b3d
00000100: a45b 96bc f681 ca3d 1814 b03c 9811 c43b
00000110: 5e4d 1c3d 32e5 f23b 9674 7e3d f6a3 d7bc
00000120: 5b14 993d 36c2 8ebd 1904 8e3d d4c7 e5bc
00000130: 706f 903d 7736 bd3d eb9e be3d c988 12bd
00000140: 400c 3d3d b6f3 b03c a5f9 0bbd 70fd b63c
00000150: 1c8c 56bd 07eb 6cbd 71b5 213d 4515 893d
00000160: 11e9 8b3d eecd 76bd f98e 6f3d 0c01 6a3d
00000170: 8e02 d43b 6e51 483c ed80 8b3d 1002 ad3c
00000180: 0cc1 1a3d 1af5 c9bc 082c f2bb 4bf1 c83b
00000190: 1e9e 64bd db62 863d a171 4d3d f388 263d
000001a0: 41ca 0e3c e95c 643d d75d 863d 45db 3dbc
000001b0: 825a 553a b0bd 8f3c 6918 61bd 4eb5 35bd
000001c0: f32d 173d 6478 0b3d c81e 5abd c3ef 8b3d
000001d0: 9b49 b23d e720 b7bc 836d 9d3d e5fb 9a3d
000001e0: 985b 9c3d c677 973d 3de4 04bd 5c4f 33bd
000001f0: 09e0 4dbd 826d 03bd a69d 913d 756d d2bc
00000200: ee2b 35bb 518e 3bbd 9a95 5d3d 3835 7a3d
00000210: 9ff4 003d 061d f0bb ac4b d039 0501 bf3d
00000220: 40bb b8bc feac d8bc f360 38bd 0e76 4f3d
00000230: 92d3 f83c 8c58 54bd 62ce 6a3d e01d 3bbd
00000240: 82ec 6dbd 73ff 273c d27b 43bd 9247 57bd
00000250: 4fa1 033d ed13 2b3d 95c4 243d 1985 44bd
00000260: 251e ad3d 1579 c7bc 88de a43d 1567 f1ba
00000270: b43f 87bd 81f9 953d 76f1 43bc 6122 8ebd
00000280: 57e3 01bd 38df 84bc 1a73 493d 1605 03bd
00000290: 342e 3abd 896a 8b3d 4dde 863c 1b08 273d
000002a0: 551a 613d 2d01 10bd 7554 3a3c 29c1 ac3d
000002b0: ed34 353d c61d 9abb d465 89bd e348 5abc
000002c0: 52fe 62bd 6042 f23c b8a6 4bbd e2c4 ad3d
000002d0: cacf 34bd c294 1f3c 7c10 493d d39d be3b
000002e0: 2a07 5f3d d99e 9d3d 04dd d1b9 5aac 363d
000002f0: 147c a4bd 1dc1 743d 7f92 443c fea0 7a3d
00000300: f517 4f3d 103d 75bd ae99 d83d f751 2abd
00000310: 826f 4b3d 4103 75bb 09ec 66bd 51d0 87bc
00000320: 18d2 debc 643d 16bd 34a5 68bd 4819 57bd
00000330: 9a73 f93a 1ec2 62bd 44a8 b43d ae8b 79bd
00000340: 21fc 933d 4297 ab3c 3b4b 633d 99c1 7a3d
00000350: b9e8 6b3d 8ea5 b63d 40e7 82bd ac98 823d
00000360: c0c7 c63d f877 5f3d 827a 5c3d e750 2abd
00000370: 1c3a 9b3d 47a9 3bbd adcf 603d 6d17 873d
00000380: 1684 b93c 0c1f a43d 7688 95bd 297c 283d
00000390: 42b4 d5bb 7668 0bbd 7dd0 1abc 9ec6 16bd
000003a0: 7bcd 8a3d 745a bc3d 6211 8b3d b236 b3bc
000003b0: 6b47 b43d d120 853d d454 143d df0f 38bc
000003c0: 3f59 093d c240 c2bc 20d5 743d ec4f 8fbc
000003d0: 225c 5e3d f569 b83d 3fd3 f83b 37df 3fbc
000003e0: ad44 233d 4a5c 0ebd f8c7 b13d a432 163d
000003f0: bf12 743c 08b7 903c 1f69 1f3d 88b1 973d
0.08656114 0.04307923 -0.028558528 0.114601724 0.02257843 0.10105027 0.0752611 -0.0714949
-0.050314907 0.08949989 -0.023580264 0.020200396 -0.012787292 0.08380152 -0.031362373 0.028802572
-0.01082553 -0.06443168 0.012686778 -0.02740759 -0.030962083 -0.07041763 0.06737211 0.05328983
0.005614577 0.096484944 -0.027410218 0.03485369 0.09479721 -0.043202568 0.015537614 0.06788887
0.03667092 0.037497338 0.07469045 -0.07856029 -0.012213048 0.021373942 0.037081596 0.0288199
0.02500369 0.023912854 -0.014505602 0.07250074 -0.058484837 -0.024209412 0.10248455 -0.03120745
-0.01310099 0.058672354 0.029431084 0.047384433 0.063513115 0.07551168 0.06683706 0.060214788
0.100574285 -0.04398712 -0.02259876 -0.024291277 0.06674365 0.041199975 0.0031989715 0.053545456
-0.018354245 0.09888069 0.021493956 0.0059835427 0.03815972 0.007412576 0.062122904 -0.0263233
0.074745856 -0.069706365 0.06934375 -0.028049387 0.07052505 0.09238904 0.09307655 -0.03577498
0.04615426 0.021600585 -0.034173626 0.022337645 -0.052379712 -0.057841327 0.039479677 0.0669351
0.06831563 -0.060254984 0.05848596 0.057129905 0.006470031 0.012226446 0.068117 0.021119148
0.03778176 -0.024653006 -0.007390503 0.00613228 -0.055814855 0.06561824 0.050157193 0.04065795
0.008715213 0.05575267 0.06560867 -0.011587922 0.0008138792 0.017546505 -0.05495492 -0.04436236
0.036909055 0.03405036 -0.05325201 0.0683284 0.087054454 -0.022354556 0.07686903 0.07567576
0.076346576 0.07395892 -0.032444227 -0.043776855 -0.050262485 -0.032086857 0.07110147 -0.025686959
-0.0027644592 -0.04579002 0.05409775 0.06108591 0.03148329 -0.0073276786 0.00039729232 0.09326366
-0.022550225 -0.026449677 -0.045014333 0.050649695 0.030374322 -0.051842257 0.05732573 -0.045682788
-0.05808688 0.010253775 -0.047725506 -0.05255849 0.032136258 0.04176705 0.040226538 -0.047978494
0.08453015 -0.024349729 0.08050257 -0.0018417562 -0.06603947 0.0732298 -0.011959424 -0.06940151
-0.03171095 -0.01621972 0.049182035 -0.031987272 -0.04545422 0.06807429 0.016463423 0.040779214
0.054956753 -0.03515737 0.011372675 0.0843528 0.044239927 -0.0047032563 -0.06708875 -0.013323042
-0.05541832 0.029572666 -0.049719542 0.08484818 -0.044143476 0.0097400565 0.049087986 0.005817154
0.05445019 0.076963134 -0.00040028256 0.04459796 -0.080314785 0.05975448 0.011997818 0.06118869
0.050559957 -0.059872687 0.10576187 -0.041582074 0.04966689 -0.0037385973 -0.056377444 -0.016578825
-0.02719979 -0.03667964 -0.056798175 -0.052514344 0.0019031644 -0.055360906 0.088211566 -0.060924225
0.07225824 0.020946149 0.055491667 0.061219785 0.05759499 0.08918296 -0.06391764 0.06376776
0.09706068 0.05455777 0.05382777 -0.04158106 0.07579443 -0.045815732 0.054885555 0.06596265
0.022645991 0.08013734 -0.073014185 0.041134033 -0.0065217325 -0.03403517 -0.009449122 -0.03681051
0.067774735 0.0919694 0.06790425 -0.021876667 0.088026844 0.065004 0.03621371 -0.011234253
0.033532377 -0.02371252 0.059773564 -0.017494164 0.054287083 0.09004585 0.007593542 -0.011710933
0.039860416 -0.034755982 0.08680719 0.03666939 0.014897048 0.017665401 0.03891861 0.07406908

post.2.bias f4 [128]
00000000: 930e 7ebd 58cd b93d d080 863d 1910 cfba
00000010: 7d56 68bd 7e4b 813d 2b0b ea3c 3421 e5ba
00000020: 11bc b9bd 5992 063d 052c 293d 23e1 86bc
00000030: e302 b3bd f86c 923d 2886 10bd d0eb 2bbd
00000040: 404a a73d b6ab 753d 3144 643d aaf0 65bd
00000050: 3f11 72bd 3a53 123d 11a6 4ebc 4099 083d
00000060: 939d c43c 42a9 17bc ad57 18bd 5a96 683d
00000070: ce82 98bd a05b 4e3b 19c0 be3d 3e07 a13c
00000080: 162a 74bd c07d ecba cfd2 433d 13cd 8cbd
00000090: dcc8 67bd 636a 1a3c cf89 3bbd 701d 4dbd
000000a0: 99f4 ad3c 8b4c 703d 7f5e 2dbd 49d3 743c
000000b0: 234a 84bd 65ec 423d 5514 14bb 8614 243d
000000c0: 06cf 3b3d f0c0 ccbc 820f c33d 0aba 843a
000000d0: 0d87 cdbc 3d59 9bbb c922 7c3d e647 64bd
000000e0: fc58 afbd c0dc d23d c85e 983b 4c04 84bd
000000f0: 20ca 123d b30d 623d b80b 03bd 4391 3bbd
00000100: 1109 afbc bb0a 5c3c e040 a7bb 4c6b 1b3d
00000110: 7503 653d e428 19bc f4b4 923d 42ac 67bd
00000120: f6b7 76bd c078 943d d2bf 38bd 372b 653d
00000130: d0f8 523d c747 c63d dbdb 90bd 158d 6d3d
00000140: 3218 a6bb 5b32 9b3b 6fad 8cbc 999e 2e3d
00000150: 6515 dd3c 462f 38bd 4f07 a73c daaa 223c
00000160: 58f4 b63d 299e ae3d 38be 02bd f78c 643d
00000170: 9762 873d 8c3c b7bc d224 d03d 25c6 503d
00000180: 3715 ba3d 1154 11bb ae4b dd3c c0c8 7d3c
00000190: 6ecb 193d f744 83ba cb6b 923d b4b4 9b3c
000001a0: 83a4 363c 5bf3 97bc da08 353d 28e0 883d
000001b0: 8665 bf3d b533 77bd 5caf 8bbd a641 993d
000001c0: 9fd7 7c3d 3b54 19bd b04d 923d 4a37 663d
000001d0: 9173 f7bc 00e8 a4b9 674e 913d f834 973d
000001e0: 976e 3bbd e028 ad3b aae7 adbc ea96 8cbd
000001f0: a9a1 373d 507f 6d3b 45c7 043d 4a20 7b3d
-0.062025618 0.09072369 0.06567538 -0.0015797644 -0.056723107 0.06313227 0.028569778 -0.0017481209
-0.09069074 0.03285441 0.041301746 -0.016464775 -0.08740785 0.071496904 -0.03528419 -0.041972935
0.08168459 0.05997821 0.055729095 -0.05613772 -0.05909848 0.035723902 -0.0126128355 0.033349276
0.024000918 -0.009256663 -0.03719299 0.05678401 -0.07446824 0.0031487718 0.093139835 0.019656774
-0.05961045 -0.0018042848 0.047808465 -0.06875052 -0.05658804 0.009424779 -0.04578572 -0.050076902
0.021234797 0.058666747 -0.042326447 0.014942952 -0.06459453 0.047588725 -0.0022595127 0.040058635
0.04585173 -0.024994344 0.09524442 0.0010126245 -0.025088811 -0.0047408626 0.06155661 -0.05573263
-0.08561894 0.10296011 0.0046499707 -0.06446132 0.035837293 0.055188846 -0.031993598 -0.04579283
-0.021366628 0.013430293 -0.0051041692 0.037944123 0.0559115 -0.009348128 0.0716342 -0.056560762
-0.060234033 0.07249594 -0.04510481 0.055949416 0.051506817 0.09681659 -0.07073184 0.057995874
-0.0050688023 0.0047362274 -0.017172543 0.04263172 0.02698774 -0.04496696 0.020389227 0.0099284295
0.089333236 0.085262604 -0.031919688 0.055798497 0.066106014 -0.022367738 0.10163273 0.050970215
0.09086078 -0.0022175352 0.027013626 0.015489757 0.03754752 -0.001001506 0.07149466 0.019007064
0.011147621 -0.018548658 0.044197895 0.066833794 0.09345536 -0.060352046 -0.068205565 0.074832246
0.06172907 -0.037433844 0.07143724 0.05620507 -0.030206474 -0.0003145337 0.07095032 0.0738315
-0.045759764 0.0052844137 -0.02122863 -0.06864722 0.044831906 0.0036239214 0.0324166 0.06131009

lstm.weight_ih_l0 f4 [512, 128]
00000000: fa09 5b3d a676 9e3c 43dc be3d f4ee 263d
00000010: 35de 813d 5b66 fdbc 24b4 49bd 8f26 64bd
00000020: d015 163d 11bd 83bd 2a09 983d 0d3e 9c3d
00000030: 4e78 a33d 153e b7bb 2bcc 0e3c dbbc 91bb
00000040: d961 02bd 6890 2a3d 9317 75bd 822a d43d
00000050: 2445 b03c fee3 6bbd 9e16 67bd 3172 5a3c
00000060: 7047 bb3d 3ce1 d03d cfbb 033c ac01 8bbc
00000070: 400f 8abc 17db 53bd cd9f b43d eca0 1e3d
00000080: dc7e a03c 0249 583d 7712 2d3c 2d38 0abd
00000090: b3a3 8cbd 62eb 85bd c881 3ebc eaae 533d
000000a0: e890 5cbc 2d13 9ebd 8771 22bd a4d8 3e3c
000000b0: 26a2 333c 4b91 ac3d 445f 043d 9976 f63c
000000c0: 5b86 8c3d 0a0c 93bd 3064 813c cd9d 573d
000000d0: 2ad6 19bd 27f6 f4bc c06a 133c 6ed9 a93d
000000e0: eee9 b23c 1d43 863d bdcc 663b cc74 b43d
000000f0: 59a0 99bd 3530 29bd 8433 543c c4ad 3c3d
00000100: 8b89 97bc 0c7f cb3d 853d 1ebd b793 9f3d
00000110: 8235 a63d 7157 453d 2f52 90bc 30b4 94bd
00000120: 7bd6 a3bd 3e67 113d 3e7f 92bd 3bf6 f5bb
00000130: 41f8 c93d 7e24 4d3d c86e 40bd 55da 9abc
00000140: 5333 a3bd 78be eb3c 7481 f63c 6e8d 3d3d
00000150: 1919 db3c 3af0 d43d 07b1 5c3d 9d33 81bc
00000160: a5ea 973d 1fbe 2d3d 1811 1b3d 101c 2cbd
00000170: bbc4 ef3c d6a4 03bd 1df5 f6bb 0270 a23d
00000180: 4e01 cb3c eac7 a03d 880c 82bd 9d87 50bc
00000190: b5c3 4fbd f60f 993d 19d6 033c 6698 53bd
000001a0: 51db 9b3d c936 0fbd f688 183d 86b0 1ebd
000001b0: ba65 ef3c a3c3 343d 85ef db3d 890b 333c
000001c0: 8b27 b33d a66d 93bd 773a a13d 4e19 753d
000001d0: 9e28 9f3d 001c 50bc c9d4 8b3c dab4 63bd
000001e0: 2014 6f3d c8d3 fd3c 0840 ce3d c126 513c
000001f0: 8972 373d e579 f63c b3d4 a13d 56ba d6bc
00000200: 131b 453c 5b56 c0bc bda6 7abc 5d25 923d
00000210: f7d0 d43d 05c2 12bd 4125 8d3d 63f4 5ebc
00000220: 308b 74ba 03de 913d 7b34 763d 54a2 993d
00000230: a116 a0bd 19b5 8d3d 710d 9c3d 5897 993d
00000240: 9b9d 9cbc 73be cb3b da00 c43c b828 203c
00000250: 50e5 ccbc 6f34 8abb 1aea 72bd a237 c53d
00000260: 9d6b 253c c3b7 3b3c 2b47 86bb 940a f9bc
00000270: c835 8abd 998d 0ebd b90d 08bd f84f a8bc
00000280: e8ec c4bc 0e51 54bd e356 bd3d 8287 d33d
00000290: 1e0a 0bbb 5a13 f83c f202 b33c 13a7 c93d
000002a0: 2e7c 91bc 88f0 1dbd 38ba dbbc ea79 803d
000002b0: f073 a9bd b26b 213d 550b 5abd 7e78 b53a
000002c0: ea05 883b 6ecc 383d 06df d63d 3ecc 1c3d
000002d0: f83a b8bc 5596 823d 880f 08bd f0ed 9b3d
000002e0: a36a 203d a23f c23d cc13 26ba 55c4 89bc
000002f0: 31e1 3abd ca9c 84bd 22f9 823c 8404 6a3d
00000300: 44df b63d 56e4 b43d f141 9fbd 1654 633d
00000310: c87f e4bc a3b1 333c 1736 fc3b 74c3 96bc
00000320: b67c 173d eb2b 953d 86c0 edbc 046d 083c
00000330: fb3d 9ebb 61f1 acbc cb31 32bd 5716 a03d
00000340: 009f e93c c5f5 d33d e480 9f3d 4514 31bc
00000350: 09fd 8abd 076a 73bd 53e0 91bc 0338 92bd
00000360: 2352 933d b358 403c ac1c 8bbd aa27 143d
00000370: 352a e3bc 0306 c33b 4cd6 e83c 4791 1bbd
00000380: 12a0 7ebc 63e4 80bc 8125 62bc 7dfa a23b
00000390: 6827 6b3d 314a 023d a043 883b a497 dbbc
000003a0: de6f ba3c 1bad dc3d 519b 8a3d ad84 88bd
000003b0: 437c ab3d e885 253b 24d1 72bd ac6e e63c
000003c0: b10e bf3a 62e3 f13b 3021 3dbd 2967 03bd
000003d0: a208 9e3d b2c4 3f3d 29c4 48bd 8f6d 263d
000003e0: 3043 4a3d 2391 b5bd b15e 89bb c331 543d
000003f0: c7b1 813d 86ca d03d c384 9c3c 6797 433d
0.05347631 0.019343685 0.09319355 0.040755227 0.06341211 -0.030932596 -0.04924406 -0.055700835
0.036641896 -0.06432546 0.07423623 0.07629023 0.07981931 -0.0055921176 0.00871567 -0.004447562
-0.031831596 0.041641623 -0.059836935 0.1035967 0.021517344 -0.057590477 -0.056418054 0.013332889
0.09144485 0.1019921 0.0080403825 -0.01696857 -0.016852975 -0.051722612 0.08819542 0.038727686
0.019591741 0.052804 0.010563484 -0.03374498 -0.06867161 -0.06539036 -0.011627622 0.051680483
-0.013462283 -0.07718501 -0.03965905 0.011648331 0.010963952 0.0842615 0.032317415 0.030085849
0.06861564 -0.07180031 0.015794843 0.052640725 -0.03755776 -0.02990253 0.008997619 0.082934245
0.021840062 0.065557696 0.0035217248 0.0881134 -0.07501287 -0.04130574 0.012951735 0.046064153
-0.018498203 0.09936342 -0.03863289 0.07791846 0.081156746 0.048179094 -0.017617313 -0.072609305
-0.07999893 0.03549885 -0.07153176 -0.0075061596 0.09861804 0.05008363 -0.04698065 -0.018902937
-0.07968774 0.028777346 0.030091025 0.046277456 0.026745366 0.10397382 0.053879764 -0.015771681
0.07417802 0.04241764 0.0378581 -0.04201895 0.029268613 -0.03213962 -0.007536544 0.0793152
0.024780896 0.078506306 -0.063500464 -0.012727645 -0.05072375 0.074737474 0.00804665 -0.05165901
0.07610191 -0.034964357 0.03723999 -0.038742565 0.029223312 0.044131886 0.10739044 0.010928043
0.087477766 -0.07198648 0.078724794 0.059838586 0.07771419 -0.012701988 0.017069237 -0.055592395
0.058368802 0.030984774 0.10070807 0.012765587 0.044786964 0.03008742 0.07901897 -0.026211899
0.012030381 -0.023478677 -0.015298543 0.07136033 0.103914194 -0.035829563 0.06891871 -0.013608071
-0.0009328602 0.071224235 0.060108643 0.07501665 -0.07816816 0.06919307 0.07619751 0.0749957
-0.01911812 0.0062177717 0.023926187 0.009775333 -0.025011688 -0.0042176764 -0.059305288 0.09629752
0.010096458 0.011457386 -0.0040978394 -0.030400552 -0.06748539 -0.034803007 -0.033216212 -0.020545945
-0.024038747 -0.051835112 0.09245088 0.103285804 -0.0021215747 0.030282665 0.02185199 0.0984632
-0.017759409 -0.038559467 -0.026822194 0.06273253 -0.082740664 0.039409347 -0.053233463 0.0013845114
0.0041510956 0.045116834 0.10491757 0.038280718 -0.022489056 0.0637633 -0.033217937 0.07613742
0.039164197 0.09484793 -0.00063353474 -0.016817251 -0.045624916 -0.06475218 0.015987936 0.057133213
0.08929303 0.08832614 -0.07776249 0.055500112 -0.027892962 0.010967645 0.0076968777 -0.018403746
0.036984168 0.07283767 -0.029022466 0.008326773 -0.004829166 -0.021111192 -0.043504518 0.07816761
0.0285182 0.10349611 0.07788256 -0.010808055 -0.06786544 -0.059427287 -0.017807161 -0.0713959
0.07193401 0.011739898 -0.06792578 0.03617064 -0.027730087 0.0059516444 0.028422497 -0.037980344
-0.015541093 -0.015733903 -0.013802887 0.004973708 0.057410628 0.031809036 0.004158452 -0.026805706
0.02275842 0.10775205 0.067679055 -0.06665931 0.083733104 0.0025256816 -0.059281483 0.028128944
0.0014576522 0.0073818425 -0.04617423 -0.032080803 0.0771649 0.046818443 -0.049015198 0.040631827
0.04938048 -0.08865573 -0.0041921963 0.05180527 0.063327365 0.10194878 0.019106274 0.04775181
