RL/ablation_No_GNN_20260129_012400/best.pt (torch, 783126 bytes, 31 tensors)

gcn1.lin.weight f4 [64, 10]
00000000: 925f b9bd 9bd5 863e 8041 4e3d 833b 9fbe
00000010: 50ac b53d b47b 9e3d 8681 6d3e aa8b 483e
00000020: 02fe cebd 008e 2fbd 459c 9cbe 80a6 2ebc
00000030: e4e3 8fbd e4d6 5abe ba57 20be 2192 953e
00000040: 98e8 083d 53f8 85be 113d 943e 2f44 42be
00000050: d2a9 483e 10aa f73c c03d 74bd 461c 8cbe
00000060: 1abf 1ebe 2282 99be 3e72 503e df9a 823e
00000070: e82c bf3d 033e 58be badd 793e a89b 9abd
00000080: 8ec1 dbbd f66a 393e 6669 4a3e 8bc0 8c3e
00000090: 4026 023c 4860 31be 5ac0 703e 0f49 893e
000000a0: 80ca 72be 002f 90bc 8623 dcbd 4a6b 113e
000000b0: 0062 d8bb b8a2 75bd 0fdb 943e 80dd 09bd
000000c0: 6e49 8fbd 78fb 823d c096 40bd d049 9ebe
000000d0: 6ada 7d3e 2c78 893d da17 98be d24c 123e
000000e0: 756d 1ebe d0e4 103e 90cb 90bd e43a 80be
000000f0: e76c 8f3e 124a 7d3e a615 d6bd a072 8c3d
00000100: 6b06 993e d32b 8fbe dd02 83be f6e7 e3bd
00000110: b7c6 90be 0264 1c3e 1822 73bd 1883 013d
00000120: b4f7 1d3e 8e71 80be 3830 fa3d f2e4 233e
00000130: 029c 69be f3bb 973e 384d 39bd e6af dabd
00000140: cc3b 043e 2030 f63c c908 63be 60ca 883d
00000150: f055 b83c d3f5 993e d58c 8bbe 30b1 c43d
00000160: 7211 b7bd 3a15 423e 1aa3 24be 7e0f 66be
00000170: 9834 1f3e 405e 79bd fc50 973d d024 e3bd
00000180: 5f7b 993e 54b7 833d e0ed 36bc 85ce 973e
00000190: 1529 953e ceb1 4b3e abf3 893e 20aa ccbc
000001a0: 38ab dc3d e84c 003d eefe 33be 67bb 903e
000001b0: 80a3 1abd 2e80 3d3e ddfe 1ebe 3cf3 9e3d
000001c0: c29f 3f3e 407f a2bd 55f1 8f3e 625e 49be
000001d0: 4b8a 843e 21e8 71be a47d 46be 1828 b73d
000001e0: 6175 823e a645 573e e609 2fbe 1d9a 58be
000001f0: 7496 e03d ac91 93be 0a9f 6ebe 048a 28be
00000200: 8807 8abe a0b7 32be 3be6 8d3e b8de e33d
00000210: 6806 82bd 385b 003d 9406 813d e26d 623e
00000220: 76b7 1e3e c607 6e3e 0129 823e 743f 333e
00000230: 8123 a03e 7e69 143e 606e 3bbe 002a 59bc
00000240: a2f0 203e 931b 30be cedd 63be 1ffa 1bbe
00000250: 0df0 84be 208d 0dbc b1f8 8a3e f8a5 b83d
00000260: bbcf 9b3e 00b3 323d 006a 81bd eaf5 6bbe
00000270: 5feb 873e 2df9 9d3e d815 5dbe d071 b8bc
00000280: 82e0 86be 8d29 8f3e 999f 8c3e c134 9a3e
00000290: da4f 3e3e 4871 11be 407f 753c ba96 433e
000002a0: 981d 2f3e 10f1 8ebc f8f3 293d 9782 54be
000002b0: 0776 15be cc1c bd3d d404 62be 1673 2fbe
000002c0: 1aee cbbd 59d3 9e3e e042 edbc fa5b d4bd
000002d0: 74f8 ea3d 52e1 313e f2c9 643e 20e1 0a3c
000002e0: 2d1c 893e 1eee 9dbd e38b a13e 806e bd3b
000002f0: ccdd 7fbe 5c35 e1bd 6503 3fbe 88d2 1dbd
00000300: 5a04 38be 9cce c13d 3a61 02be 28ad 97be
00000310: fc48 3dbe ef38 9abe b083 873d 0f22 1abe
00000320: e080 ef3d 11fd 943e da69 86be d885 45bd
00000330: 236c 15be 5619 783e f643 353e 1684 783e
00000340: 4173 923e edac 49be ec52 d13d 544d d6bd
00000350: dd31 893e f25a 233e 1993 01be e0fa 66bd
00000360: aa63 78be 4875 0e3d 9fef 93be 37d7 903e
00000370: eaea 243e 2020 9ebe 7d3c 8e3e a587 9cbe
00000380: c0bd 2a3d 04df 5cbe 0298 39be 063c 6ebe
00000390: 3f60 8cbe 8079 6c3c 9019 903c 547f 9fbd
000003a0: 7ab8 713e 0569 55be 0619 ebbd b095 84bc
000003b0: 6a1a 043e 94b6 c1bd 20f8 03be 7073 84bc
000003c0: 20af 3bbd 7275 103e 0cd6 ff3d b005 023d
000003d0: 6c00 51be 0c0f 243e 746a e83d 51e3 1fbe
000003e0: 98be 1dbd 92ab 753e e0e9 08be 8ed8 7bbe
000003f0: 5466 97be d07c 053d d68b 93be 4db9 95be
-0.09051432 0.26334843 0.050355434 -0.3110009 0.088707566 0.07738438 0.2319394 0.19584528
-0.10107042 -0.04286003 -0.30587974 -0.010659814 -0.070258886 -0.21371037 -0.15658465 0.2921305
0.033424944 -0.2616602 0.2895284 -0.18971322 0.19596031 0.03023246 -0.059629202 -0.2736532
-0.15502587 -0.29982096 0.2035608 0.25508782 0.09334737 -0.21117406 0.24400988 -0.0754922
-0.10730277 0.18107209 0.19766769 0.2749065 0.00794369 -0.17321885 0.23510876 0.26813552
-0.2371006 -0.017600536 -0.10748963 0.14201084 -0.0066034794 -0.059969634 0.29073378 -0.033658504
-0.069964275 0.0639562 -0.047018766 -0.3091569 0.2479035 0.06712374 -0.29705697 0.14287117
-0.15471442 0.14149785 -0.070700765 -0.2504493 0.28012773 0.24735287 -0.10453348 0.068578005
0.2988771 -0.27963123 -0.25588122 -0.111282274 -0.28276607 0.15272525 -0.059358686 0.03161916
0.15426522 -0.25086635 0.12216228 0.16005304 -0.22813419 0.2963558 -0.045239657 -0.10678081
0.12913436 0.030052245 -0.2217132 0.06679225 0.022501916 0.30070361 -0.27255884 0.09604108
-0.08938874 0.1895341 -0.16077843 -0.22466847 0.15547407 -0.0608809 0.073884934 -0.11091006
0.29976937 0.064314514 -0.011165112 0.2964975 0.29132906 0.19892046 0.26943716 -0.024983466
0.10774845 0.031323344 -0.17577717 0.28267977 -0.037753582 0.18505928 -0.1552691 0.07761237
0.18713287 -0.07934427 0.2811381 -0.1966491 0.2588676 -0.23623706 -0.19383866 0.08943194
0.25480178 0.21022663 -0.1709362 -0.2115254 0.10966197 -0.28822076 -0.23302856 -0.16458899
-0.2695887 -0.1745286 0.27714714 0.111264646 -0.06348878 0.031336993 0.06300083 0.2211223
0.15499672 0.23245153 0.25421908 0.17504674 0.31277087 0.14493367 -0.18303823 -0.0132546425
0.15716794 -0.17198019 -0.2225258 -0.15232132 -0.25964394 -0.008639604 0.2714286 0.09016031
0.30431923 0.04362774 -0.06319046 -0.23043028 0.2654676 0.3085417 -0.21590364 -0.022515208
-0.2634316 0.27961388 0.27465513 0.30118373 0.18585148 -0.1420337 0.014983952 0.19100466
0.17101133 -0.017448932 0.041492432 -0.20752941 -0.14595805 0.09234008 -0.22072154 -0.17133746
-0.09957524 0.3102062 -0.028962553 -0.10369106 0.1147317 0.17371109 0.22342661 0.008476526
0.2677931 -0.07711433 0.31552038 0.005780995 -0.24986953 -0.109965056 -0.18653639 -0.038530856
-0.1797041 0.09463236 -0.12732401 -0.29624295 -0.18484873 -0.30121562 0.06616914 -0.15052055
0.11694503 0.29099324 -0.26252633 -0.048223346 -0.14592032 0.24228415 0.17701706 0.24269137
0.28603557 -0.19694872 0.10220894 -0.10463968 0.26795855 0.15952662 -0.1265377 -0.056391597
-0.24256769 0.034779817 -0.28893754 0.28289196 0.16105238 -0.30883884 0.27780524 -0.3057224
0.041684866 -0.21569449 -0.18124393 -0.23265085 -0.2741718 0.014433265 0.017590314 -0.07787958
0.23605528 -0.20840843 -0.11479382 -0.016184658 0.12900701 -0.09458652 -0.12887621 -0.016168326
-0.04582131 0.14107302 0.12491998 0.031743705 -0.20410317 0.16021365 0.11348429 -0.15614058
-0.038511842 0.2399123 -0.13370466 -0.24594328 -0.29570258 0.032589734 -0.28817624 -0.29242936

gcn1.lin.bias f4 [64]
00000000: e635 393e 580e 2ebd 1441 86bd 0cf6 a5bd
00000010: 6072 6dbd b0f5 2dbd 1a69 6b3e 002c 9c39
00000020: 1000 ba3c 8a8a 753e 688f 6fbe d02a 1a3e
00000030: c0e3 a73c c025 c83d 466e 1a3e b05b 05bd
00000040: 4079 133e d85d 20be a393 3cbe cc60 75be
00000050: 30b4 8abe b02e 2bbd 988a 1c3e 601b fc3d
00000060: d5f2 3ebe 36ca 7dbe aa15 a0be 8f1b a03e
00000070: c0bf a4bc 00d1 623d 805d 90bb 90a0 153e
00000080: 28d5 943d e021 163c 1a7c 263e e83f 1b3d
00000090: 1c09 943d 08df 16bd a017 c13d 3048 813d
000000a0: f6d5 143e ac25 233e 5062 21bd 5c59 59be
000000b0: 6066 f1bd 37ed 94be 6b78 933e 52f3 473e
000000c0: b03e 2a3e 9a23 143e f737 853e 3a8a 7ebe
000000d0: 5bd5 8b3e b890 29bd 0289 7b3e bac8 92be
000000e0: 3044 ea3d 4b93 2ebe b899 453d 3d62 98be
000000f0: 808b a23b 00b4 71ba c366 993e 3ee5 57be
0.18086967 -0.042494148 -0.065553814 -0.0810357 -0.057970405 -0.042470634 0.22989312 0.0002978742
0.022705108 0.2397863 -0.23394549 0.15055394 0.020494342 0.09772825 0.15081128 -0.032558143
0.14401722 -0.15660799 -0.18415694 -0.23962706 -0.27090597 -0.04179257 0.15287244 0.12309909
-0.1864732 -0.24784169 -0.31266528 0.31271026 -0.020110965 0.0553751 -0.0044056773 0.14612031
0.07267219 0.00916335 0.16258278 0.037902743 0.072283 -0.036833793 0.09428334 0.06312597
0.14534745 0.1593234 -0.0394004 -0.21225494 -0.117871046 -0.2908723 0.2880281 0.19526413
0.16625476 0.14466706 0.2601926 -0.24857417 0.27311215 -0.04139778 0.24563983 -0.28668767
0.11438787 -0.17048375 0.0482423 -0.2976245 0.0049604774 -0.00092202425 0.29961213 -0.21083543

gcn2.lin.weight f4 [64, 64]
00000000: 0c56 0fbd e03a f7bd 06cc 93bd f419 be3d
00000010: 30d1 8a3d 20db b43c 7a56 b6bd 2066 e1bd
00000020: 9c6b 363d 9e62 debd 9c0a f3bd 84bc 5dbd
00000030: 807e fdbd b0ea 8ebc 686f b83c 42a3 ca3d
00000040: c422 e03d c0e5 11bd 8c9f 9ebd 808f 23bd
00000050: 5ed8 b33d 966c f53d f8ef 843d 262b ea3d
00000060: 60eb 4bbd a015 313c be8d b63d a095 c63c
00000070: a07e c8bb 3843 f93d d0a8 453d 30d1 eb3c
00000080: 0064 89bc 00e9 faba 303a 5dbc 4018 1b3c
00000090: c060 86bc 7812 da3d 640a b4bd f00a f23c
000000a0: 3cd0 8a3d e0c6 7ebd ba04 c03d a0a3 973d
000000b0: 50f2 833d dc41 90bd c883 f9bd ac7b 40bd
000000c0: f4ba fcbd d2ea 823d fc88 fb3d 30fb 3dbd
000000d0: 0898 b0bc c025 373d f889 1a3d 582a 343d
000000e0: c829 e5bc a877 f1bc c222 a3bd a895 58bd
000000f0: ac6e 673d 806d 4c3b c49a 86bd 3099 bfbd
00000100: 4038 713b 588b 1fbd 4ebe e5bd cc78 6fbd
00000110: 8031 873b 3610 803d c836 89bc 487f f5bd
00000120: 4026 0b3d a0c0 a1bd 2475 593d de81 f13d
00000130: 529a c93d f8e4 863c baa6 abbd 4834 b4bd
00000140: d865 d6bd 0429 543d 00e4 7339 b0c8 4cbc
00000150: b47a 473d 62bf de3d 6acb ae3d 9811 173d
00000160: 8433 22bd 481b e6bc 88e8 b5bd 20fa dfbb
00000170: fe94 87bd 78a9 cf3c 0042 1e3a 20ea 98bc
00000180: a4df 5d3d 6aee 82bd a096 cdbb 3e68 b6bd
00000190: b295 a4bd 9a5a 8dbd ee65 9fbd 745c f9bd
000001a0: 1c91 03bd 8290 87bd 006a 85bd eaf1 f8bd
000001b0: 70fc 1bbc e417 da3d 18b6 a5bc 66ab b1bd
000001c0: f071 65bd 944d 943d 2490 84bd 908b 2cbd
000001d0: a65d dbbd c435 dd3d d869 c3bc d42b 8e3d
000001e0: 80b4 50bc 90f7 a33d 822e cd3d 1642 93bd
000001f0: 3089 d83d f89c 88bd 746d bc3d c0cb fa3c
00000200: 5c5d dc3d e82f 113d 381b d53c c275 fd3d
00000210: 48c9 4c3d e0f1 453d fa92 9bbd b804 483d
00000220: d0ca a7bd b090 83bd c083 0bbb a0eb ba3c
00000230: eef6 b1bd 1a1e 823d b0d6 5a3d 5aa8 edbd
00000240: c4fa 10bd 8459 e1bd 6062 d53d 60f8 683c
00000250: 642e 75bd f023 783d d82a c3bd a633 87bd
00000260: e005 943d e6bf d93d a040 613d b648 eabd
00000270: a0a2 ef3d 583f eebd 5690 eebd fcb6 773d
00000280: d0a8 5e3c 403d b43b 40e4 dcbb aaf8 e2bd
00000290: 5a36 efbd 50a2 8c3c 1046 cebd f0d5 60bc
000002a0: 587d eb3c cef4 c83d 60c0 bcbb 6449 2c3d
000002b0: 5407 7c3d 3054 383c 00ab 443b 90a4 2fbc
000002c0: 722c 9e3d 00d3 1a3c 1c65 d2bd 16fd fcbd
000002d0: ac5e df3d 4428 223d defe f3bd ac03 373d
000002e0: 7044 8b3c a0c3 ca3d b027 babd f05e 13bd
000002f0: f6f3 c63d 485d bf3c 9cb8 4dbd f4d2 acbd
00000300: ac90 c53d 00d8 95ba 6cbf 1fbd 94cd d33d
00000310: 04a6 78bd dc36 49bd 142b 89bd 5648 e93d
00000320: e03a 453d 9c07 27bd f478 f53d eae8 d7bd
00000330: bc7e 023d a89c 9bbd d45d e63d f887 bcbc
00000340: c00b 07bb 863b bd3d 9038 8fbc c0e2 c33c
00000350: 2c79 70bd 62d6 a3bd 203d ca3c 9a92 b23d
00000360: fc52 cb3d c8ea 9e3c 5c7a 4dbd b0bb a43d
00000370: 0807 c43c 00cf 953c 9809 1fbd e692 a03d
00000380: 7838 84bd 80f3 9b3b d0a8 8e3c 98a8 cebc
00000390: 5890 593d 1642 f13d 6426 d63d 0033 5dbc
000003a0: 0068 b1ba 501d d0bc 084c 2c3d 8c56 a6bd
000003b0: 00bd b53d 0051 d0bb b8ea 6cbd 4086 8f3d
000003c0: f877 c9bd 20cf a73c 5cf1 f43d ba41 993d
000003d0: cca2 13bd e077 5b3c 0400 0abd 7cf9 9cbd
000003e0: 28a5 043d 7cf7 0b3d 02a5 833d 02e8 b4bd
000003f0: 6a59 853d f892 acbc 5888 dd3c 223e d93d
-0.03499417 -0.120717764 -0.07216649 0.09282294 0.067781806 0.022077143 -0.08903213 -0.11005807
0.044536218 -0.108586535 -0.11867258 -0.05413486 -0.123776436 -0.017445892 0.02251406 0.0989442
0.10944131 -0.035619497 -0.07745275 -0.039931774 0.08781503 0.11983602 0.06491083 0.11434011
-0.049785018 0.010808378 0.08913754 0.024241269 -0.0061186105 0.12171024 0.048256695 0.028786272
-0.016771317 -0.0019142926 -0.0135026425 0.009466231 -0.016403556 0.10648054 -0.08791044 0.029546231
0.06777999 -0.06220138 0.093759015 0.07404256 0.06442702 -0.07043812 -0.121833384 -0.046992943
-0.12340346 0.06392445 0.12281987 -0.04638213 -0.02155687 0.044713736 0.037729234 0.043985695
-0.027974024 -0.029476002 -0.07965614 -0.0528771 0.05650203 0.0031193197 -0.06572488 -0.0935539
0.003680721 -0.038951248 -0.11217938 -0.05846481 0.004125774 0.06253092 -0.016749755 -0.119871676
0.033972025 -0.078980684 0.05309023 0.11792348 0.098438874 0.016466603 -0.0838141 -0.08799034
-0.10468644 0.051796928 0.00023259223 -0.0124990195 0.048701003 0.10876347 0.08534892 0.036882013
-0.03959991 -0.02808918 -0.088822424 -0.006835237 -0.06620215 0.025349364 0.00060370564 -0.018666327
0.05416836 -0.0639313 -0.0062740594 -0.08906601 -0.080363646 -0.069020465 -0.077831134 -0.12175837
-0.03212081 -0.066193596 -0.065143585 -0.121555164 -0.009520635 0.10649088 -0.02022843 -0.0867527
-0.056016862 0.07241359 -0.06472805 -0.042125285 -0.107112214 0.108012706 -0.023854181 0.06941953
-0.012738347 0.08006203 0.10018636 -0.07190339 0.105730414 -0.066705644 0.09200564 0.030614734
0.107599944 0.035446078 0.026013955 0.12375976 0.049996644 0.048326373 -0.07596393 0.048832625
-0.0819298 -0.06424081 -0.0021288246 0.022817433 -0.08689676 0.06353398 0.0534274 -0.11604376
-0.0353954 -0.11003402 0.10419154 0.014219373 -0.059858695 0.060581148 -0.09529656 -0.06601648
0.07227683 0.10632305 0.05499327 -0.1143965 0.1170094 -0.116331756 -0.11648624 0.060477242
0.013590053 0.0055004656 -0.0067410767 -0.11082585 -0.116802886 0.01716724 -0.10071957 -0.013722882
0.028746292 0.09812318 -0.0057602376 0.04206218 0.061530426 0.011250541 0.003000915 -0.010720387
0.07723321 0.00944972 -0.10273191 -0.1235296 0.10906729 0.03958918 -0.119138464 0.044681236
0.017000407 0.09900594 -0.09089601 -0.03597921 0.097145006 0.02335991 -0.050224885 -0.084386736
0.096467346 -0.0011432171 -0.039000914 0.10341945 -0.0607052 -0.049124584 -0.066976696 0.1139075
0.04815185 -0.04077874 0.119859606 -0.10542472 0.031859145 -0.07598239 0.11248365 -0.023014054
-0.0020606369 0.09239869 -0.017483026 0.023911834 -0.05870931 -0.07999875 0.02468735 0.08719368
0.099279374 0.019399062 -0.05016552 0.08043611 0.023929134 0.018287182 -0.03882751 0.07840519
-0.06456083 0.004759252 0.01741448 -0.025226876 0.053116173 0.11780183 0.10456541 -0.013500929
-0.0013535023 -0.025404602 0.042064697 -0.08121976 0.088739395 -0.006357312 -0.057841033 0.07008028
-0.09837335 0.020484507 0.11960098 0.074832395 -0.036043927 0.01339528 -0.03369142 -0.07664773
0.032384068 0.034171566 0.06427957 -0.088333145 0.06511195 -0.021066174 0.027042553 0.10607554

gcn2.lin.bias f4 [64]
00000000: ce10 913d 04e3 d13d 10c3 153c 1c65 643d
00000010: 780e e1bc 7cba d6bd b0eb f9bc 3a8b a13d
00000020: 64da 693d 88f6 543d 52f5 babd d017 6e3c
00000030: 6c30 073d c679 893d 8004 ca3c 103f ec3c
00000040: 2898 833d b401 fa3d 0456 dc3d 307c 843c
00000050: 0c4c 7cbd 84a5 d4bd 54b6 9d3d f4dc c03d
00000060: 905f 333c c00b 53bc a80f 823c eee3 aa3d
00000070: 001c 18bb 4073 63bc 1a5d b43d 724a 94bd
00000080: e085 513c 48d5 2ebd c0a7 47bd c0ee 03bd
00000090: 3689 d23d 2038 793c f059 1cbd 805d a1bb
000000a0: c874 fb3c 7ed9 e03d 22c5 873d 52ae 99bd
000000b0: 7097 7c3d 2807 6bbd 54c0 5d3d 004c 6739
000000c0: 30d5 c33d 70ce 92bc 608a 14bd b211 8dbd
000000d0: 0a48 b6bd 90b4 efbc f4a4 0cbd d8ad cdbc
000000e0: 1c7a 7ebd 4098 0e3c b818 b2bd e094 8b3b
000000f0: 801d aa3a d092 223d 3036 24bd 74d6 fdbd
0.07083283 0.10248378 0.009140745 0.055760488 -0.02747272 -0.10484788 -0.030507892 0.078878835
0.05709304 0.051992923 -0.091288224 0.0145320445 0.033005163 0.067126796 0.024660349 0.028838664
0.06425506 0.12207356 0.10758594 0.016172498 -0.06159596 -0.10383132 0.07700792 0.094171435
0.010948077 -0.012881219 0.015876606 0.083442554 -0.0023210049 -0.013882458 0.0880682 -0.07240762
0.012788266 -0.04268387 -0.048743963 -0.03221011 0.10280077 0.015211135 -0.03817171 -0.004924476
0.030695334 0.10978983 0.06629397 -0.07503952 0.06166786 -0.05737987 0.054138497 0.00022058189
0.09562147 -0.017920703 -0.036264777 -0.06888141 -0.08900459 -0.029260904 -0.034337 -0.02510731
-0.06212817 0.008703291 -0.08696121 0.0042596906 0.0012978762 0.039690793 -0.04009074 -0.12394419

no_gnn_proj.weight f4 [64, 10]
00000000: dd62 72bb 9dda 273d 88ef 4d3e 8819 59be
00000010: 8ee3 933d 5e44 733e fbd8 1e3e 2184 c8bd
00000020: 5ff0 0bbe ac1b 7f3e f25d af3b 5ab9 afbd
00000030: 60cc 703e 5c23 273e 7ba1 7a3e 2886 003e
00000040: 3231 033b e767 d0bd abae 233e 8e5e fbbd
00000050: b0a2 73be 7d77 3c3e 163e 8c3e fe71 79bd
00000060: 4237 4d3e 8eaa 24be 238c 673e 66d3 923e
00000070: c6cf 863e c406 8d3e a246 71ba f676 c7bd
00000080: 7c98 633e 4117 6a3e bb81 98be 8a09 3f3e
00000090: 14a8 42be b2bf 60bd 4d31 b2bc 6eb4 133e
000000a0: 684d 46be be38 49be 9510 5d3e 47e6 593e
000000b0: 347b 0dbe b089 7cbd 623c 35be 6cf3 ca3d
000000c0: 2cc5 3dbd 884b a3be df69 033e 6e43 8dbe
000000d0: b9ab 1dbe 5e2d 2ebe b04a 8dbd c075 d93c
000000e0: eba0 71be 75d8 1dbd c3fd 6b3e ae6d edbd
000000f0: 3fb3 263e 396d ac3d baf4 93bc 63e3 16bd
00000100: 575a 833e f9fa 1abe 4d3b 953e 1c08 1c3e
00000110: f82f 75be f91a bdbd dee8 a1be 6d97 52be
00000120: ab86 87be 8bba bfbd e7f2 513e 220c 433e
00000130: 8569 88be 9b9f 633d 4bd4 a1bd 93a9 003e
00000140: d964 de3d db16 47be 860c 9bbe 9613 4a3e
00000150: 5c6d 7c3e f872 3b3e 17fd 8b3d f5f0 82be
00000160: 00cb 48be c3f0 293e bf18 38be eb62 a03e
00000170: d828 7d3e 6070 583e 95eb fa3d 50b4 d4bc
00000180: 63bc 14be 16b4 2dbe 45e6 003e 17d5 7dbd
00000190: 977e 4b3d d967 263e ecbf 97be 64c0 81be
000001a0: f195 36be dfb8 95be e95a 993e adc4 7a3e
000001b0: 747f 8d3d 7e0a 6f3e 286f 7bbe 6f00 543b
000001c0: 5ddc 8fbe 7ae8 453e 61bc 9c3d af08 12be
000001d0: 6976 783c 3e92 6bbe bff6 9dbe c230 19bd
000001e0: 8e4b a4bc eb43 3bbe 3ddd a93d f70d 15be
000001f0: 2bbb 673e a1d3 0ebe 5601 743e a299 9f3e
00000200: e5b7 c23c f81c ab3b b4a9 eb3c beb6 8b3e
00000210: 54cb e8bd 68f0 c53d 1600 3f3e d814 eabd
00000220: e043 5f3e 7d26 91be 3e37 8fbe e9b1 9f3e
00000230: 91dd 4dbe a233 8b3c 9c87 25be 2761 273c
00000240: 1d51 ebbd 53a0 2abe 00e9 83be 8a28 dcbd
00000250: 3fbf b43d 78ce 01be 49a7 59bd e71c 663d
00000260: 4a3b 673d de96 63be 0bfe 52be ca1e 283e
00000270: 9352 5dbe 975d 1abd dc51 2bbe 9cc9 6bbe
00000280: b51c 653e 9472 9f3e 943a 01be 6fe7 c83d
00000290: 5cea 4fbe 0068 55bc 95e9 ca3c ff43 a5be
000002a0: 296d 923e a252 1b3e 7ee4 55bc 175e 8ebd
000002b0: 9833 1f3c f577 47be 8771 c4bd 0d99 81be
000002c0: 0a75 bbbd 75c3 0ebe 7b53 d3bd 8c4f fa3c
000002d0: 8307 0ebe 083b 8abe 00fb 9ebe 5a5d 86bd
000002e0: 2926 923e 3cba e03d f188 bdbb d382 493d
000002f0: 3227 af3d 91f6 19be b731 17bd e8b3 9c3e
00000300: f331 253e 0dec 0ebe f83d 273c 937d 813e
00000310: 5e61 55be 5ca6 2dbe 477c 0ebe 7d51 b13d
00000320: 7eed d33d 74c9 2fbe 6994 643e 1d8d debd
00000330: e631 1ebd c0d9 4d3d 9e65 90be d2dc a2bd
00000340: e299 783e 9234 243e 30ae 573e 0840 193e
00000350: 6c41 543e 92c0 84be ae34 543e 08bd bfbd
00000360: 4840 523d b25f 70be 495c 453d de73 f4bc
00000370: 61b2 17be d8a2 8c3d 0cf4 5d3e c83d f6bd
00000380: 2273 8bbe 10a1 4fbd a063 0d3e af52 413e
00000390: e59d 0e3e 3efe 32bd c014 03be a61a b0bd
000003a0: 4af4 0b3d 099e 4e3d 3d21 47be 20c6 0a3c
000003b0: 8312 90bd 31a4 5dbe 58da 3f3e 1db0 94be
000003c0: a6e8 0fbe 1834 26be 8db2 583e 7b91 38be
000003d0: 0092 8cbe e65b a0bd f56f 753e 9afe 4cbd
000003e0: a90d 3abe 4f67 8cbd c853 88be 8b01 6cbe
000003f0: ab77 663d 6681 72be 3919 8b3e e634 fdbd
-0.0036985197 0.04097997 0.20110905 -0.21201146 0.07221137 0.23756549 0.15512459 -0.097908266
-0.13665913 0.249129 0.0053517753 -0.08580275 0.23515463 0.16322082 0.24475662 0.12551177
0.0020018336 -0.10176068 0.159846 -0.12273894 -0.23792529 0.18404956 0.27391118 -0.060899727
0.2004061 -0.16080686 0.22612052 0.2867691 0.26330394 0.27544224 -0.00092039455 -0.09739487
0.22226137 0.22860433 -0.29786476 0.18655983 -0.19009429 -0.054870315 -0.021752024 0.14424297
-0.19365466 -0.19650552 0.21588357 0.2127925 -0.1381653 -0.061654747 -0.17698815 0.0990971
-0.046330616 -0.31893563 0.12833355 -0.27590507 -0.15397538 -0.17009494 -0.06899011 0.026545405
-0.23596542 -0.038536508 0.23046021 -0.11593185 0.16279314 0.0841927 -0.01806103 -0.036837947
0.2565486 -0.15134801 0.29146805 0.15237468 -0.2394408 -0.0923366 -0.31622976 -0.20565577
-0.2646993 -0.09361752 0.20502816 0.19047597 -0.26643005 0.055572134 -0.0790182 0.12564687
0.10859079 -0.19442312 -0.30282992 0.19734034 0.24651092 0.18305576 0.068353824 -0.2557446
-0.19608688 0.1659575 -0.1797819 0.31325468 0.24722612 0.21136618 0.12251965 -0.025964886
-0.14524989 -0.16963229 0.12587841 -0.061970796 0.049681272 0.16250552 -0.29638612 -0.25342095
-0.17830636 -0.29242608 0.2995217 0.24489088 0.069090754 0.23343846 -0.24554121 0.0032348891
-0.2809781 0.19326964 0.07653118 -0.14261125 0.01516495 -0.23005006 -0.30852315 -0.037400015
-0.020055559 -0.18287627 0.08294151 -0.14556108 0.22629993 -0.13947918 0.23828635 0.311719
0.023769328 0.005221959 0.028767444 0.2728786 -0.11366907 0.096649945 0.18652377 -0.11429757
0.21803236 -0.28349677 -0.27971834 0.31190422 -0.20104052 0.016992394 -0.16165012 0.010216034
-0.114900805 -0.16662721 -0.25763702 -0.1074992 0.0882554 -0.12676418 -0.05313805 0.056179907
0.056453027 -0.2222552 -0.20604722 0.16417995 -0.21613531 -0.03768691 -0.16730446 -0.23026127
0.22374232 0.31142104 -0.12620002 0.098097675 -0.20304245 -0.013025284 0.024769584 -0.3227844
0.28598908 0.1516824 -0.013054965 -0.0695154 0.009716891 -0.19479354 -0.09591966 -0.2531208
-0.09153183 -0.13941748 -0.10318657 0.030555509 -0.13870053 -0.26998162 -0.31050873 -0.06560774
0.2854474 0.109730214 -0.005784147 0.04919703 0.08552398 -0.15035464 -0.036912646 0.30606008
0.16132335 -0.13957234 0.010207646 0.25291118 -0.20837924 -0.16957992 -0.13914596 0.08658121
0.103480324 -0.17166692 0.22322239 -0.10866759 -0.038621806 0.05025649 -0.28202528 -0.079522744
0.24277452 0.16035679 0.21062541 0.14965832 0.20728081 -0.2592817 0.2072322 -0.09362227
0.051330835 -0.23474005 0.048183713 -0.029840406 -0.1481414 0.068669975 0.21675128 -0.120235026
-0.27236277 -0.05069071 0.13807535 0.18879198 0.1392742 -0.043699495 -0.12800884 -0.08598833
0.03416852 0.050443683 -0.19446273 0.008470088 -0.07034781 -0.21644665 0.18735635 -0.29040614
-0.14053592 -0.1623081 0.21161862 -0.18024246 -0.2745514 -0.07830028 0.2396849 -0.050047494
-0.18169273 -0.06855642 -0.2662642 -0.23047464 0.056266468 -0.23682174 0.2716768 -0.12363605

no_gnn_proj.bias f4 [64]
00000000: 1dd9 b33d ef57 753e bd30 923e 5acb 79bd
00000010: cfed 93be 7b9c 29be 2a86 603e 9c6c 9ebd
00000020: 1520 4bbe e3b1 7a3e 24b0 a3be 53a7 053e
00000030: 0634 8b3e 8000 8abd 9869 923d 0904 bcbd
00000040: f6cc 51b9 c44c 11be 4e42 2abd 151f a93e
00000050: 2e26 9ebd 2622 663e eb84 a6bb 4c87 4f3b
00000060: bdc2 6dbc aa85 6f3d 530c 863e dbff aebd
00000070: 809a d43d b535 083e f538 863d e198 43be
00000080: c9a8 88be 8bec 913e b557 973e 4eaa 663e
00000090: b4b2 73be 557e 17be d283 14be 85ff 433e
000000a0: 2191 6fbe 6b47 a2bd 99a0 78be b6b7 fc3d
000000b0: d84d 523e 7a99 a8bd 8883 3f3e 592e 98be
000000c0: 228c 86be a428 b83b d265 093e a76e 8d3d
000000d0: 008c 63be 37c0 9f3e 9fa8 7a3e 4833 573e
000000e0: 68d3 80be 7b73 8a3b 634f 21bd d992 97bd
000000f0: 3dd2 383e 02d2 963e 8287 623e 3c8e 9c3e
0.087816454 0.23959325 0.2855281 -0.060984947 -0.2889237 -0.16563599 0.2192618 -0.07735559
-0.19836457 0.24481921 -0.31970322 0.1305211 0.27188128 -0.067383766 0.07149047 -0.09180457
-0.00020008147 -0.1418944 -0.04156714 0.33031526 -0.07722126 0.22473964 -0.005081763 0.0031666337
-0.014511761 0.05847708 0.26181278 -0.08544894 0.10381031 0.13301738 0.065538324 -0.19101287
-0.26691273 0.2850078 0.29559103 0.22525904 -0.23798639 -0.14794286 -0.1450341 0.19140442
-0.23395206 -0.07923778 -0.24280013 0.123397276 0.20537508 -0.08232398 0.18702519 -0.2972286
-0.26278788 0.005620079 0.13417748 0.06905871 -0.22221375 0.31201336 0.24478386 0.21015656
-0.2516129 0.004225192 -0.03938235 -0.07401056 0.1804895 0.29457098 0.22122005 0.30577266

post.0.weight f4 [128, 128]
00000000: f9a2 8abb aed6 963d 3f98 21bd 2a8b 263d
00000010: 6350 84bd cb1b 9b3d 5957 9fbd 57fc 423d
00000020: 44f1 7c3d 536d 3fbd 083f efbc ebde b33d
00000030: 67cd e03c 626e 5abd 6169 953d bfcc afbd
00000040: 880a 3d3d d3fc 9fbd f8e0 02bd 6a00 0b3c
00000050: b2fc 9bbd c66e 3e3d d5dd 1f3d 8b90 a23d
00000060: 1318 fdba 1836 813d aab0 8e3c 74a4 9abd
00000070: 4986 11bd a360 37bd 4674 31bd 2e69 12bc
00000080: 7f44 683b f4b2 9cbd 9f74 673d f674 653c
00000090: e618 4a3d 6929 a53d 9a16 49bd 4c63 1cbd
000000a0: f91b e8bc d956 883d f75d 5b3d b929 4f3d
000000b0: 0491 c2bc f167 8ebd bdf5 c0bb 8ec2 34bd
000000c0: 4250 8e3d f4b9 c63d 3c27 a93c 6dda 3bbd
000000d0: 24e8 b33d 2e04 20bd eb50 a03c 58f8 99bc
000000e0: de6c 363d 9d63 cf3b de61 6f3d e5d3 81bc
000000f0: b44e 863d 7c50 8fbd 4ad0 37bd 5382 7d3d
00000100: 266e 243d ec25 49bd 0470 fbbb 40d0 c33d
00000110: c412 1dbd 91fd 63bd c9d6 10bc b89b ec3a
00000120: 3ea3 6cbd 0bc5 9fbc 4509 843d c48b 013d
00000130: ca77 153d c786 0ebd ace9 a4bd e445 543d
00000140: eb57 2a3b a6a5 ffbc 7d2d 22bd f113 51bd
00000150: c0f3 5d3b 30d4 8d3c ed0a a4bd c9f1 6a3c
00000160: a4bb 833d 44e6 ee3c 3559 b43d 803e 6c3d
00000170: 9ac4 11bd 2b39 a83d cad4 a4bd d680 6cbc
00000180: 6433 963a ed96 783d 929b 6abd 644b c3bd
00000190: 6ead ad3c ff2c 9c3d e7b2 1f3d c219 1f3d
000001a0: 1582 f5bc 21d2 7b3d a0e0 da3b 244f a23c
000001b0: f899 8f3d 01da 1cbd 58f8 7fbd b619 c0bc
000001c0: 2e4f 34bd f015 60bd 7f1d 02bd 8545 94bd
000001d0: 6981 8d3d 4457 313d cab4 50bd 2b9a 6dbd
000001e0: 8e2c 883d fa36 003d 7444 2fbb ad0f 7c3d
000001f0: 6368 51bd 9243 7e3d 04bb 593d 0bb7 153c
00000200: edd4 1dbd 6b12 a1bd 63a8 4b3c d0f2 15bc
00000210: 4640 0d3d 0ffe 6c3d 7e17 60bd 4931 a63b
00000220: ec83 f8bc 83b9 833d 75ec 9b3b 6e45 90bd
00000230: b4d9 42bd 23ae 38bd 6ef8 003d cf91 863b
00000240: 5d9e ee3c 02e8 0b3d 3935 ae3d 5b12 77bd
00000250: a875 50bc 3d5f 453c eac3 97bb ff61 75bd
00000260: 6dee adbc 3014 883d 6d81 a23c b911 c9bc
00000270: d8d8 09bd 0b2b af3d 006a debb 77c2 213d
00000280: b13b a23d 7e75 3c3c 4a3b 023d 6d17 a03d
00000290: c91c 5a3b 40d2 673c 883b bf3d 1d8a 3dbd
000002a0: f93c 23bd 30b1 8e3d e4ce 56ba 14d8 40bc
000002b0: 87bc e6bc d850 323c 1de1 04bd fb74 fbbc
000002c0: d221 ae39 e905 363d 77fa 5e3d b8bf 913d
000002d0: 9b08 4dbd 40df b63d 6755 a8bc 8355 513c
000002e0: c151 6bbd e037 fe3c 0ca6 3f3d efc6 103c
000002f0: 611a 7dbc ab71 5dbd 84d7 763d 5150 b43d
00000300: 70ad a5bc 7007 0b3d 4abd 74bd 1d53 af3d
00000310: 8846 483d 72d9 3bbc adf7 4a3b 0643 3fbd
00000320: c6ee ecbc 0766 7d3d c6ca b13d f10b 8cbd
00000330: 06d5 723d a2ec 773d 7988 90bd eb2b 7fbd
00000340: 7eb1 a53c 0284 7b3d a0b2 4dbc 8ea4 613c
00000350: 370f 4b3a dcb3 853c ba79 313d 23b4 773c
00000360: 3a1b 883d aea6 a1bd 113a 8a3d 0a11 0d3d
00000370: b629 95bd f3cc a33d c0e8 e83c 7f23 813d
00000380: 64c9 743d 121a 8c39 72b5 aebd 73e4 933d
00000390: 7a57 41bd bdca 04bc 7d5b 533b 92fc 4f3d
000003a0: 2b93 42bd 8527 e8bc fb46 35bd b4fb 24bd
000003b0: 6f3f 923a 1214 b13d f148 b53d 0f53 9a3d
000003c0: 1413 1ebd e1a9 97bd aa2c 7bba 4a51 14bc
000003d0: 51c4 24bc 8ca8 de3b bee9 9bbc 0df3 01bb
000003e0: 8f1a 3dbd d27f 84bd cb0e 0a3d 7a71 8b3a
000003f0: afd4 6fbc b29f 223d 80e5 26bd 40a8 9ebd
-0.0042308536 0.07365166 -0.039451834 0.04066006 -0.06460645 0.075736605 -0.07780332 0.04760393
0.061753526 -0.04673512 -0.02920486 0.087827526 0.027441693 -0.053327926 0.0729549 -0.08583974
0.04615262 -0.07811894 -0.03195283 0.008483985 -0.07616557 0.04649236 0.039029915 0.07937726
-0.0019309543 0.06309146 0.017418224 -0.07550898 -0.035528455 -0.044769894 -0.043323778 -0.00893621
0.0035441217 -0.0765132 0.056507703 0.014004936 0.04934015 0.08064539 -0.04909382 -0.038180634
-0.02833365 0.0665719 0.05355641 0.0505769 -0.02375079 -0.06953419 -0.0058886693 -0.044130854
0.06948902 0.097034365 0.020648591 -0.045862604 0.08784512 -0.039066486 0.019569835 -0.018795177
0.044537418 0.0063290135 0.058442943 -0.01584811 0.0655798 -0.06997773 -0.044876374 0.061891865
0.04014411 -0.04910843 -0.0076732654 0.09561205 -0.038347974 -0.05566174 -0.008840271 0.0018051779
-0.057772867 -0.019503137 0.064470805 0.03162743 0.036491193 -0.034796502 -0.08052382 0.051824465
0.0025992345 -0.031206917 -0.039594162 -0.05104441 0.003386721 0.017313093 -0.080098964 0.014339873
0.06432274 0.029162534 0.088060774 0.057676792 -0.035587884 0.08214029 -0.08048399 -0.014435014
0.0011459407 0.06069081 -0.05727727 -0.09535864 0.021200862 0.0762577 0.038988974 0.038842924
-0.029969255 0.06147969 0.0066796094 0.019813128 0.07011789 -0.038293842 -0.0624927 -0.02344976
-0.044020824 -0.05470842 -0.03176641 -0.07239822 0.06909449 0.043296114 -0.050953664 -0.058008354
0.06649123 0.03130243 -0.0026743682 0.061538387 -0.05112494 0.06207616 0.053156868 0.009137879
-0.03853314 -0.07864841 0.012430283 -0.009152129 0.034485124 0.057859477 -0.054709904 0.005071793
-0.030336343 0.06431868 0.0047584125 -0.07044493 -0.0475709 -0.045087945 0.03148692 0.004106737
0.029128248 0.034156807 0.08506245 -0.06032024 -0.012723364 0.012046632 -0.004631509 -0.05990791
-0.021231854 0.066444755 0.019837106 -0.024544584 -0.033654064 0.08553132 -0.0067875385 0.039492097
0.079215415 0.011502622 0.031794824 0.07816968 0.0033281317 0.014149249 0.093375266 -0.046274293
-0.03985307 0.069673896 -0.0008194281 -0.011770267 -0.028166069 0.010883532 -0.032441247 -0.03069543
0.00033213064 0.04443923 0.05443808 0.071166456 -0.050057035 0.089293 -0.020548536 0.012776735
-0.057451013 0.031032503 0.046789214 0.008836492 -0.015448184 -0.05406348 0.060264125 0.08804382
-0.020224303 0.03394264 -0.059750833 0.085607745 0.04889539 -0.011465417 0.003097038 -0.046694778
-0.02892245 0.06186488 0.08681254 -0.06838215 0.059285186 0.060528405 -0.0705728 -0.062297743
0.020226236 0.06140519 -0.012554795 0.013772143 0.00077461026 0.016321115 0.043328978 0.0151186315
0.06645818 -0.0789312 0.067493565 0.034440078 -0.07283346 0.07998075 0.028431296 0.063055985
0.059762374 0.00026722305 -0.08530702 0.072213076 -0.047202565 -0.008104977 0.0032250576 0.05077798
-0.04750363 -0.028339157 -0.044257145 -0.040279105 0.0011157821 0.08646406 0.08851803 0.075353734
-0.038592413 -0.07405449 -0.00095815456 -0.009052584 -0.010056571 0.0067949947 -0.019032355 -0.0019828707
-0.046167906 -0.06469692 0.033705514 0.0010638677 -0.01463811 0.03970308 -0.040746212 -0.07746935

post.0.bias f4 [128]
00000000: 826f d5bb 3c75 643c 5e68 8bbc 5d90 c13d
00000010: 3bac 5fbd 57cf 223d 6fb9 5a3d 77a0 883d
00000020: cd9d 8fbd 6fdf 47bc 5607 1c3d f66d f73c
00000030: dcb1 343d e5ff 98bd 3f0f c03b 5f10 703a
00000040: 321b 963c b57d 35bd c70e 2c3d c352 483d
00000050: c67b 17bd cbe4 b03d 3635 c43d d429 3cbb
00000060: 2634 4a3d e3ff 803d 3af5 3b3c 999d 3a3c
00000070: 2898 563c 23ea fb3c 270a f33c fd23 2abd
00000080: 33f2 913d 43eb 933d aca8 7b3d 9f92 d3bc
00000090: 0054 51bd 1952 aabd b3cb a7bd 1170 3ebc
000000a0: 9b55 9d3c 3f16 ff39 0460 cc3d b40f 063d
000000b0: 2094 55bd 1cc4 3cbd 19f8 bf3c bd99 233d
000000c0: 932b 8fbd c255 0c3d 39b5 a33d ad40 dc3c
000000d0: 468b 343d 58c6 b33d 8969 19bd 7425 f6bc
000000e0: a7d0 37bd 8f84 14bd 1ec9 7f3d 951c fdbc
000000f0: 8003 0d3d 0570 0c3c 41a4 753c 1c48 763d
00000100: 32ce 9b3c f846 2f3d 2593 733c 74e5 8dbd
00000110: e700 71bd 5364 ddbb 6c4d ffbb d25a cfbc
00000120: 07c2 a2bd a187 6bbd 97e7 ab3d 9b93 92bd
00000130: e463 b43c 99d4 c5bc 12d2 073d 86ee c53d
00000140: 7947 a0bd 05ab 86bc ab22 ac3d 7f43 bb3d
00000150: 52e8 823d bfc0 823d 8d73 bbbd 4272 e73c
00000160: 99f8 61bd f36e a4bd 707d 4a3d 6f45 a5bd
00000170: 56a9 903d 2c5f a3b9 14b9 4ebd f0cd 813d
00000180: 5f80 1ebd 4748 8fbc 60f6 3c3c 79e8 903d
00000190: 4a48 123d 4140 afbc 351b 56bc eda7 edba
000001a0: 1e01 efbc 9fc3 81bb 1d4d 9a3d 3a4e 8ebd
000001b0: 4764 30bd f38a 923d 8dac 15bc ce63 a53c
000001c0: b643 8fbd f574 0dbc 7f57 243d 52c5 9d3c
000001d0: a254 7a3b ba8c 173d 70ef cf3d b8ca 30bd
000001e0: 732b 9fbd e1b6 833d f501 f1bb ab2d e53c
000001f0: be03 b03d 36a8 823d 92af 94bd 4b65 abbd
-0.006513537 0.0139439665 -0.01701754 0.09451363 -0.05460761 0.039748516 0.0533995 0.06671231
-0.0701252 -0.012199267 0.038092934 0.0302038 0.044114932 -0.07470683 0.0058611925 0.0009157713
0.018323515 -0.044309337 0.04200628 0.048907053 -0.036983274 0.08637389 0.09580462 -0.0028711455
0.04936614 0.062988065 0.011472041 0.011390113 0.0130978 0.030751294 0.029667927 -0.041538227
0.07126274 0.07222607 0.061440155 -0.02582675 -0.0511055 -0.0831644 -0.081931494 -0.011623398
0.019205859 0.00048653965 0.09979251 0.03272982 -0.052143216 -0.046085462 0.023433732 0.039941538
-0.06990733 0.034261473 0.0799355 0.026886309 0.044078134 0.087780654 -0.03745416 -0.030047156
-0.04487672 -0.03625923 0.06244766 -0.030897418 0.034427166 0.008571629 0.014992774 0.060127363
0.01901922 0.04279229 0.014866625 -0.0692853 -0.05883875 -0.0067563443 -0.007791212 -0.025311861
-0.07947164 -0.057502393 0.08393782 -0.0715706 0.022020288 -0.024149226 0.033159323 0.09664635
-0.07826132 -0.01643897 0.0840505 0.09143733 0.06391968 0.0638442 -0.09152899 0.028252725
-0.05516872 -0.080289744 0.049436033 -0.08069884 0.07063548 -0.0003116069 -0.050469473 0.063381076
-0.038696643 -0.01749052 0.01153335 0.07075591 0.03571347 -0.021392943 -0.01306801 -0.0018131711
-0.029175337 -0.0039600874 0.075342394 -0.06948514 -0.043064382 0.07155409 -0.009135378 0.020189192
-0.06995337 -0.008633842 0.040122505 0.019259129 0.0038197418 0.03699944 0.10153091 -0.043162078
-0.07771959 0.06431366 -0.0073549696 0.027975878 0.08594464 0.0637974 -0.0726005 -0.083689295

post.2.weight f4 [128, 128]
00000000: 8b90 0b3c 4d83 723d 651f 3cbd b228 8d3d
00000010: 1b50 f03b b2fc debc 6732 2dbd 5ee8 81bd
00000020: fbaa edbb c2d6 40ba 9d8f 9bbd 4703 5b3d
00000030: 7f7f 06bd 8e80 dc3c f271 78bd 4613 c23c
00000040: 6177 97bd a394 5abb 87ee 3cbd 46c8 ddbc
00000050: 8bdb ffbc 5bf7 a73d 81b0 e83c 2103 b5b9
00000060: 6007 51bd f27d 61bd a243 293b 74aa 8f3d
00000070: 212d 05bc ccba 9a3d 27a7 2ebc 444f df3c
00000080: 36cf e3bc 5c13 a0bc 36a1 c73c 3ee3 b53c
00000090: 7c43 813c 7a8e 91bd 04c0 a83d 64e7 69bc
000000a0: e431 61bc e8b3 533d ba31 4c3d 89d3 d53c
000000b0: 3cc6 333d 430a 3fbc 06c0 54bd 380d a53c
000000c0: 79d3 443d c2b2 9e3c f3de 13bd 1ba0 b23c
000000d0: d84a 3cbd d09f a83d 6f70 a63a 64c1 4f3d
000000e0: 212e 993c 17a1 f1ba f9b7 63bd 0956 563d
000000f0: 6959 57bd e493 81bd 1c80 b23d fad9 90bd
00000100: b3ad b9bc 5399 59bd ba94 f5bc c4fe 60bd
00000110: a74e 023d ae13 af3d 354c d5bc 5ce8 a8bd
00000120: 1afa bd3c c263 b4bc f4d5 c4bc 4420 6f3d
00000130: a8c9 303d e2a2 503b 9dd9 c1bb 3a84 063c
00000140: 3e51 9a3d d4db 2f3d 6398 5dbd 033b acbc
00000150: 2072 963d 2333 0cbd 5511 9b3d a3ce c9bc
00000160: fdc7 863a 26b6 223d d559 02bd f2a6 9abd
00000170: 7de6 eebc 9800 80bc db13 6e3d d563 6a3d
00000180: 8371 8eba 5bbd af3c 7235 7abd ab0a 94bd
00000190: 0284 663d 3888 8b3d cad3 b8bc 569e 37bd
000001a0: 8e20 0b3d e94d 75bd 65b2 273d 5834 213d
000001b0: ec3d f03c 2bea acbd 93bb 27bd e266 8cbd
000001c0: 173a 263d 08ac 9a3d e20c 1cbd 73ce 0e3c
000001d0: 7110 013d e065 a5bc 869b 6c3d 120e 103b
000001e0: 6344 9a3d 0bdc 7abd c510 a3bd c056 16bd
000001f0: 1a1b a63d c243 2ebd 6e43 c23d 350c 483d
00000200: 5071 6c3c 4f56 3cbd f850 293c bff7 1e3c
00000210: c7c5 7d3c b9cd a73d b9eb 75bd 1cac b63b
00000220: 3c06 ecbc 59f8 b83d 16cf a73d 4878 233d
00000230: 56e9 083d d5cc 45bd d7a9 843d 7824 90bc
00000240: fa9b 773c 859b 94bd 0739 8ebd c0a0 87bc
00000250: 347f 0f3d 7ff4 3abc 7c04 643d 1835 a4bd
00000260: c1ed 963d 2b3f 073c 4eb6 63bd da97 413d
00000270: e592 a3bd 8de7 9a3d a3a2 c83d 3e94 60bd
00000280: 27ce 57bc 0dc6 90bd 4aac a2bd dfb2 86bd
00000290: bd4a b5bb 27b3 1cbd c7ad 8a3d 1750 9e3d
000002a0: 8878 9cbd 4ae4 e23c 3026 c93d bf79 143d
000002b0: aa2f bd3c 74df 18bd 4a79 ccba 3650 473d
000002c0: c2ed 2a3d 5b2e 47bd 4549 093d 293b 95bc
000002d0: b62d c23d bf2b 80bd 0457 993d b2da db3c
000002e0: 2afb 763c f043 f0bc f22c 3d3d 8b72 8d3a
000002f0: d66f 1e3d f096 82bd 1ebf a03d aae8 2ebb
00000300: da01 6fbd 7bf4 953d 4822 86bd 5ec1 9dbd
00000310: d776 6cbd dc7b a73d a9ee 2cbd 160f 623d
00000320: a108 c33b cb4f 5a3d 9965 9abd 9ca1 4e3d
00000330: 6efa 1b3d 8592 e13c fb07 b83b 71bb a0bc
00000340: fe0d debb a38d 8b3c f16c 8d3d 3d0e 16bb
00000350: 389e 90bd 95a8 543d 86a8 acbb f5bd 96bd
00000360: b759 35bd 5492 a93c fdad 7d3c 3b63 423d
00000370: 57b2 a1bc 1a95 c63c 49ce 863c c570 57bd
00000380: dd78 9fbd 5a4f 783d ce44 473d bfc7 20bd
00000390: c1cb 923d cc40 353d 8414 7cb8 bdd4 803b
000003a0: a26a 133d f690 713d 7966 a73d dfed b93d
000003b0: 0008 4aba 4040 44bd 4aa3 16bd 25ba 3dbd
000003c0: d34f 3dbd 2722 b4bc 43b1 653d 0221 8ebd
000003d0: 2a60 fd3c 50c0 cebc 8ba1 d23c bdc8 8ebd
000003e0: 4408 9c3d c985 ebbc e885 a73c cbdf 193c
000003f0: 3b9f 08bd 22de 873d ba7b 8fbd eb22 853d
0.008518348 0.05920725 -0.045928378 0.06892528 0.007333768 -0.027220104 -0.042284396 -0.06343149
-0.0072530485 -0.000735622 -0.075957514 0.053469922 -0.032836434 0.026916768 -0.06065554 0.02369083
-0.073958166 -0.0033352755 -0.046125915 -0.027073037 -0.031232616 0.08201476 0.028404476 -0.00034525341
-0.051032424 -0.05505175 0.0025827666 0.07014933 -0.008128435 0.0755516 -0.010659969 0.027259476
-0.027808767 -0.019540481 0.024368864 0.022203084 0.01577925 -0.071072534 0.08239749 -0.014276359
-0.013744805 0.051685244 0.04985211 0.026101844 0.043890223 -0.011660161 -0.05194094 0.020147905
0.04805324 0.019372348 -0.036101293 0.02180486 -0.045969814 0.08233607 0.0012698303 0.05072154
0.018698754 -0.0018434849 -0.055595372 0.052328143 -0.052575503 -0.06327036 0.08715841 -0.07072826
-0.022665834 -0.053124737 -0.029978145 -0.054930463 0.03181329 0.085486755 -0.026037315 -0.08247444
0.023190547 -0.022020224 -0.024027802 0.05838038 0.043161064 0.0031835367 -0.005915834 0.008210236
0.07535027 0.042934254 -0.054100405 -0.021024233 0.07345986 -0.034228455 0.07571665 -0.024634665
0.001028299 0.03972449 -0.03182395 -0.075513735 -0.02916264 -0.015625283 0.058124404 0.057224113
-0.0010867569 0.021452596 -0.061086126 -0.07228597 0.056278236 0.06813091 -0.022561926 -0.044828735
0.033966593 -0.059888754 0.040941615 0.03935656 0.029326402 -0.084431015 -0.04095037 -0.06855561
0.040582743 0.075523436 -0.038098224 0.0087162135 0.03150982 -0.02019018 0.057765506 0.0021981043
0.07532575 -0.061245006 -0.07962183 -0.036703825 0.08110638 -0.042545088 0.094855174 0.048839767
0.014431313 -0.045980748 0.010334246 0.009702622 0.015489048 0.08193535 -0.060039256 0.0055747163
-0.028811567 0.090317436 0.081937954 0.03990963 0.03342565 -0.048291046 0.06477707 -0.017595515
0.015112871 -0.072562255 -0.06944471 -0.016556144 0.03503342 -0.0114108315 0.05566834 -0.08017939
0.07369567 0.0082548065 -0.05559378 0.047263958 -0.07987002 0.07563696 0.097966455 -0.054828875
-0.013171709 -0.07069025 -0.07943018 -0.06577086 -0.005532591 -0.03825679 0.06771427 0.0773012
-0.07640177 0.027696747 0.09821737 0.03624892 0.023094017 -0.037322477 -0.0015600112 0.04866048
0.04173065 -0.048628192 0.03351714 -0.018216686 0.09481375 -0.06258344 0.074873 0.02683768
0.015074531 -0.02932927 0.04618544 0.0010791583 0.038680874 -0.06376445 0.07848953 -0.0026688972
-0.058351375 0.073220216 -0.065495074 -0.077028975 -0.057730522 0.08177921 -0.04221979 0.05519017
0.0059519564 0.053298753 -0.075389095 0.05044709 0.038080625 0.027535686 0.0056161857 -0.019620629
-0.0067765703 0.017035311 0.069055445 -0.002289667 -0.07061428 0.051918585 -0.005269113 -0.0736045
-0.044275012 0.020699657 0.015483377 0.047457915 -0.01973836 0.024241019 0.016455786 -0.05259778
-0.07786725 0.06062255 0.0486496 -0.039252993 0.07167769 0.04425125 -6.010059e-05 0.0039316104
0.035990365 0.058976136 0.08173842 0.090785734 -0.00077068806 -0.047912836 -0.03677682 -0.0463201
-0.046218704 -0.021988941 0.056077253 -0.069398895 0.030929644 -0.025238186 0.025711795 -0.069718815
0.07618764 -0.028750317 0.020449594 0.009391735 -0.03335498 0.06634165 -0.07006021 0.06500801

post.2.bias f4 [128]
00000000: 5576 513d 0705 9abc c13f 40bd b987 ca3d
00000010: c103 483c d981 58bd d4ae 443c 5c56 5ebd
00000020: fbaa 92bd 5b4b 9dbd 3ed2 b03a 685d 7e3d
00000030: dcd7 5dbc 313b c63d 2952 7e3c c594 923d
00000040: c490 783d 507b 92bd f0d3 61bd 465e ca3d
00000050: 5b6c 553c 775c 9ebd 29a0 5cbd 41b3 63bd
00000060: b9f2 20bd 9276 92bd fa7d 91bd ac13 eb3c
00000070: 3df8 a93d ee24 f8bc 8cea 3e3d 00fb 81bd
00000080: 27bf b7bd 04c5 c23d 3b81 693c 4a31 1cbc
00000090: 97c0 d13c 0648 983d d503 7fbd 3ec6 97bc
000000a0: dd33 27bd c392 b23d ed28 483d 20b6 9f3c
000000b0: 2823 973d 28fe ad3d a256 213b 9efe a73d
000000c0: efc5 3b3d 1fb3 2c3c 0bc2 96bc a030 c33b
000000d0: fded 2ebd c010 073d 3913 9bbd 7460 2a3d
000000e0: eab4 9d3d 838d 8fbc 9d6e 833d 7cd8 a7bc
000000f0: 5d14 963d 929a 4fbd 07cf 3dbd 7c01 fdbb
00000100: 3dfb 033d 0dc5 28bd 01d4 803d 511d 623d
00000110: 9787 94ba 1cc0 913d 176f 45bd 0754 2ebd
00000120: 0491 a5bc c8ea 0abc 45f1 8c3c 3d5f 90bd
00000130: eeb0 88bc 283a aebc 8b19 75bd 343b 963d
00000140: 1d51 9cbd de99 823a e7e6 e43c b5d1 ca3d
00000150: 4317 dcbc 3777 9dbd 3d8e e4bc b5f7 ba3c
00000160: 1271 0a3d 4ed4 a73d f116 5b3d 7195 1bbc
00000170: b0fb 94bd e93b 443c d4b4 b5bc 1fb2 133d
00000180: 3012 573d 4008 57bb 2214 89bd 7adc 58bd
00000190: 7715 8c3d 3454 153d 66b8 9c3d 10b6 6dbc
000001a0: 9a62 983a 8bc8 eabc 8d93 25bd 158d 643d
000001b0: 978c d5bb 66b7 173d 5a85 b13d 79f6 883d
000001c0: c1bd a23d 3adb b53d b844 6fbd 5af5 d73c
000001d0: 4a0d b73d 5ba4 323d 4924 a0bd 287c 343d
000001e0: f95f 6b3d ffd2 e0bb f910 543c e1c2 713d
000001f0: 97d8 f73c 234d 6a3d cfa6 48bd 0097 e73c
0.05113824 -0.018801225 -0.0469358 0.09889168 0.012207926 -0.052858207 0.012004573 -0.054281577
-0.07161518 -0.076803885 0.0013490391 0.062100798 -0.013540234 0.096792586 0.015522518 0.07157282
0.060684934 -0.07152426 -0.05513376 0.098812625 0.013026322 -0.0773248 -0.053863678 -0.05559087
-0.03929398 -0.07151522 -0.07104106 0.028695904 0.08299301 -0.030291047 0.0466104 -0.063467026
-0.08972006 0.09510234 0.014252002 -0.009533236 0.02560453 0.074356124 -0.062259514 -0.018527146
-0.040820945 0.08719399 0.048867155 0.019496024 0.073797524 0.08495742 0.0024618288 0.08202861
0.04584306 0.010540753 -0.018403074 0.0059567243 -0.042707432 0.03297496 -0.07572026 0.04159589
0.07700522 -0.017523533 0.06417582 -0.02048897 0.07328103 -0.05068452 -0.046340015 -0.007721124
0.03222202 -0.041203547 0.062904365 0.05520374 -0.0011331913 0.0711672 -0.048201647 -0.042560603
-0.02021075 -0.008478828 0.01720489 -0.07049415 -0.01668593 -0.021267965 -0.059838813 0.07335511
-0.07632659 0.0009964069 0.027942134 0.0990328 -0.02686656 -0.07688754 -0.027899856 0.022823194
0.03379924 0.08194791 0.053488676 -0.009496079 -0.07274568 0.011977174 -0.022180952 0.03605854
0.05250758 -0.0032811314 -0.06693293 -0.052944638 0.068400316 0.036457255 0.07652359 -0.014508739
0.0011626065 -0.02866008 -0.04042392 0.05579861 -0.0065170038 0.037040137 0.08668013 0.06687636
0.07946349 0.08879705 -0.058415145 0.02636211 0.089380816 0.043613773 -0.07819421 0.044063717
0.057464574 -0.00686109 0.0129435 0.05902374 0.030254645 0.05720247 -0.048987206 0.028270245

lstm.weight_ih_l0 f4 [512, 128]
00000000: a4e7 dfbb 0faf 8c3c ee20 cebc c07a 5cbc
00000010: 53d2 b8bc 1605 6fbd fa78 9abd dbb8 9e3d
00000020: 065f 6cbb d878 eabc 5bb6 a3bd 6c73 b2bc
00000030: 29ab d8bc 7aca 1c3d 5530 323d e51a 5cbd
00000040: 8401 10bc 57e0 5fbd b43b d23c b044 a6bd
00000050: 5f82 56bd 7a81 95bd 3cc0 7cbd f1ac b4bd
00000060: 5c9b b03b 6ed8 4cbd 91a9 433c f0ff 733d
00000070: d9b7 c33c 1cf5 b33d 3a73 053d 20fc 4abd
00000080: 427a a53c 6418 1a3d 2b5f 1e3d d1bc f6bc
00000090: 6458 99bd 9dc9 1e3c 857e 6f3d 747c d2bb
000000a0: 254d 823d d148 7a3d f8ec 8bbd b7b7 7b3d
000000b0: 0733 0fbb 126e 97bd 5ab5 fc3c 709f 9f3d
000000c0: 8d7f 253c 88a2 3fbc 7e36 d0bc 5059 4d3d
000000d0: 2df6 7f3d 5352 d73c 22f1 31bd fddb 41bd
000000e0: ed61 6a3d 7505 b33d f827 9e3d c5b3 b1bb
000000f0: fe29 a43d b6a6 32bd 8782 a53c b0d9 36bd
00000100: 744e 6dbd aae3 35bd e660 39bd 7ae4 02bd
00000110: 156a d4bc 4e70 963c 8389 4d3d f728 a33d
00000120: 8642 a4bd a8dc 253c 4e40 c6bc a94a acbc
00000130: b89b 85bd 4845 6e3d 40ea 62bd bcf8 a3bc
00000140: a2d9 7cbd 6020 a4bd b285 0c3b 3e2e 72bd
00000150: cd1c d6bc 6477 e23c 3b18 a2bd f5a8 35bc
00000160: 9142 30bd 482a 763d d128 753c fa17 a63d
00000170: 586a a53d 67d6 0c3d 655d 0f3d 17a9 0e3d
00000180: 2a16 f13c 3062 a23b 9c72 893c e00d 3dbc
00000190: 182d 973d dbe9 b03c d20b 7dbd 45ad 843d
000001a0: c1eb aabd 992b eebc 7c63 1e3c eb3c ad3c
000001b0: fa76 013d 54f3 6e3d 168e 523d f5aa abbd
000001c0: a62b 943d 22ac 5f3d ec9b 843d 33db 1b3d
000001d0: 9159 3dbd a6af c3bc 6cbe 69bd 4e9e 6e3d
000001e0: c4a5 fc3c 6fee ce3c b7f6 8fbd f27d f83a
000001f0: 9cf0 883c 8d77 91bd 7809 2d3d 697b 923d
00000200: b7a7 8e3d 28ea 3cba 43bf fbba ec3f 493d
00000210: 235f 7fbd e5b2 1cbd c2f9 853d 0e57 e23b
00000220: 00e2 45bd 7910 a8bd aced fdba 0c3b 473d
00000230: 1c20 6bbd d6c8 f03c 7427 a63d ef79 323d
00000240: 257b 0d3d 22c0 5dbd b0bc 413d 2188 523d
00000250: d443 a9bd d636 81bd b312 a83d eba1 883d
00000260: 3415 68bc 881f 76bd 39b5 883d bd4a 5f3c
00000270: f8e1 1bbd 2d90 03bc 65fa 9bbc d543 043d
00000280: feea a8bc bbbd 4abd 4a64 d03c ca7b a63d
00000290: 2a57 03bc 6105 523d cc43 36bd 7f71 9dbd
000002a0: 3aaa 7cb9 c33d 1cbd a50f 5dbd ca25 a03d
000002b0: 8e17 473d 9eab af3c 492d 9dbd 2236 043c
000002c0: 5160 b83d 1c96 9ebd d790 aa3d d1a4 273d
000002d0: 9e2f df3c f31d c53c 1cd0 1bbd 7902 ac3d
000002e0: 7871 08bc a71f 9f3c dd29 0dbd ae1a 853d
000002f0: 9162 433d da95 dc3c 970c a3bd d81d 953d
00000300: 993f 86bd 1a98 8f3c 09d7 88bd b1cf 25bd
00000310: 2e73 263b a35a 4bbd b281 b1bd 81a0 9e3d
00000320: 6ce6 21bd 9182 b3bd bec0 9c3d d6ea 9d3c
00000330: 2552 b1bd aec5 85bd cb20 82bd 82b1 0bbd
00000340: ea3c 113d 6f5f 3dbc f693 ba3c a32a 16bd
00000350: b189 a23d f588 10bd 5d6d 26bd 32f7 843d
00000360: ce71 c33c c905 7a3d 708c 22bd 5553 283d
00000370: 8be8 4c3d 2cba a93d 98f8 49bc b536 a5bd
00000380: 6a83 6c3c 88f6 47bd 6e82 bd3d c736 943b
00000390: 9fc9 aa3d f805 7dbd 154b 653d 9ef1 5f3d
000003a0: fb4f 823d d201 b0bd 8d7d 5b3d d2a2 a43c
000003b0: e3b5 18bd 2eee 8bbd 1691 ae3d 8366 7b3c
000003c0: a9e4 13bb eb30 c03d 5ab8 66bb 1c31 193c
000003d0: 6288 bf3d 7cae 383d 38b2 0ebd 3919 6fbc
000003e0: f0ee 9cbd 4f2e 553b 138f 01bd e5d7 953c
000003f0: b3c3 903c cd2e 40bd 965f e0bc d8bd 4f3d
-0.0068330336 0.017173318 -0.025162186 -0.013457 -0.022561228 -0.05835446 -0.07542606 0.07750102
-0.003606738 -0.028622076 -0.07993766 -0.021783553 -0.026448803 0.038279034 0.043503124 -0.053736586
-0.008789424 -0.054657307 0.025663234 -0.0811857 -0.052370425 -0.07300086 -0.061706766 -0.088220485
0.005389614 -0.05001109 0.011942283 0.059570253 0.023891376 0.08786985 0.03258059 -0.04955685
0.020199899 0.037620917 0.038664978 -0.030119332 -0.07487562 0.009691623 0.058470268 -0.0064235274
0.063623704 0.0611046 -0.068323076 0.0614545 -0.0021850483 -0.07394041 0.030848194 0.07794082
0.010101211 -0.011696465 -0.025416609 0.050134003 0.06249063 0.026284372 -0.043442853 -0.047328938
0.057222296 0.08741275 0.07722467 -0.0054230415 0.08015822 -0.04361602 0.020203842 -0.044641197
-0.057936147 -0.04440657 -0.045258425 -0.031956173 -0.02592949 0.018364098 0.05017997 0.07966798
-0.08020501 0.010123409 -0.024200585 -0.021031694 -0.065238416 0.05817154 -0.05539918 -0.020016067
-0.06173099 -0.080139875 0.0021441993 -0.05912613 -0.02613678 0.02764482 -0.07914778 -0.011087646
-0.043032233 0.060098916 0.014963345 0.08110042 0.08076924 0.034384158 0.035001177 0.034829225
0.029429514 0.0049555525 0.016778283 -0.011538953 0.07381648 0.021595886 -0.06177885 0.06478361
-0.08345748 -0.029073523 0.009667274 0.021147212 0.031607606 0.058337525 0.051405035 -0.08382217
0.07234888 0.054607518 0.06475052 0.03805084 -0.046227995 -0.023887467 -0.057066366 0.05825644
0.030840762 0.025260178 -0.07029479 0.0018958433 0.016716294 -0.071028806 0.04224536 0.07152445
0.06965583 -0.0007206523 -0.0019206781 0.049133226 -0.06234659 -0.038256545 0.06541778 0.0069073504
-0.048311234 -0.08206267 -0.00193732 0.048640296 -0.05740367 0.029392641 0.08112994 0.043573316
0.034541268 -0.05413831 0.047299087 0.051399354 -0.0826489 -0.06309287 0.082066916 0.066715084
-0.0141652115 -0.060088664 0.066751905 0.013628659 -0.038057297 -0.00802998 -0.019040296 0.032291252
-0.020619866 -0.049497347 0.025438447 0.0812908 -0.008016387 0.05127466 -0.04449825 -0.07687663
-0.00024096007 -0.038144838 -0.053969998 0.07819708 0.048606448 0.021444138 -0.07674653 0.008069547
0.09002746 -0.07743475 0.08328407 0.040928666 0.027244385 0.024062132 -0.038040265 0.08398909
-0.008327834 0.019424273 -0.034463752 0.06499229 0.047701422 0.026926924 -0.07961386 0.07281083
-0.06555099 0.017528582 -0.0668164 -0.040481273 0.0025398242 -0.049646985 -0.086673155 0.077454574
-0.039526388 -0.08765138 0.0765395 0.019277018 -0.08658246 -0.06531845 -0.06353911 -0.03410483
0.035458483 -0.011558398 0.022775631 -0.036661755 0.07936419 -0.035286862 -0.04063164 0.06492461
0.023857977 0.061040673 -0.039684713 0.041095097 0.050026458 0.082874626 -0.012327336 -0.08067075
0.014435628 -0.048819095 0.09253393 0.0045231315 0.083392374 -0.06177327 0.055979807 0.054673783
0.06362911 -0.08594097 0.05358653 0.02009717 -0.037282836 -0.068325385 0.08523767 0.015344265
-0.0022566712 0.0938433 -0.0035205097 0.0093500875 0.09352185 0.045088276 -0.03483793 -0.014593416
-0.07662761 0.0032528823 -0.031630587 0.018291423 0.017671442 -0.046919633 -0.027389329 0.05071816
