RL/ablation_No_GNN_20260129_012400/ckpt_ep100.pt (torch, 784866 bytes, 31 tensors)

gcn1.lin.weight f4 [64, 10]
000000 92 5f b9 bd 9b d5 86 3e 80 41 4e 3d 83 3b 9f be
       -0.09051432 0.26334843 0.050355434 -0.3110009
000010 50 ac b5 3d b4 7b 9e 3d 86 81 6d 3e aa 8b 48 3e
       0.088707566 0.07738438 0.2319394 0.19584528
000020 02 fe ce bd 00 8e 2f bd 45 9c 9c be 80 a6 2e bc
       -0.10107042 -0.04286003 -0.30587974 -0.010659814
000030 e4 e3 8f bd e4 d6 5a be ba 57 20 be 21 92 95 3e
       -0.070258886 -0.21371037 -0.15658465 0.2921305
000040 98 e8 08 3d 53 f8 85 be 11 3d 94 3e 2f 44 42 be
       0.033424944 -0.2616602 0.2895284 -0.18971322
000050 d2 a9 48 3e 10 aa f7 3c c0 3d 74 bd 46 1c 8c be
       0.19596031 0.03023246 -0.059629202 -0.2736532
000060 1a bf 1e be 22 82 99 be 3e 72 50 3e df 9a 82 3e
       -0.15502587 -0.29982096 0.2035608 0.25508782
000070 e8 2c bf 3d 03 3e 58 be ba dd 79 3e a8 9b 9a bd
       0.09334737 -0.21117406 0.24400988 -0.0754922
000080 8e c1 db bd f6 6a 39 3e 66 69 4a 3e 8b c0 8c 3e
       -0.10730277 0.18107209 0.19766769 0.2749065
000090 40 26 02 3c 48 60 31 be 5a c0 70 3e 0f 49 89 3e
       0.00794369 -0.17321885 0.23510876 0.26813552
0000a0 80 ca 72 be 00 2f 90 bc 86 23 dc bd 4a 6b 11 3e
       -0.2371006 -0.017600536 -0.10748963 0.14201084
0000b0 00 62 d8 bb b8 a2 75 bd 0f db 94 3e 80 dd 09 bd
       -0.0066034794 -0.059969634 0.29073378 -0.033658504
0000c0 6e 49 8f bd 78 fb 82 3d c0 96 40 bd d0 49 9e be
       -0.069964275 0.0639562 -0.047018766 -0.3091569
0000d0 6a da 7d 3e 2c 78 89 3d da 17 98 be d2 4c 12 3e
       0.2479035 0.06712374 -0.29705697 0.14287117
0000e0 75 6d 1e be d0 e4 10 3e 90 cb 90 bd e4 3a 80 be
       -0.15471442 0.14149785 -0.070700765 -0.2504493
0000f0 e7 6c 8f 3e 12 4a 7d 3e a6 15 d6 bd a0 72 8c 3d
       0.28012773 0.24735287 -0.10453348 0.068578005
000100 6b 06 99 3e d3 2b 8f be dd 02 83 be f6 e7 e3 bd
       0.2988771 -0.27963123 -0.25588122 -0.111282274
000110 b7 c6 90 be 02 64 1c 3e 18 22 73 bd 18 83 01 3d
       -0.28276607 0.15272525 -0.059358686 0.03161916
000120 b4 f7 1d 3e 8e 71 80 be 38 30 fa 3d f2 e4 23 3e
       0.15426522 -0.25086635 0.12216228 0.16005304
000130 02 9c 69 be f3 bb 97 3e 38 4d 39 bd e6 af da bd
       -0.22813419 0.2963558 -0.045239657 -0.10678081
000140 cc 3b 04 3e 20 30 f6 3c c9 08 63 be 60 ca 88 3d
       0.12913436 0.030052245 -0.2217132 0.06679225
000150 f0 55 b8 3c d3 f5 99 3e d5 8c 8b be 30 b1 c4 3d
       0.022501916 0.30070361 -0.27255884 0.09604108
000160 72 11 b7 bd 3a 15 42 3e 1a a3 24 be 7e 0f 66 be
       -0.08938874 0.1895341 -0.16077843 -0.22466847
000170 98 34 1f 3e 40 5e 79 bd fc 50 97 3d d0 24 e3 bd
       0.15547407 -0.0608809 0.073884934 -0.11091006
000180 5f 7b 99 3e 54 b7 83 3d e0 ed 36 bc 85 ce 97 3e
       0.29976937 0.064314514 -0.011165112 0.2964975
000190 15 29 95 3e ce b1 4b 3e ab f3 89 3e 20 aa cc bc
       0.29132906 0.19892046 0.26943716 -0.024983466
0001a0 38 ab dc 3d e8 4c 00 3d ee fe 33 be 67 bb 90 3e
       0.10774845 0.031323344 -0.17577717 0.28267977
0001b0 80 a3 1a bd 2e 80 3d 3e dd fe 1e be 3c f3 9e 3d
       -0.037753582 0.18505928 -0.1552691 0.07761237
0001c0 c2 9f 3f 3e 40 7f a2 bd 55 f1 8f 3e 62 5e 49 be
       0.18713287 -0.07934427 0.2811381 -0.1966491
0001d0 4b 8a 84 3e 21 e8 71 be a4 7d 46 be 18 28 b7 3d
       0.2588676 -0.23623706 -0.19383866 0.08943194
0001e0 61 75 82 3e a6 45 57 3e e6 09 2f be 1d 9a 58 be
       0.25480178 0.21022663 -0.1709362 -0.2115254
0001f0 74 96 e0 3d ac 91 93 be 0a 9f 6e be 04 8a 28 be
       0.10966197 -0.28822076 -0.23302856 -0.16458899
000200 88 07 8a be a0 b7 32 be 3b e6 8d 3e b8 de e3 3d
       -0.2695887 -0.1745286 0.27714714 0.111264646
000210 68 06 82 bd 38 5b 00 3d 94 06 81 3d e2 6d 62 3e
       -0.06348878 0.031336993 0.06300083 0.2211223
000220 76 b7 1e 3e c6 07 6e 3e 01 29 82 3e 74 3f 33 3e
       0.15499672 0.23245153 0.25421908 0.17504674
000230 81 23 a0 3e 7e 69 14 3e 60 6e 3b be 00 2a 59 bc
       0.31277087 0.14493367 -0.18303823 -0.0132546425
000240 a2 f0 20 3e 93 1b 30 be ce dd 63 be 1f fa 1b be
       0.15716794 -0.17198019 -0.2225258 -0.15232132
000250 0d f0 84 be 20 8d 0d bc b1 f8 8a 3e f8 a5 b8 3d
       -0.25964394 -0.008639604 0.2714286 0.09016031
000260 bb cf 9b 3e 00 b3 32 3d 00 6a 81 bd ea f5 6b be
       0.30431923 0.04362774 -0.06319046 -0.23043028
000270 5f eb 87 3e 2d f9 9d 3e d8 15 5d be d0 71 b8 bc
       0.2654676 0.3085417 -0.21590364 -0.022515208
000280 82 e0 86 be 8d 29 8f 3e 99 9f 8c 3e c1 34 9a 3e
       -0.2634316 0.27961388 0.27465513 0.30118373
000290 da 4f 3e 3e 48 71 11 be 40 7f 75 3c ba 96 43 3e
       0.18585148 -0.1420337 0.014983952 0.19100466
0002a0 98 1d 2f 3e 10 f1 8e bc f8 f3 29 3d 97 82 54 be
       0.17101133 -0.017448932 0.041492432 -0.20752941
0002b0 07 76 15 be cc 1c bd 3d d4 04 62 be 16 73 2f be
       -0.14595805 0.09234008 -0.22072154 -0.17133746
0002c0 1a ee cb bd 59 d3 9e 3e e0 42 ed bc fa 5b d4 bd
       -0.09957524 0.3102062 -0.028962553 -0.10369106
0002d0 74 f8 ea 3d 52 e1 31 3e f2 c9 64 3e 20 e1 0a 3c
       0.1147317 0.17371109 0.22342661 0.008476526
0002e0 2d 1c 89 3e 1e ee 9d bd e3 8b a1 3e 80 6e bd 3b
       0.2677931 -0.07711433 0.31552038 0.005780995
0002f0 cc dd 7f be 5c 35 e1 bd 65 03 3f be 88 d2 1d bd
       -0.24986953 -0.109965056 -0.18653639 -0.038530856
000300 5a 04 38 be 9c ce c1 3d 3a 61 02 be 28 ad 97 be
       -0.1797041 0.09463236 -0.12732401 -0.29624295
000310 fc 48 3d be ef 38 9a be b0 83 87 3d 0f 22 1a be
       -0.18484873 -0.30121562 0.06616914 -0.15052055
000320 e0 80 ef 3d 11 fd 94 3e da 69 86 be d8 85 45 bd
       0.11694503 0.29099324 -0.26252633 -0.048223346
000330 23 6c 15 be 56 19 78 3e f6 43 35 3e 16 84 78 3e
       -0.14592032 0.24228415 0.17701706 0.24269137
000340 41 73 92 3e ed ac 49 be ec 52 d1 3d 54 4d d6 bd
       0.28603557 -0.19694872 0.10220894 -0.10463968
000350 dd 31 89 3e f2 5a 23 3e 19 93 01 be e0 fa 66 bd
       0.26795855 0.15952662 -0.1265377 -0.056391597
000360 aa 63 78 be 48 75 0e 3d 9f ef 93 be 37 d7 90 3e
       -0.24256769 0.034779817 -0.28893754 0.28289196
000370 ea ea 24 3e 20 20 9e be 7d 3c 8e 3e a5 87 9c be
       0.16105238 -0.30883884 0.27780524 -0.3057224
000380 c0 bd 2a 3d 04 df 5c be 02 98 39 be 06 3c 6e be
       0.041684866 -0.21569449 -0.18124393 -0.23265085
000390 3f 60 8c be 80 79 6c 3c 90 19 90 3c 54 7f 9f bd
       -0.2741718 0.014433265 0.017590314 -0.07787958
0003a0 7a b8 71 3e 05 69 55 be 06 19 eb bd b0 95 84 bc
       0.23605528 -0.20840843 -0.11479382 -0.016184658
0003b0 6a 1a 04 3e 94 b6 c1 bd 20 f8 03 be 70 73 84 bc
       0.12900701 -0.09458652 -0.12887621 -0.016168326
0003c0 20 af 3b bd 72 75 10 3e 0c d6 ff 3d b0 05 02 3d
       -0.04582131 0.14107302 0.12491998 0.031743705
0003d0 6c 00 51 be 0c 0f 24 3e 74 6a e8 3d 51 e3 1f be
       -0.20410317 0.16021365 0.11348429 -0.15614058
0003e0 98 be 1d bd 92 ab 75 3e e0 e9 08 be 8e d8 7b be
       -0.038511842 0.2399123 -0.13370466 -0.24594328
0003f0 54 66 97 be d0 7c 05 3d d6 8b 93 be 4d b9 95 be
       -0.29570258 0.032589734 -0.28817624 -0.29242936

gcn1.lin.bias f4 [64]
000000 e6 35 39 3e 58 0e 2e bd 14 41 86 bd 0c f6 a5 bd
       0.18086967 -0.042494148 -0.065553814 -0.0810357
000010 60 72 6d bd b0 f5 2d bd 1a 69 6b 3e 00 2c 9c 39
       -0.057970405 -0.042470634 0.22989312 0.0002978742
000020 10 00 ba 3c 8a 8a 75 3e 68 8f 6f be d0 2a 1a 3e
       0.022705108 0.2397863 -0.23394549 0.15055394
000030 c0 e3 a7 3c c0 25 c8 3d 46 6e 1a 3e b0 5b 05 bd
       0.020494342 0.09772825 0.15081128 -0.032558143
000040 40 79 13 3e d8 5d 20 be a3 93 3c be cc 60 75 be
       0.14401722 -0.15660799 -0.18415694 -0.23962706
000050 30 b4 8a be b0 2e 2b bd 98 8a 1c 3e 60 1b fc 3d
       -0.27090597 -0.04179257 0.15287244 0.12309909
000060 d5 f2 3e be 36 ca 7d be aa 15 a0 be 8f 1b a0 3e
       -0.1864732 -0.24784169 -0.31266528 0.31271026
000070 c0 bf a4 bc 00 d1 62 3d 80 5d 90 bb 90 a0 15 3e
       -0.020110965 0.0553751 -0.0044056773 0.14612031
000080 28 d5 94 3d e0 21 16 3c 1a 7c 26 3e e8 3f 1b 3d
       0.07267219 0.00916335 0.16258278 0.037902743
000090 1c 09 94 3d 08 df 16 bd a0 17 c1 3d 30 48 81 3d
       0.072283 -0.036833793 0.09428334 0.06312597
0000a0 f6 d5 14 3e ac 25 23 3e 50 62 21 bd 5c 59 59 be
       0.14534745 0.1593234 -0.0394004 -0.21225494
0000b0 60 66 f1 bd 37 ed 94 be 6b 78 93 3e 52 f3 47 3e
       -0.117871046 -0.2908723 0.2880281 0.19526413
0000c0 b0 3e 2a 3e 9a 23 14 3e f7 37 85 3e 3a 8a 7e be
       0.16625476 0.14466706 0.2601926 -0.24857417
0000d0 5b d5 8b 3e b8 90 29 bd 02 89 7b 3e ba c8 92 be
       0.27311215 -0.04139778 0.24563983 -0.28668767
0000e0 30 44 ea 3d 4b 93 2e be b8 99 45 3d 3d 62 98 be
       0.11438787 -0.17048375 0.0482423 -0.2976245
0000f0 80 8b a2 3b 00 b4 71 ba c3 66 99 3e 3e e5 57 be
       0.0049604774 -0.00092202425 0.29961213 -0.21083543

gcn2.lin.weight f4 [64, 64]
000000 0c 56 0f bd e0 3a f7 bd 06 cc 93 bd f4 19 be 3d
       -0.03499417 -0.120717764 -0.07216649 0.09282294
000010 30 d1 8a 3d 20 db b4 3c 7a 56 b6 bd 20 66 e1 bd
       0.067781806 0.022077143 -0.08903213 -0.11005807
000020 9c 6b 36 3d 9e 62 de bd 9c 0a f3 bd 84 bc 5d bd
       0.044536218 -0.108586535 -0.11867258 -0.05413486
000030 80 7e fd bd b0 ea 8e bc 68 6f b8 3c 42 a3 ca 3d
       -0.123776436 -0.017445892 0.02251406 0.0989442
000040 c4 22 e0 3d c0 e5 11 bd 8c 9f 9e bd 80 8f 23 bd
       0.10944131 -0.035619497 -0.07745275 -0.039931774
000050 5e d8 b3 3d 96 6c f5 3d f8 ef 84 3d 26 2b ea 3d
       0.08781503 0.11983602 0.06491083 0.11434011
000060 60 eb 4b bd a0 15 31 3c be 8d b6 3d a0 95 c6 3c
       -0.049785018 0.010808378 0.08913754 0.024241269
000070 a0 7e c8 bb 38 43 f9 3d d0 a8 45 3d 30 d1 eb 3c
       -0.0061186105 0.12171024 0.048256695 0.028786272
000080 00 64 89 bc 00 e9 fa ba 30 3a 5d bc 40 18 1b 3c
       -0.016771317 -0.0019142926 -0.0135026425 0.009466231
000090 c0 60 86 bc 78 12 da 3d 64 0a b4 bd f0 0a f2 3c
       -0.016403556 0.10648054 -0.08791044 0.029546231
0000a0 3c d0 8a 3d e0 c6 7e bd ba 04 c0 3d a0 a3 97 3d
       0.06777999 -0.06220138 0.093759015 0.07404256
0000b0 50 f2 83 3d dc 41 90 bd c8 83 f9 bd ac 7b 40 bd
       0.06442702 -0.07043812 -0.121833384 -0.046992943
0000c0 f4 ba fc bd d2 ea 82 3d fc 88 fb 3d 30 fb 3d bd
       -0.12340346 0.06392445 0.12281987 -0.04638213
0000d0 08 98 b0 bc c0 25 37 3d f8 89 1a 3d 58 2a 34 3d
       -0.02155687 0.044713736 0.037729234 0.043985695
0000e0 c8 29 e5 bc a8 77 f1 bc c2 22 a3 bd a8 95 58 bd
       -0.027974024 -0.029476002 -0.07965614 -0.0528771
0000f0 ac 6e 67 3d 80 6d 4c 3b c4 9a 86 bd 30 99 bf bd
       0.05650203 0.0031193197 -0.06572488 -0.0935539
000100 40 38 71 3b 58 8b 1f bd 4e be e5 bd cc 78 6f bd
       0.003680721 -0.038951248 -0.11217938 -0.05846481
000110 80 31 87 3b 36 10 80 3d c8 36 89 bc 48 7f f5 bd
       0.004125774 0.06253092 -0.016749755 -0.119871676
000120 40 26 0b 3d a0 c0 a1 bd 24 75 59 3d de 81 f1 3d
       0.033972025 -0.078980684 0.05309023 0.11792348
000130 52 9a c9 3d f8 e4 86 3c ba a6 ab bd 48 34 b4 bd
       0.098438874 0.016466603 -0.0838141 -0.08799034
000140 d8 65 d6 bd 04 29 54 3d 00 e4 73 39 b0 c8 4c bc
       -0.10468644 0.051796928 0.00023259223 -0.0124990195
000150 b4 7a 47 3d 62 bf de 3d 6a cb ae 3d 98 11 17 3d
       0.048701003 0.10876347 0.08534892 0.036882013
000160 84 33 22 bd 48 1b e6 bc 88 e8 b5 bd 20 fa df bb
       -0.03959991 -0.02808918 -0.088822424 -0.006835237
000170 fe 94 87 bd 78 a9 cf 3c 00 42 1e 3a 20 ea 98 bc
       -0.06620215 0.025349364 0.00060370564 -0.018666327
000180 a4 df 5d 3d 6a ee 82 bd a0 96 cd bb 3e 68 b6 bd
       0.05416836 -0.0639313 -0.0062740594 -0.08906601
000190 b2 95 a4 bd 9a 5a 8d bd ee 65 9f bd 74 5c f9 bd
       -0.080363646 -0.069020465 -0.077831134 -0.12175837
0001a0 1c 91 03 bd 82 90 87 bd 00 6a 85 bd ea f1 f8 bd
       -0.03212081 -0.066193596 -0.065143585 -0.121555164
0001b0 70 fc 1b bc e4 17 da 3d 18 b6 a5 bc 66 ab b1 bd
       -0.009520635 0.10649088 -0.02022843 -0.0867527
0001c0 f0 71 65 bd 94 4d 94 3d 24 90 84 bd 90 8b 2c bd
       -0.056016862 0.07241359 -0.06472805 -0.042125285
0001d0 a6 5d db bd c4 35 dd 3d d8 69 c3 bc d4 2b 8e 3d
       -0.107112214 0.108012706 -0.023854181 0.06941953
0001e0 80 b4 50 bc 90 f7 a3 3d 82 2e cd 3d 16 42 93 bd
       -0.012738347 0.08006203 0.10018636 -0.07190339
0001f0 30 89 d8 3d f8 9c 88 bd 74 6d bc 3d c0 cb fa 3c
       0.105730414 -0.066705644 0.09200564 0.030614734
000200 5c 5d dc 3d e8 2f 11 3d 38 1b d5 3c c2 75 fd 3d
       0.107599944 0.035446078 0.026013955 0.12375976
000210 48 c9 4c 3d e0 f1 45 3d fa 92 9b bd b8 04 48 3d
       0.049996644 0.048326373 -0.07596393 0.048832625
000220 d0 ca a7 bd b0 90 83 bd c0 83 0b bb a0 eb ba 3c
       -0.0819298 -0.06424081 -0.0021288246 0.022817433
000230 ee f6 b1 bd 1a 1e 82 3d b0 d6 5a 3d 5a a8 ed bd
       -0.08689676 0.06353398 0.0534274 -0.11604376
000240 c4 fa 10 bd 84 59 e1 bd 60 62 d5 3d 60 f8 68 3c
       -0.0353954 -0.11003402 0.10419154 0.014219373
000250 64 2e 75 bd f0 23 78 3d d8 2a c3 bd a6 33 87 bd
       -0.059858695 0.060581148 -0.09529656 -0.06601648
000260 e0 05 94 3d e6 bf d9 3d a0 40 61 3d b6 48 ea bd
       0.07227683 0.10632305 0.05499327 -0.1143965
000270 a0 a2 ef 3d 58 3f ee bd 56 90 ee bd fc b6 77 3d
       0.1170094 -0.116331756 -0.11648624 0.060477242
000280 d0 a8 5e 3c 40 3d b4 3b 40 e4 dc bb aa f8 e2 bd
       0.013590053 0.0055004656 -0.0067410767 -0.11082585
000290 5a 36 ef bd 50 a2 8c 3c 10 46 ce bd f0 d5 60 bc
       -0.116802886 0.01716724 -0.10071957 -0.013722882
0002a0 58 7d eb 3c ce f4 c8 3d 60 c0 bc bb 64 49 2c 3d
       0.028746292 0.09812318 -0.0057602376 0.04206218
0002b0 54 07 7c 3d 30 54 38 3c 00 ab 44 3b 90 a4 2f bc
       0.061530426 0.011250541 0.003000915 -0.010720387
0002c0 72 2c 9e 3d 00 d3 1a 3c 1c 65 d2 bd 16 fd fc bd
       0.07723321 0.00944972 -0.10273191 -0.1235296
0002d0 ac 5e df 3d 44 28 22 3d de fe f3 bd ac 03 37 3d
       0.10906729 0.03958918 -0.119138464 0.044681236
0002e0 70 44 8b 3c a0 c3 ca 3d b0 27 ba bd f0 5e 13 bd
       0.017000407 0.09900594 -0.09089601 -0.03597921
0002f0 f6 f3 c6 3d 48 5d bf 3c 9c b8 4d bd f4 d2 ac bd
       0.097145006 0.02335991 -0.050224885 -0.084386736
000300 ac 90 c5 3d 00 d8 95 ba 6c bf 1f bd 94 cd d3 3d
       0.096467346 -0.0011432171 -0.039000914 0.10341945
000310 04 a6 78 bd dc 36 49 bd 14 2b 89 bd 56 48 e9 3d
       -0.0607052 -0.049124584 -0.066976696 0.1139075
000320 e0 3a 45 3d 9c 07 27 bd f4 78 f5 3d ea e8 d7 bd
       0.04815185 -0.04077874 0.119859606 -0.10542472
000330 bc 7e 02 3d a8 9c 9b bd d4 5d e6 3d f8 87 bc bc
       0.031859145 -0.07598239 0.11248365 -0.023014054
000340 c0 0b 07 bb 86 3b bd 3d 90 38 8f bc c0 e2 c3 3c
       -0.0020606369 0.09239869 -0.017483026 0.023911834
000350 2c 79 70 bd 62 d6 a3 bd 20 3d ca 3c 9a 92 b2 3d
       -0.05870931 -0.07999875 0.02468735 0.08719368
000360 fc 52 cb 3d c8 ea 9e 3c 5c 7a 4d bd b0 bb a4 3d
       0.099279374 0.019399062 -0.05016552 0.08043611
000370 08 07 c4 3c 00 cf 95 3c 98 09 1f bd e6 92 a0 3d
       0.023929134 0.018287182 -0.03882751 0.07840519
000380 78 38 84 bd 80 f3 9b 3b d0 a8 8e 3c 98 a8 ce bc
       -0.06456083 0.004759252 0.01741448 -0.025226876
000390 58 90 59 3d 16 42 f1 3d 64 26 d6 3d 00 33 5d bc
       0.053116173 0.11780183 0.10456541 -0.013500929
0003a0 00 68 b1 ba 50 1d d0 bc 08 4c 2c 3d 8c 56 a6 bd
       -0.0013535023 -0.025404602 0.042064697 -0.08121976
0003b0 00 bd b5 3d 00 51 d0 bb b8 ea 6c bd 40 86 8f 3d
       0.088739395 -0.006357312 -0.057841033 0.07008028
0003c0 f8 77 c9 bd 20 cf a7 3c 5c f1 f4 3d ba 41 99 3d
       -0.09837335 0.020484507 0.11960098 0.074832395
0003d0 cc a2 13 bd e0 77 5b 3c 04 00 0a bd 7c f9 9c bd
       -0.036043927 0.01339528 -0.03369142 -0.07664773
0003e0 28 a5 04 3d 7c f7 0b 3d 02 a5 83 3d 02 e8 b4 bd
       0.032384068 0.034171566 0.06427957 -0.088333145
0003f0 6a 59 85 3d f8 92 ac bc 58 88 dd 3c 22 3e d9 3d
       0.06511195 -0.021066174 0.027042553 0.10607554

gcn2.lin.bias f4 [64]
000000 ce 10 91 3d 04 e3 d1 3d 10 c3 15 3c 1c 65 64 3d
       0.07083283 0.10248378 0.009140745 0.055760488
000010 78 0e e1 bc 7c ba d6 bd b0 eb f9 bc 3a 8b a1 3d
       -0.02747272 -0.10484788 -0.030507892 0.078878835
000020 64 da 69 3d 88 f6 54 3d 52 f5 ba bd d0 17 6e 3c
       0.05709304 0.051992923 -0.091288224 0.0145320445
000030 6c 30 07 3d c6 79 89 3d 80 04 ca 3c 10 3f ec 3c
       0.033005163 0.067126796 0.024660349 0.028838664
000040 28 98 83 3d b4 01 fa 3d 04 56 dc 3d 30 7c 84 3c
       0.06425506 0.12207356 0.10758594 0.016172498
000050 0c 4c 7c bd 84 a5 d4 bd 54 b6 9d 3d f4 dc c0 3d
       -0.06159596 -0.10383132 0.07700792 0.094171435
000060 90 5f 33 3c c0 0b 53 bc a8 0f 82 3c ee e3 aa 3d
       0.010948077 -0.012881219 0.015876606 0.083442554
000070 00 1c 18 bb 40 73 63 bc 1a 5d b4 3d 72 4a 94 bd
       -0.0023210049 -0.013882458 0.0880682 -0.07240762
000080 e0 85 51 3c 48 d5 2e bd c0 a7 47 bd c0 ee 03 bd
       0.012788266 -0.04268387 -0.048743963 -0.03221011
000090 36 89 d2 3d 20 38 79 3c f0 59 1c bd 80 5d a1 bb
       0.10280077 0.015211135 -0.03817171 -0.004924476
0000a0 c8 74 fb 3c 7e d9 e0 3d 22 c5 87 3d 52 ae 99 bd
       0.030695334 0.10978983 0.06629397 -0.07503952
0000b0 70 97 7c 3d 28 07 6b bd 54 c0 5d 3d 00 4c 67 39
       0.06166786 -0.05737987 0.054138497 0.00022058189
0000c0 30 d5 c3 3d 70 ce 92 bc 60 8a 14 bd b2 11 8d bd
       0.09562147 -0.017920703 -0.036264777 -0.06888141
0000d0 0a 48 b6 bd 90 b4 ef bc f4 a4 0c bd d8 ad cd bc
       -0.08900459 -0.029260904 -0.034337 -0.02510731
0000e0 1c 7a 7e bd 40 98 0e 3c b8 18 b2 bd e0 94 8b 3b
       -0.06212817 0.008703291 -0.08696121 0.0042596906
0000f0 80 1d aa 3a d0 92 22 3d 30 36 24 bd 74 d6 fd bd
       0.0012978762 0.039690793 -0.04009074 -0.12394419

no_gnn_proj.weight f4 [64, 10]
000000 8f 5a 1d 3b 73 d6 40 3d 81 dc 51 3e ad de 50 be
       0.0024010276 0.047079515 0.20494272 -0.20397444
000010 a8 23 a1 3d 5e 44 73 3e cf 90 1c 3e 2b c4 d1 bd
       0.07868129 0.23756549 0.15289615 -0.10242494
000020 07 25 11 be b4 46 83 3e e4 49 42 3c fa 65 a2 bd
       -0.14174281 0.2563988 0.011858437 -0.07929607
000030 2f 58 74 3e 44 71 2f 3e d3 e0 80 3e 28 86 00 3e
       0.23861764 0.17133051 0.25171527 0.12551177
000040 11 54 81 3a 2c e1 d8 bd 9b 18 29 3e 0e e4 f5 bd
       0.0009866973 -0.10589823 0.16513292 -0.120063886
000050 b9 26 6c be 74 f3 43 3e 6b 4b 8e 3e a8 e5 54 bd
       -0.23061647 0.19135839 0.27791914 -0.05197683
000060 71 19 55 3e 8e aa 24 be 39 94 6a 3e 5c cc 93 3e
       0.20810486 -0.16080686 0.22908105 0.2886685
000070 08 b3 8a 3e 9d 8c 90 3e 65 af 3f bb e5 91 cb bd
       0.27089715 0.2823228 -0.002924883 -0.099399365
000080 69 e4 61 3e 88 2f 67 3e ae 4d 99 be 8a 09 3f 3e
       0.22059788 0.22576725 -0.29942077 0.18655983
000090 a7 5e 40 be 01 e1 5e bd 67 dd 97 bc 76 c5 12 3e
       -0.18786107 -0.0544138 -0.01853819 0.14333138
0000a0 e8 cf 44 be 3e bb 47 be cc 2e 5c 3e d9 ba 5b 3e
       -0.19219935 -0.19505021 0.21502227 0.21457995
0000b0 fb 62 0b be b0 89 7c bd c0 bb 35 be 81 48 c8 3d
       -0.13611977 -0.061654747 -0.17747402 0.09779454
0000c0 2d 77 48 bd dc 20 a4 be eb af 04 3e 6b a0 8c be
       -0.04894178 -0.3205632 0.12957732 -0.2746614
0000d0 7c 7b 1e be 3f 8f 2c be a6 41 8a bd c0 75 d9 3c
       -0.15476793 -0.16851519 -0.06750803 0.026545405
0000e0 9f 75 70 be f3 fa 1d bd b5 6e 6e 3e 16 32 ef bd
       -0.23482369 -0.038569402 0.23284419 -0.11679475
0000f0 5f 93 2e 3e 7f 2d bc 3d 36 a2 67 bc a9 66 de bc
       0.17048405 0.09188365 -0.014137795 -0.027148562
000100 e4 93 87 3e f9 fa 1a be 80 77 94 3e 33 2c 17 3e
       0.2648002 -0.15134801 0.2899742 0.14762954
000110 3e d4 71 be 7d 7b b7 bd 36 c7 a2 be 10 54 54 be
       -0.2361612 -0.089591004 -0.3179261 -0.20735192
000120 8a b2 87 be 5d 39 c3 bd 75 3f 50 3e 22 0c 43 3e
       -0.26503402 -0.095324256 0.20336707 0.19047597
000130 3d f8 87 be b9 b1 5f 3d aa 52 9e bd 25 63 fe 3d
       -0.26556578 0.05461285 -0.07730611 0.12421254
000140 7b c1 f0 3d 8c e8 3d be 31 66 99 be 9d a6 53 3e
       0.117556535 -0.18545741 -0.29960778 0.20669027
000150 25 d3 82 3e f8 72 3b 3e 74 24 93 3d 7b e5 87 be
       0.25551715 0.18305576 0.07184687 -0.26542267
000160 c7 78 4d be ce 99 31 3e 9d b9 30 be 7b 12 a4 3e
       -0.20065604 0.17343828 -0.17258306 0.3204535
000170 31 8c 80 3e b0 78 61 3e 14 46 05 3e 50 b4 d4 bc
       0.25106958 0.22018695 0.13015014 -0.025964886
000180 d1 01 16 be a6 17 32 be ab a5 07 3e 3e c9 6e bd
       -0.1464913 -0.17391834 0.13246791 -0.05829739
000190 3b 25 45 3d 81 d1 24 3e 69 37 98 be 29 c9 82 be
       0.04813121 0.16095544 -0.29729775 -0.25544098
0001a0 d5 fb 37 be df b8 95 be f3 a2 98 3e de e4 78 3e
       -0.1796716 -0.29242608 0.2981182 0.24306056
0001b0 19 fc 8a 3d d9 f7 6d 3e 2a 4a 73 be e2 4f 37 3c
       0.06786365 0.23239078 -0.2375876 0.011188479
0001c0 b4 66 8e be 0d ab 4e 3e 04 6b ad 3d af 08 12 be
       -0.2781273 0.20182438 0.08467677 -0.14261125
0001d0 b2 66 83 3c 59 f8 70 be 54 b8 a0 be b2 8b 07 bd
       0.01604018 -0.23532237 -0.3139063 -0.03309221
0001e0 fd bf 58 bc 79 46 34 be 0f 58 b1 3d 28 77 0c be
       -0.013229367 -0.17605008 0.08659374 -0.1371733
0001f0 32 1f 6f 3e a1 d3 0e be 80 22 76 3e e0 36 a0 3e
       0.23351744 -0.13947918 0.24036598 0.31291866
000200 35 8d fc 3c 90 92 41 3c b5 e9 16 3d 5b d9 8f 3e
       0.030829052 0.011814728 0.036843974 0.28095517
000210 77 d2 e0 bd ea 59 d9 3d 22 86 47 3e d8 14 ea bd
       -0.10977643 0.10612853 0.19484761 -0.11429757
000220 d3 39 61 3e 4a 63 94 be a0 83 8d be 1d 0b a4 3e
       0.21994714 -0.28982002 -0.27639484 0.3203973
000230 17 3d 3c be bf 1b 0c 3d 98 39 28 be 92 bf f2 3c
       -0.18382679 0.03420615 -0.1642822 0.029632363
000240 e6 22 c1 bd 53 a0 2a be 03 dc 8a be b5 5c ee bd
       -0.094304845 -0.16662721 -0.2712098 -0.11638776
000250 77 71 bf 3d 4e 8f 04 be c4 74 48 bd 6c 4f 77 3d
       0.093478136 -0.12945291 -0.04893948 0.060378477
000260 4d 9d 77 3d 8d d8 5d be 15 5e 4f be ca 1e 28 3e
       0.060452748 -0.21664639 -0.20250733 0.16417995
000270 56 88 62 be db f7 0a bd a3 b3 2f be 8f fc 6e be
       -0.2212232 -0.03392778 -0.1715837 -0.23338531
000280 44 54 6b 3e 5e 8e a2 3e 9d 56 fb bd 95 cb d7 3d
       0.22981364 0.31749243 -0.122723795 0.10536877
000290 31 56 49 be 00 68 55 bc 31 d7 c7 3c a4 ed a7 be
       -0.19661786 -0.013025284 0.024394603 -0.32798493
0002a0 b5 f6 94 3e c0 96 20 3e e5 54 6e bc 27 6c 91 bd
       0.29094473 0.15682507 -0.014546608 -0.071007065
0002b0 5d 11 1c 3c c2 c1 48 be 44 71 c7 bd 0d 99 81 be
       0.009525624 -0.19605163 -0.097384006 -0.2531208
0002c0 0d 7d bb bd 0e 9e 0f be a2 00 d2 bd e9 86 ed 3c
       -0.09154711 -0.14025137 -0.10254027 0.028994994
0002d0 7d 56 0a be 85 62 88 be f5 e4 9e be 12 79 7d bd
       -0.13509555 -0.26637664 -0.31034055 -0.06188304
0002e0 0f 05 94 3e 3c ba e0 3d b1 3d a5 bb df a3 4c 3d
       0.2891011 0.109730214 -0.0050427546 0.049960967
0002f0 8b 95 b2 3d 1f 7d 1b be 32 c8 fe bc a0 ad 9f 3e
       0.08719929 -0.15184449 -0.03110132 0.31187153
000300 5f 65 28 3e ce 77 07 be 21 7c 86 3c 93 7d 81 3e
       0.1644492 -0.13229296 0.016416611 0.25291118
000310 91 55 56 be 7f 47 31 be 3c 0c 0b be c5 13 bc 3d
       -0.20931078 -0.1731243 -0.13578886 0.09183458
000320 50 5a de 3d 06 93 2a be 16 10 68 3e 14 60 cc bd
       0.108570695 -0.16657647 0.22662386 -0.09979263
000330 fa 85 09 bd c0 d9 4d 3d 8a c8 95 be d0 1d b1 bd
       -0.033575036 0.05025649 -0.29254562 -0.086482644
000340 fb c6 7b 3e 2c 82 26 3e d8 16 5e 3e b0 a8 1f 3e
       0.24587624 0.16260594 0.21688402 0.15591693
000350 96 c6 57 3e 5c d1 80 be 92 01 5b 3e 08 bd bf bd
       0.21071848 -0.2515973 0.21387318 -0.09362227
000360 06 44 4e 3d 7b 27 74 be 92 d5 5a 3d e4 78 d9 bc
       0.05035784 -0.23843186 0.053426333 -0.026546903
000370 25 8f 12 be 4e e9 96 3d ac ab 62 3e 32 a0 e7 bd
       -0.14312418 0.07368718 0.221358 -0.11309852
000380 c9 bc 89 be 10 a1 4f bd 19 0f 0d 3e 07 03 43 3e
       -0.26901844 -0.05069071 0.1377529 0.19044124
000390 bb 3f 12 3e 62 15 3a bd 29 a7 05 be 7d 3f b5 bd
       0.14282124 -0.04543055 -0.13052048 -0.0885
0003a0 2d 22 03 3d 05 92 42 3d 75 7a 49 be 20 c6 0a 3c
       0.032015014 0.047502536 -0.1967562 0.008470088
0003b0 77 c3 8c bd 45 29 5b be b5 40 3e 3e 13 ef 93 be
       -0.068732195 -0.21402462 0.18579371 -0.28893337
0003c0 fd f4 10 be 6f 40 27 be b2 84 57 3e ab 87 38 be
       -0.14155956 -0.16333173 0.21046713 -0.18020503
0003d0 c2 01 8d be e6 5b a0 bd c7 0e 74 3e 74 ed 47 bd
       -0.27540404 -0.07830028 0.23833762 -0.048810437
0003e0 f7 c1 39 be 23 4a 8b bd e5 76 86 be be 47 68 be
       -0.18140398 -0.0680125 -0.26262584 -0.22683617
0003f0 42 c7 75 3d 07 df 6f be f6 02 8d 3e e6 34 fd bd
       0.06000448 -0.23424922 0.27541322 -0.12363605

no_gnn_proj.bias f4 [64]
000000 be 54 c1 3d 3a 46 7c 3e 23 11 96 3e 99 00 81 bd
       0.094399914 0.24636164 0.2930995 -0.06298942
000010 15 2f 93 be 6f 56 28 be 44 a3 68 3e e0 e5 a1 bd
       -0.28746858 -0.16439222 0.22718531 -0.07905173
000020 c6 f1 41 be 4b 2b 81 3e 52 7b a4 be 76 eb 0d 3e
       -0.18939885 0.25228342 -0.32125336 0.13859352
000030 31 d4 8e 3e 22 ec 72 bd 27 d4 a6 3d cc 6a b3 bd
       0.27896264 -0.059307225 0.081459336 -0.08760604
000040 a8 15 d7 3b c6 d3 12 be 34 7e 1b bd 85 3d ac 3e
       0.006563861 -0.14338598 -0.037962154 0.33640686
000050 5c b9 93 bd 8e d3 6c 3e 2c 4b 23 3a 41 70 0c ba
       -0.07213089 0.23127577 0.0006229158 -0.00053573033
000060 50 88 7e bc 0a c9 85 3d a9 aa 89 3e 28 3d a3 bd
       -0.015535429 0.06532486 0.26888016 -0.07970649
000070 00 d2 e3 3d 88 89 0f 3e ca d4 95 3d 85 b5 3b be
       0.11124039 0.14017308 0.07315977 -0.18330963
000080 01 c2 82 be dc c5 97 3e e9 17 9c 3e bb 84 71 3e
       -0.25538638 0.29643142 0.30486992 0.23585789
000090 24 ec 6c be 30 23 11 be 1e 7a 0e be 1a be 4a 3e
       -0.23136955 -0.14173579 -0.13913772 0.1979908
0000a0 3a f2 71 be 7d 97 94 bd 49 06 75 be 9e c0 05 3e
       -0.23627558 -0.072554566 -0.23928179 0.13061759
0000b0 6e c5 58 3e 84 b8 95 bd 38 dd 45 3e b2 2a 97 be
       0.21169063 -0.07310584 0.1932267 -0.2952476
0000c0 e6 3f 87 be 21 a4 55 3c 5a 68 12 3e 89 17 9b 3d
       -0.26415938 0.01303962 0.1429762 0.07572848
0000d0 4e a9 64 be 0d 09 a3 3e 8d 61 80 3e 6f 3f 5e 3e
       -0.2233021 0.31842843 0.25074425 0.21703885
0000e0 99 8c 7b be 65 e2 57 3c 2f 3f 0a bd 16 53 87 bd
       -0.24565352 0.013176535 -0.033751663 -0.06607644
0000f0 4f 40 40 3e b6 4b 9b 3e 3d fb 69 3e 11 a6 9f 3e
       0.18774532 0.303312 0.22849746 0.31181386

post.0.weight f4 [128, 128]
000000 d7 60 e0 3a bf f9 a4 3d 61 e9 05 bd 7f 22 37 3d
       0.0017118704 0.08055448 -0.03269327 0.044710632
000010 32 a7 7f bd 06 44 9f 3d 35 77 91 bd 98 64 4c 3d
       -0.06241531 0.07776646 -0.07102815 0.04990062
000020 4d c4 8f 3d 0a 35 23 bd ad 68 de bc ba 06 c4 3d
       0.07019863 -0.039845504 -0.027149523 0.095715955
000030 1e 79 0c 3d 7c a4 3c bd ff 3f a0 3d d3 50 a9 bd
       0.034295194 -0.046055302 0.07824706 -0.08267369
000040 8f da 5a 3d 1a ef 9a bd 75 80 f1 bc c1 64 75 3c
       0.05343109 -0.07565136 -0.029480198 0.014977635
000050 43 74 94 bd f5 83 58 3d a2 b9 2c 3d 6f 0a a8 3d
       -0.07248738 0.05286022 0.04216922 0.08205115
000060 e7 e6 58 3a d7 11 8d 3d bf 52 c8 3c d8 df 8a bd
       0.0008274153 0.06888168 0.024453519 -0.06780976
000070 75 06 eb bc 41 62 1c bd 18 ec 21 bd 0b 39 e3 b8
       -0.028689602 -0.03817964 -0.039531797 -0.000108348286
000080 59 ef c8 3b 97 b7 8e bd 34 a5 80 3d 33 fe af 3c
       0.006132048 -0.06968611 0.0628151 0.021483516
000090 7b ef 67 3d 90 84 b4 3d 64 fa 2e bd 1c e9 00 bd
       0.05662487 0.08814347 -0.04271926 -0.03147231
0000a0 39 40 d6 bc 99 3c 96 3d 62 73 64 3d 0a bd 68 3d
       -0.02615367 0.07335777 0.0557741 0.056820907
0000b0 b9 57 89 bc ef 0d 7c bd 9b c7 15 3a b3 1a 2b bd
       -0.016765462 -0.061536726 0.00057136425 -0.04177351
0000c0 aa f7 93 3d 81 bd cf 3d 5d 99 e0 3c b3 83 21 bd
       0.072249725 0.10143567 0.02741688 -0.03943224
0000d0 03 f5 b7 3d 94 bb 02 bd 8b 83 d9 3c 0e 99 43 bc
       0.08982279 -0.03191717 0.026551982 -0.011938347
0000e0 ea f1 4f 3d 41 4a 62 3c 59 b2 81 3d 6d b0 08 bc
       0.050767817 0.013811649 0.06332845 -0.008342844
0000f0 44 ed 93 3d c8 4a 81 bd 81 07 18 bd e3 14 8d 3d
       0.07222989 -0.063130915 -0.03711653 0.068887495
000100 26 6e 24 3d b4 e1 27 bd 2c 98 2b 3a dc aa d2 3d
       0.04014411 -0.04098673 0.00065458077 0.10286495
000110 54 6a 06 bd 70 96 5c bd aa fd f9 bb f4 e9 aa 3b
       -0.032816246 -0.053854406 -0.007629116 0.0052158777
000120 34 6a 5d bd 45 4a 81 bc da 59 8b 3d 0d 54 16 3d
       -0.05405636 -0.015782485 0.06804247 0.03670125
000130 42 66 34 3d c7 86 0e bd ac e9 a4 bd 71 bc 6e 3d
       0.044042833 -0.034796502 -0.08052382 0.05828518
000140 6e 41 f6 3b a6 a5 ff bc 7d 2d 22 bd 02 68 36 bd
       0.007515124 -0.031206917 -0.039594162 -0.044532783
000150 af 81 04 3c 30 d4 8d 3c ed 0a a4 bd ec b1 ac 3c
       0.00808756 0.017313093 -0.080098964 0.021080934
000160 1a 17 8d 3d 44 e6 ee 3c 35 59 b4 3d fb 50 84 3d
       0.06889172 0.029162534 0.088060774 0.06460758
000170 03 0c f6 bc 0c ca b6 3d 99 2d 97 bd e8 5d b7 bc
       -0.030035025 0.08925256 -0.07381744 -0.022383645
000180 be de 19 3c 46 08 49 3d b8 7c 84 bd 70 3b d5 bd
       0.009391485 0.049080156 -0.06469101 -0.104117274
000190 14 61 29 3c 29 0d ae 3d d1 fe 5b 3d 46 7b f4 3c
       0.010338087 0.08498604 0.05370981 0.029843938
0001a0 b5 d1 c1 bc bf aa 8e 3d d0 e5 88 3c fa 4d 3f 3c
       -0.023659566 0.06966161 0.016711146 0.011676306
0001b0 0a e6 98 3d a2 77 f9 bc 77 39 a3 bd 1c 38 68 bc
       0.074657515 -0.030452553 -0.07969945 -0.014173534
0001c0 96 90 2d bd 6d 60 3f bd 69 44 c0 bc 2d 37 83 bd
       -0.042374216 -0.04672282 -0.02347012 -0.06407008
0001d0 41 d3 76 3d 78 b0 52 3d 9c 52 71 bd bd ad 4e bd
       0.06026006 0.051437825 -0.058916673 -0.05045866
0001e0 22 e7 99 3d 01 e7 28 3d 9e 23 38 bc 59 d7 8f 3d
       0.07514788 0.041235927 -0.011238961 0.07023496
0001f0 b3 d6 38 bd 90 ec 6b 3d da 2b 84 3d bd 5a 7e 3c
       -0.045126628 0.05759865 0.064536765 0.015524563
000200 77 30 05 bd cd c8 93 bd 6f 06 99 3c a0 c7 c1 bb
       -0.032516923 -0.07216034 0.018679826 -0.0059136897
000210 12 7c 13 3d 15 e9 70 3d 05 cb 44 bd d0 40 fd 3b
       0.036006995 0.058816034 -0.048045177 0.0077286735
000220 e9 db b9 bc 38 23 91 3d a4 3d be 3b cf c4 7f bd
       -0.02268787 0.070867956 0.005805688 -0.06244355
000230 49 85 26 bd 2e b7 1c bd d4 9c 10 3d de 40 e5 3b
       -0.040654454 -0.03826063 0.035305813 0.006996258
000240 5a e4 11 3d 2f 0a 21 3d e5 ad b0 3d b7 48 5c bd
       0.035618164 0.039316352 0.08626918 -0.053780284
000250 b5 e6 21 bc 2c 20 96 3c 0b d1 17 bb aa 99 6f bd
       -0.009881665 0.018325888 -0.002316537 -0.058496155
000260 4b 8d 8d bc 18 f8 94 3d 2e ba d8 3c f9 af 8e bc
       -0.017279288 0.07273883 0.026455965 -0.017417895
000270 03 4f de bc 12 42 bc 3d 8f 91 70 bb bc a7 3f 3d
       -0.027137285 0.091922894 -0.0036707853 0.046790823
000280 6c b6 a6 3d 1e 3d 90 3c 0d a5 1b 3d fd 68 b1 3d
       0.08140263 0.017607268 0.0379992 0.08662603
000290 27 5f 1c 3c 61 91 ac 3c 02 5d cc 3d 06 74 22 bd
       0.00954417 0.021065416 0.09978677 -0.03966143
0002a0 54 fa 1e bd 4a 3d 9b 3d b5 ff 2d 39 ec 1f d4 bb
       -0.03881295 0.07580049 0.00016593824 -0.006473532
0002b0 d0 1d b0 bc ba fc 8d 3c 40 ea d6 bc d7 ee f2 bc
       -0.02149859 0.017332423 -0.026234746 -0.029654903
0002c0 8b d9 44 3b b1 ef 45 3d d7 17 7a 3d 60 82 9e 3d
       0.0030036892 0.04832429 0.06105789 0.07739711
0002d0 26 51 49 bd cf 8d c4 3d 3c 27 63 bc 55 32 9f 3c
       -0.049149655 0.0959736 -0.013864335 0.01943318
0002e0 dc 29 52 bd 25 8a 1c 3d 0e e1 53 3d 9c 7b 7c 3c
       -0.05130945 0.038217682 0.0517283 0.01541033
0002f0 9a 05 14 bc c0 10 41 bd fe 06 8a 3d 77 36 c2 3d
       -0.009034539 -0.047135115 0.06739615 0.094830446
000300 70 ad a5 bc b3 00 29 3d 4e c8 56 bd 22 30 bc 3d
       -0.020224303 0.041260432 -0.05243712 0.09188868
000310 7d 64 5e 3d ee c9 00 bc 40 08 c4 3b ab 24 27 bd
       0.05429505 -0.007860644 0.005982429 -0.040806454
000320 84 0e c8 bc b0 24 84 3d ac bd b9 3d 46 74 7e bd
       -0.024420984 0.0645231 0.0906938 -0.062122606
000330 79 6e 86 3d a2 ec 77 3d 79 88 90 bd ac 67 66 bd
       0.0656404 0.060528405 -0.0705728 -0.056251213
000340 7b d1 c9 3c 02 84 7b 3d a0 b2 4d bc 73 a4 a1 3c
       0.02463602 0.06140519 -0.012554795 0.019731736
000350 f8 93 93 3b dc b3 85 3c ba 79 31 3d e3 52 ad 3c
       0.0045037232 0.016321115 0.043328978 0.021157688
000360 fd ff 8e 3d ae a6 a1 bd 11 3a 8a 3d 2a 72 25 3d
       0.0698242 -0.0789312 0.067493565 0.04039208
000370 f1 46 8b bd 76 93 b0 3d fc 29 0e 3d 0f ed 61 3d
       -0.068006404 0.08621876 0.03470801 0.055157717
000380 f3 47 8b 3d 23 74 44 bc 59 95 bd bd b4 0d 82 3d
       0.068008326 -0.01199058 -0.092570014 0.0635027
000390 08 31 6e bd 7f 86 2b 3a 9f d9 9b 3c 6f b5 2a 3d
       -0.05815223 0.0006543174 0.019024668 0.041676935
0003a0 0c f1 29 bd 0d 64 a5 bc d1 b8 09 bd 84 52 46 bd
       -0.041489646 -0.02018931 -0.03362352 -0.048418537
0003b0 20 5b ab 3b 42 e4 c0 3d 8f 08 94 3d 95 b2 ad 3d
       0.005229369 0.09418537 0.07228195 0.084813274
0003c0 86 6c 19 bd f1 54 87 bd 9b 77 ec 3b b1 f0 3b ba
       -0.03745701 -0.06607998 0.0072164065 -0.00071693497
0003d0 77 69 9b bc c7 88 72 3c 00 b5 dc bc 80 85 b2 3b
       -0.018971188 0.014803118 -0.026941776 0.0054480433
0003e0 df 1c 19 bd d1 7a 5f bd 44 b1 cd 3c 14 4e 21 3c
       -0.03738105 -0.054560486 0.02510894 0.009845275
0003f0 ee 48 13 bc f4 61 13 3d f4 d1 ec bc 7e b1 90 bd
       -0.008989556 0.035982087 -0.028908707 -0.07065104

post.0.bias f4 [128]
000000 7e b3 bc 39 9b 61 a9 3c 65 9b 37 bc bb e9 cb 3d
       0.00035991886 0.020676425 -0.011206483 0.0995669
000010 7e fe 4e bd 12 00 1c 3d a0 3a 56 3d aa 99 93 3d
       -0.05053567 0.038086005 0.052302003 0.072070435
000020 b6 0f 85 bd 86 21 3d bc 44 90 24 3d 8d a8 13 3d
       -0.06497137 -0.011543637 0.040176645 0.036049414
000030 86 3a 2d 3d 4c 85 8e bd b5 20 b0 3b 10 53 d8 3b
       0.04229214 -0.06959018 0.0053749927 0.0066016987
000040 e6 b4 9b 3c 1c 4b 8b bc 32 89 22 3d de 90 5f 3d
       0.019007158 -0.017003588 0.03968162 0.054581515
000050 34 e6 ec bc 43 21 bc 3d a5 8b ce 3d 70 a8 2a 3b
       -0.028918363 0.09186032 0.10085229 0.0026040338
000060 90 15 60 3d 4b 4a 92 3d be 12 7f 3c 25 7e ab 3c
       0.054708064 0.071430765 0.015568433 0.020934174
000070 05 2e 51 3c 22 c9 11 3d 44 5a 13 3d 85 51 37 bd
       0.01276732 0.035592206 0.035974756 -0.044755477
000080 64 6a a5 3d 01 bc a6 3d 22 e2 87 3d 45 99 bd bc
       0.08076933 0.08141328 0.06634928 -0.023144374
000090 ff 10 13 bd 53 e7 85 bd e1 ae 64 bd 47 57 3b bc
       -0.03590488 -0.06538262 -0.05583084 -0.011434383
0000a0 18 bf 98 3c 4b 85 12 3c 89 8d d7 3d 95 73 0e 3d
       0.018645808 0.008942912 0.105250426 0.034778196
0000b0 51 be 40 bd 50 24 48 bd 2c f6 bf 3c 79 8e 38 3d
       -0.0470565 -0.048862755 0.023432814 0.045057748
0000c0 be 68 70 bd 11 ac 22 3d e9 d0 b0 3d c9 e8 de 3c
       -0.05869364 0.039714877 0.086335965 0.02721061
0000d0 07 4f 4b 3d 28 78 be 3d 8e 93 fd bc 83 c5 ce bc
       0.049635913 0.09300262 -0.030954149 -0.025240665
0000e0 df 14 22 bd 87 e4 f3 bc ad 0c 80 3d e3 7b 00 bd
       -0.039570685 -0.029772056 0.06252418 -0.031368148
0000f0 61 a4 1f 3d 13 7d fb 3b 24 fc a4 3c 41 38 86 3d
       0.038975123 0.007674822 0.020139761 0.06553698
000100 bd bf d1 3c c8 79 41 3d 5c cb a5 3c c2 ef 81 bd
       0.025604123 0.04723528 0.02023857 -0.06344558
000110 b3 f8 48 bd 3c a7 b7 3b f1 ee 01 bc 36 e3 df bc
       -0.049065303 0.0056046527 -0.007930503 -0.027330022
000120 0f dd a0 bd 97 e5 54 bd 29 e7 c5 3d 73 7a 93 bd
       -0.078546636 -0.051976766 0.09663231 -0.0720109
000130 ff aa dc 3c 09 1d 97 bc 1d 55 1e 3d a1 dc d3 3d
       0.026937006 -0.018446462 0.03865539 0.10344816
000140 03 1b 98 bd 28 32 89 bc 8f 2a bb 3d bd a1 c6 3d
       -0.07427027 -0.01674755 0.09138977 0.09698818
000150 dd 52 8e 3d b7 f7 82 3d a2 73 bb bd f7 aa 15 3d
       0.06949399 0.06394904 -0.091529146 0.036539998
000160 d8 ec 41 bd 03 ed 9c bd 9b 11 76 3d d5 ef 99 bd
       -0.047345012 -0.07662394 0.060075384 -0.075164475
000170 37 8c 90 3d 8b 44 de 3b b6 68 35 bd 83 17 8d 3d
       0.07057994 0.0067830733 -0.044289313 0.0688925
000180 88 2d 17 bd 18 91 53 bc 5b ce 94 3c 49 0f 90 3d
       -0.036908656 -0.012913011 0.018164804 0.070341654
000190 85 92 11 3d f9 66 89 bc 85 bf 6d bc 79 bc b3 3b
       0.035540123 -0.016772734 -0.014510994 0.005485114
0001a0 7b 06 c4 bc e5 3f 17 3b 1d 49 a5 3d 8d 29 83 bd
       -0.023928871 0.0023078856 0.08070586 -0.064044096
0001b0 34 68 30 bd 1b 2e 93 3d 55 98 89 bb f6 92 a4 3c
       -0.043068126 0.07186528 -0.0041990676 0.020089608
0001c0 f9 81 83 bd 28 ca 5e bb 32 1c 44 3d a0 53 8d 3c
       -0.06421275 -0.0033995006 0.04787845 0.01725179
0001d0 94 94 2c 3c 5a 1a 37 3d a5 4d db 3d ce ff 18 bd
       0.010533471 0.044702865 0.10708169 -0.03735333
0001e0 ad cf 8d bd de fa 83 3d 60 74 f3 bb a3 f3 11 3d
       -0.06924377 0.064443335 -0.0074296445 0.03563274
0001f0 b7 20 bb 3d 59 ef 94 3d 92 5b 85 bd bb 3d 8c bd
       0.09137099 0.072722144 -0.06511606 -0.06847712

post.2.weight f4 [128, 128]
000000 85 f8 6d 3c bb 66 87 3d cc 3a 25 bd 39 a3 97 3d
       0.014524584 0.06611391 -0.040339276 0.07404179
000010 f0 0a 17 3c ce 8f d6 bc eb 66 2a bd ee 91 6b bd
       0.009218916 -0.026191618 -0.041602056 -0.057512216
000020 21 a5 04 bb 06 e7 fb 3a 4d 16 9b bd 82 48 70 3d
       -0.0020240026 0.0019218631 -0.07572613 0.0586629
000030 20 d7 0a bd 4f 3b 06 3d 0b ce 76 bd da 71 ef 3c
       -0.033896565 0.032771405 -0.06025509 0.029229093
000040 67 26 93 bd 17 fa f7 3c 0d f3 4b bd 2f f3 b1 bc
       -0.07185059 0.03027062 -0.04979234 -0.021722404
000050 4b 1c cd bc 24 7a b3 3d 01 d7 08 3d aa 8c a2 3b
       -0.025037905 0.08763531 0.03340817 0.004960616
000060 3b 67 38 bd c8 54 42 bd 16 0c 02 3c ad 72 9e 3d
       -0.045020323 -0.047444135 0.007937452 0.077367164
000070 19 f8 fa bb 72 2d a5 3d 2e ac b2 bb 5e 0c de 3c
       -0.00765897 0.08065309 -0.0054526543 0.027105507
000080 62 b0 b2 bc d3 d4 3e bc 59 22 f2 3c d1 90 d5 3c
       -0.021812622 -0.011647421 0.029557394 0.02607003
000090 44 b6 f7 3c 44 65 55 bd be 68 e3 3d 50 a3 5b bc
       0.030238278 -0.052098528 0.11103962 -0.013405636
0000a0 2a 25 5e bc 8f 3d 77 3d 9e 17 64 3d e2 2f de 3c
       -0.013558665 0.06036144 0.055686586 0.027122442
0000b0 e4 47 49 3d 31 89 27 bc 8e be 54 bd 75 0b cf 3c
       0.049140826 -0.01022558 -0.05193954 0.025274018
0000c0 07 55 81 3d cb 1f cb 3c fa 61 f5 bc 70 7e a4 3c
       0.06315046 0.024795434 -0.029953945 0.020079821
0000d0 46 32 25 bd 51 3c b3 3d a7 93 0a 3c 3d b5 64 3d
       -0.040331148 0.08751739 0.008458055 0.055836905
0000e0 a7 50 c5 3c 4e d2 67 3b 04 e6 5f bd c2 1b 59 3d
       0.02408631 0.0035373154 -0.05466272 0.053004988
0000f0 3e f2 3e bd cc 64 81 bd aa 6c bd 3d 47 76 85 bd
       -0.04661774 -0.063180536 0.09249242 -0.065167
000100 2d 46 73 bc 51 db 44 bd 12 81 c5 bc 4e 39 42 bd
       -0.014848274 -0.04806072 -0.024109397 -0.04741793
000110 c9 b8 29 3d 4b 29 cd 3d 1b e6 d4 bc 3d e2 ab bd
       0.04143599 0.10017642 -0.02598863 -0.08392761
000120 20 60 cb 3c 5b 02 82 bc 77 d0 3e bc 82 4d 71 3d
       0.02482611 -0.015870264 -0.011646382 0.058911808
000130 07 6a 47 3d f1 e6 0a 3c 77 26 a0 b9 d3 2c 61 3c
       0.0486851 0.008477912 -0.00030546237 0.013743597
000140 f3 60 92 3d da 7e 33 3d 97 55 46 bd bd db 78 bc
       0.07147398 0.043822147 -0.04842147 -0.015189108
000150 20 6f a4 3d e4 32 09 bd 55 11 9b 3d d9 30 92 bc
       0.08029008 -0.0334958 0.07571665 -0.017845558
000160 cb 61 22 3c 72 b5 12 3d 28 98 c6 bc db 3d 99 bd
       0.009911011 0.03581757 -0.024242476 -0.07482501
000170 4c 23 f1 bc c4 10 24 bc 30 d4 82 3d 44 5e 7f 3d
       -0.029435776 -0.010013763 0.06388128 0.062345758
000180 7e 53 0d bb 95 d5 dc 3c 6c 46 61 bd ed 49 92 bd
       -0.0021564658 0.026957313 -0.0549988 -0.071430065
000190 30 df 66 3d 61 5a 96 3d a9 b3 a8 bc 7f 3b 16 bd
       0.056365192 0.07341457 -0.020593481 -0.036677834
0001a0 89 05 21 3d cd 87 5f bd de 22 3c 3d 23 43 38 3d
       0.03931192 -0.05457287 0.04593169 0.0449859
0001b0 ec 3d f0 3c b4 2a ab bd 99 0a 0e bd 8b 41 8c bd
       0.029326402 -0.08357754 -0.034678075 -0.06848439
0001c0 21 45 f3 3c 60 85 a5 3d 03 14 02 bd 73 c9 97 3b
       0.02969605 0.0808208 -0.031757366 0.004632169
0001d0 89 92 18 3d d0 38 4e bc af db 80 3d 94 1e f7 3b
       0.03724912 -0.012586787 0.06291901 0.007541487
0001e0 59 39 b1 3d 26 14 7a bd e2 41 a2 bd 32 8d fa bc
       0.08653516 -0.06105437 -0.079227224 -0.030584905
0001f0 0c d0 b2 3d 06 af 02 bd 00 95 d7 3d ff fc 80 3d
       0.08731088 -0.031905197 0.10526466 0.06298255
000200 29 55 b4 3c d4 4d 19 bd a5 ca 8e 3c e1 9f 85 3c
       0.022013264 -0.03742774 0.017430613 0.016311588
000210 76 b6 8d 3c fb b9 a9 3d b4 a7 71 bd 44 00 56 3c
       0.017298918 0.08287426 -0.058997825 0.013061587
000220 52 5a b5 bc f9 f5 c0 3d cc 48 a8 3d 13 e0 3e 3d
       -0.022137795 0.094219156 0.0821701 0.046600413
000230 46 b4 ff 3c bc 1d 27 bd ff 26 84 3d b6 cc 2c bc
       0.03121389 -0.04079984 0.064527504 -0.010546854
000240 dc f0 8d 3c 8b 6d 21 bd 26 48 98 bd 9b 2d 20 bc
       0.017326765 -0.03941111 -0.07435636 -0.009776498
000250 ac 34 2f 3d 4c f2 8d bb 9d d8 7e 3d fd 56 96 bd
       0.04277484 -0.0043318626 0.062218297 -0.073408104
000260 22 47 a6 3d d8 f5 8b 3c 08 2e 47 bd 99 6f 68 3d
       0.08119036 0.017085 -0.048627883 0.056747053
000270 e4 71 a3 bd 2b 87 a8 3d 2b 70 d6 3d 11 0d 61 bd
       -0.07980707 0.08228906 0.10470613 -0.0549441
000280 f1 28 b6 bb 1e ef 7b bd d5 f9 94 bd 3f f3 79 bd
       -0.00555908 -0.061507337 -0.07274214 -0.061022993
000290 2c f2 2b 3c f5 a2 8f bc 0b 8e c8 3d f0 c3 a0 3d
       0.01049475 -0.017533759 0.097927175 0.07849872
0002a0 4b 46 9c bd cb 97 1a 3d 26 fb d7 3d 9e 2c 19 3d
       -0.07630595 0.037742417 0.1054595 0.037396066
0002b0 cd 8d f4 3c 94 c0 12 bd 77 b4 cc ba 86 80 62 3d
       0.029852772 -0.035828188 -0.0015617748 0.05529835
0002c0 4a 52 70 3d 87 7b 2a bd 14 10 29 3d 55 c7 a4 bc
       0.058672227 -0.04162171 0.0412751 -0.02011458
0002d0 6a f4 d0 3d e1 d0 64 bd 34 f6 aa 3d 89 48 09 3d
       0.10202868 -0.055863265 0.08347741 0.03351644
0002e0 f5 4d b3 3c bf a5 bb bc 33 22 40 3d bf b2 a7 3a
       0.021887759 -0.022906182 0.046907615 0.0012794359
0002f0 30 c5 3c 3d 3a 6e 82 bd e8 bf ae 3d 97 d1 90 3b
       0.04608649 -0.0636868 0.08532697 0.0044195163
000300 e7 04 4a bd a5 6a a3 3d e4 2c 6e bd 0e b4 8b bd
       -0.04932108 0.07979325 -0.05814828 -0.06821452
000310 1e 4c 3f bd 2d 2c c9 3d 33 db 2c bd 0c 12 5d 3d
       -0.04670345 0.09822879 -0.042201232 0.05397229
000320 04 9a d8 3b 43 a2 78 3d 15 2d 7c bd f8 fa 4f 3d
       0.006610157 0.06070162 -0.06156643 0.05077645
000330 47 d9 3c 3d 18 e3 0c 3d ea ec 50 3c fb 30 4d bc
       0.04610565 0.03439626 0.012751797 -0.012523885
000340 4e e8 5c bc 21 8b 8d 3c b0 0d 9b 3d 07 e3 a5 3b
       -0.01348312 0.017278256 0.0757097 0.005062464
000350 2f ed 7f bd 2a 77 57 3d 3b a8 ac bb 96 84 85 bd
       -0.062482055 0.052603878 -0.005269078 -0.065194294
000360 7f a1 0a bd 1e 30 6b 3c e5 e7 cd 3c 52 86 42 3d
       -0.03384542 0.014354734 0.02513499 0.04749138
000370 dc 10 a3 bc 63 fb 00 3d f2 1b c2 3c d4 39 3c bd
       -0.0199055 0.03148974 0.023694966 -0.045953587
000380 b7 e0 a2 bd 2f a0 8a 3d 8a 2f 67 3d 04 6f 1c bd
       -0.07953017 0.06768834 0.05644182 -0.03819181
000390 e7 d4 92 3d 5c 31 51 3d dc 85 4c 3b d7 d3 5a 3c
       0.07169514 0.051072463 0.0031207716 0.013356171
0003a0 0e 9e 2f 3d b6 ea 86 3d b3 c4 b4 3d 46 c8 c8 3d
       0.042875342 0.06587736 0.0882658 0.09803824
0003b0 00 08 4a ba 66 9f 42 bd d7 94 ee bc ea 93 3d bd
       -0.00077068806 -0.047515295 -0.029123707 -0.04628364
0003c0 13 91 78 bd 17 80 78 bc 82 9c 82 3d b8 24 9c bd
       -0.06068523 -0.015167258 0.06377508 -0.07624191
0003d0 0a 47 1c 3d 54 8e 87 bc de b6 04 3d 1f a5 80 bd
       0.038153686 -0.01654736 0.03240096 -0.06281494
0003e0 2a ed b5 3d f5 36 ed bc 9b 1e a9 3c 5c 10 8c 3c
       0.08883126 -0.02895687 0.020644477 0.017097645
0003f0 e3 62 d2 bc b9 2f a1 3d 45 8d 6d bd fa d5 a6 3d
       -0.025681918 0.078704305 -0.057996053 0.081462815

post.2.bias f4 [128]
000000 94 de 64 3d e8 f5 4e bc 78 4a 17 bd 83 b6 d2 3d
       0.05587633 -0.012631871 -0.036936253 0.102887176
000010 1a d8 85 3c 45 56 49 bd ff 1f 87 3c e1 62 47 bd
       0.016338397 -0.04915454 0.01649475 -0.048678283
000020 4b 46 8a bd 99 4b 9d bd 76 3b a6 3a e2 5e 7e 3d
       -0.067516886 -0.07680435 0.0012682516 0.062102206
000030 c8 24 5e bc 62 13 cf 3d d6 f4 ae 3c 5a 83 92 3d
       -0.013558574 0.10111119 0.021356981 0.071539596
000040 74 90 78 3d 7c bc 89 bd 93 c5 40 bd 82 a7 d1 3d
       0.060684636 -0.06725404 -0.04706342 0.10237028
000050 54 65 55 3c 4b 5b 9e bd a9 f7 28 bd d0 b3 63 bd
       0.013024647 -0.077322565 -0.041251812 -0.055591404
000060 5e 2b 27 bd 92 76 92 bd eb f0 90 bd 3a 85 06 3d
       -0.040812843 -0.07151522 -0.070772015 0.0328419
000070 1d 86 b5 3d 14 58 c5 bc f8 1f 4e 3d 3c a9 5f bd
       0.08863471 -0.02408985 0.050323457 -0.054604754
000080 42 c7 b7 bd 40 01 ce 3d fd ea 66 3c de 08 21 bc
       -0.08973552 0.10058832 0.0140941115 -0.009828774
000090 8c d3 02 3d 4c 02 a8 3d ad 32 6c bd 58 f0 9a bc
       0.031940028 0.08203563 -0.057665516 -0.018913433
0000a0 10 53 12 bd e2 4d bc 3d f9 25 48 3d 4f b6 9f 3c
       -0.035723746 0.091945425 0.04886434 0.019496111
0000b0 d4 f4 a2 3d 53 d5 b5 3d 27 00 f5 3b 4c 64 a8 3d
       0.079568535 0.08878579 0.007476825 0.08222255
0000c0 43 6c 51 3d fe 3b 64 3c 1c c4 96 bc c7 33 c3 3b
       0.051128637 0.013930319 -0.01840406 0.0059571
0000d0 58 ff 2f bd d8 77 23 3d cb 48 93 bd 34 60 2a 3d
       -0.042968124 0.039909214 -0.071916185 0.041595653
0000e0 6a e5 a4 3d f3 8d 8f bc 79 46 8b 3d 51 08 a8 bc
       0.0805157 -0.017523741 0.06800551 -0.020511778
0000f0 1e 0b 96 3d 09 46 39 bd ec cd 3d bd b8 08 fd bb
       0.07326339 -0.045232806 -0.04633896 -0.0077219866
000100 08 ff 02 3d 39 c5 28 bd 4f d5 89 3d 8b 11 74 3d
       0.031981498 -0.04120371 0.067301385 0.059587043
000110 d6 9f 2f 3b 7e bf 91 3d 65 e6 4a bd d1 a6 cc bc
       0.002679815 0.07116602 -0.049536128 -0.024981888
000120 04 91 a5 bc c8 ea 0a bc 9e 0a b6 3c 93 2b 88 bd
       -0.02021075 -0.008478828 0.02222186 -0.06648936
000130 e0 ac 8b bc 4f 42 ae bc 86 eb 5e bd e2 41 9f 3d
       -0.017050207 -0.021271853 -0.05442383 0.07776238
000140 b6 7f 90 bd a6 b4 14 3c f0 4e e5 3c 08 23 d2 3d
       -0.07055609 0.009076273 0.027991742 0.10260588
000150 35 f0 bf bc cb 12 80 bd 66 3f c4 bc 8a 92 de 3c
       -0.02342997 -0.062535845 -0.023956012 0.027169485
000160 e1 3e 24 3d fd 55 b0 3d 62 7f 5b 3d 59 4d cf ba
       0.04009903 0.08610151 0.05358828 -0.0015815898
000170 0b ea 94 bd ab 86 46 3c 85 10 b4 bc 6e 99 13 3d
       -0.07271203 0.012117068 -0.021980533 0.036034994
000180 c6 ba 83 3d 40 08 57 bb a2 ed 7f bd 21 c4 47 bd
       0.064321086 -0.0032811314 -0.062482484 -0.048771027
000190 1c 23 b0 3d e5 1d 31 3d 7f e0 a3 3d 10 b6 6d bc
       0.086004466 0.0432414 0.080018036 -0.014508739
0001a0 ff f1 97 3a 77 05 eb bc 5f b2 14 bd ec 52 73 3d
       0.0011592506 -0.02868913 -0.03630292 0.059405252
0001b0 3d d1 d6 ba 92 7e 31 3d 13 32 be 3d 4f d0 92 3d
       -0.0016389262 0.043333597 0.09286895 0.07168638
0001c0 63 df ab 3d 89 2d bf 3d 72 39 70 bd 98 f4 d7 3c
       0.08392217 0.09334857 -0.058648534 0.026361749
0001d0 5b 8c bd 3d 4b 1f 43 3d 1c 77 a0 bd bb 67 46 3d
       0.09255286 0.047637265 -0.07835218 0.04843877
0001e0 8d 5f 6b 3d 07 b9 3f bb 31 5f 84 3c 80 77 83 3d
       0.05746417 -0.0029254572 0.016158672 0.06419277
0001f0 d0 f7 0d 3d cf bb 7f 3d c1 31 37 bd 9e b3 0c 3d
       0.03466016 0.062434968 -0.044725183 0.034350984
