RL/ablation_Or_Policy_20260129_061634/best.pt (torch, 783126 bytes, 31 tensors)

gcn1.lin.weight f4 [64, 10]
00000000: 4757 843d aa02 4bbe bc64 923d c5c3 5bbe
00000010: 3b05 83be d859 283d 9578 60be d032 61be
00000020: 1ad0 3b3e 2511 58be 2f43 4a3d f102 4cbd
00000030: 3d49 8fbe c2e3 2ebe 7913 783e b0de 1abd
00000040: f897 85be d008 853e 2b2c efba f6ad 77be
00000050: d631 2d3e c461 9a3e bb15 5bbe 32c7 acbd
00000060: 92cf 29be 6e5d 1bbe 52b1 963e b4d4 94be
00000070: 0aa9 0a3e 30f0 46be 032e 48be b859 e7bd
00000080: fdb2 16be 290d 41be e7b0 f53d bc54 30be
00000090: 3127 0c3e 0784 16be 860c b5bd 0965 313e
000000a0: 5396 f5bd 1979 493e 0bd3 17be f0c3 9a3e
000000b0: c24d 633e 7445 b1bd 8ee3 5f3e 01d7 993d
000000c0: b804 5cbd 63ab f53c 8cd8 9dbe 3348 613e
000000d0: 53cb 36be d466 3cbe 5bb2 e23d 3014 b03d
000000e0: 55d3 613c b549 ecbd cc7d fe3d f8e9 923d
000000f0: 1cf5 9bbd 9836 d4bd aa39 933e e6a2 44bd
00000100: 8283 94be b478 b83d bf09 36be f528 6c3e
00000110: ad63 603e 38ae 5fbe 6602 29bd 2b4b 1cbe
00000120: 9ac8 9a3d 9b51 243e b8cc 5e3e 965e 533e
00000130: 9d2d 873e 235f 37be 7033 b43d 3bf9 d9bc
00000140: 6137 98be d178 a13e fa46 87be 3b7f 9b3e
00000150: dac6 c4bd 7724 8d3e ab7a 58be cacc bbbb
00000160: c630 1bbe 8bfd 4bbc 32dd 69be 1958 8ebe
00000170: 9651 583e 2d3b 62be 5871 cfbd 2106 883e
00000180: c8c4 153e 4de5 5d3d 19df 4fbe 9b53 ce3d
00000190: 1fc1 9e3c bfbc 933e 435c 15be 0b68 403c
000001a0: 3e69 1cbe f86e 9dbd cb36 2a3e d1a4 06bd
000001b0: ef5d 35bc 4f31 09be c0b6 043e c85b 98be
000001c0: c57b e3bd 6fd3 593d c384 b93c c8c7 40bd
000001d0: 0155 8a3e 749e 2e3e e8a7 923e ce47 903e
000001e0: 038d 1ebd f6cf 9e3e 7fdd 993e c076 a93e
000001f0: 8d1b 833e 0020 f3b9 792a 8a3d d659 673d
00000200: f92d 04be e444 02bd 0bbd 23bc d0d2 e2bd
00000210: 4935 5dbc 6589 953d 6b15 7b3d 3e38 96bd
00000220: bcce 03be eca8 8a3e 72af 8dbe 270b 5c3e
00000230: 36cc 59bd 1100 c6bd 4f17 58bd 72ba c53c
00000240: 5911 c7bd fa4f 94be 87d0 803e 6931 ebbd
00000250: f0e8 c5bd 7973 3a3d bc43 f6bd 9556 6fbe
00000260: ccac 983e 6180 86be 6386 56be c07d 053c
00000270: 596c 653d 77f9 3d3e 8794 473d 24b4 173e
00000280: 5d3f 773e 23b6 c2bd b1e7 b2bd 34bf 20be
00000290: eaf1 8fbe 1034 4fbe bdba 9fbe 1d51 abbd
000002a0: bd3c e3bd 0e31 db3d 3bd0 3abe f877 0f3d
000002b0: c1fe 38be c2b9 bdbd 382f 91be 5415 8ebe
000002c0: 9eec 203e c380 6c3e b3d6 53be 9264 7c3e
000002d0: 395e 273d 473b 98be 8187 3c3e 032d 463e
000002e0: 116e 4c3e 2c30 283e 0998 b03c 0186 05bc
000002f0: 3b1c 81bd 5a19 973e 3d5c ae3d cfa9 2dbe
00000300: 356b 1f3e 9388 ff3c bb9f 29bd fea4 063e
00000310: 4d2e 863e 0209 80be 03d1 4c3d a655 80be
00000320: f3f2 233e 329c 20bc 1596 363e 413d a73e
00000330: 90fb 2a3e 900a fdbd a366 8c3d 36ca 8a3d
00000340: b043 f33c 2a50 10be f46e b5bd f5e6 9ebc
00000350: 404a 393e 196e b8bc 8ec1 25be 8440 7ebe
00000360: ad4d 343c e6af 5cbe 6afc 67be d3fc 8b3e
00000370: bb92 afbd b832 08be 690e 823e a5dd 623e
00000380: 0697 c7bd 7c65 dabd cd53 33be a4a2 423e
00000390: 70f6 3d3d e2f7 8fbe b246 7f3e 56d4 9c3e
000003a0: b1f8 f83b 7c3b 21be 236d a7bd 573c 913e
000003b0: 0478 64be db6a 033e cf35 a63e dc30 dbbc
000003c0: 4e22 133e 26d4 873e 258e 923e 92c2 13be
000003d0: a837 853d 6ffe 953e ee37 963e 3dee a03e
000003e0: 5e5a 0c3e 99a4 65be 5f04 e93d aee0 f5bd
000003f0: 3851 cb3d b5c4 bfbd f7f1 d53d 40a0 d4bb
0.06461959 -0.19825235 0.0714812 -0.21461399 -0.25589928 0.041101307 -0.21920998 -0.2199204
0.18341103 -0.2110029 0.049380478 -0.049807493 -0.27985564 -0.1707907 0.24226178 -0.037810028
-0.26092505 0.25983286 -0.0018247416 -0.24187455 0.16913542 0.30152714 -0.21395008 -0.08436431
-0.16583088 -0.1517236 0.2943216 -0.2906853 0.13541046 -0.19427562 -0.19548802 -0.11296409
-0.14716716 -0.18852676 0.11996632 -0.17219824 0.13686825 -0.14698802 -0.08840279 0.17323698
-0.11991563 0.19675101 -0.148266 0.30227613 0.22197631 -0.08655825 0.21864149 0.07511712
-0.053715438 0.02998895 -0.30829275 0.22000198 -0.17851 -0.18398601 0.11069175 0.085976005
0.013783296 -0.11537496 0.124263376 0.07173532 -0.0761511 -0.103619754 0.28754932 -0.048006915
-0.29006582 0.09007397 -0.17777155 0.23062499 0.21913023 -0.21843803 -0.041262053 -0.1526305
0.07557793 0.16046755 0.21757782 0.2064155 0.26401988 -0.17907386 0.087988734 -0.0266081
-0.2972975 0.31537488 -0.26421338 0.30370507 -0.096082404 0.27566883 -0.21140544 -0.0057312
-0.15155324 -0.012450586 -0.22838286 -0.27801588 0.21124873 -0.22092886 -0.101290405 0.26567176
0.14625847 0.054173756 -0.20299949 0.1007454 0.019379197 0.2885494 -0.14585976 0.011743556
-0.15274522 -0.07687181 0.16622464 -0.032872025 -0.011069759 -0.13397716 0.12960339 -0.29757524
-0.111075915 0.053180154 0.022646314 -0.047065526 0.27017978 0.17052633 0.28643727 0.28179783
-0.038708698 0.31018037 0.300518 0.33098412 0.25606957 -0.00046372414 0.06746382 0.05648216
-0.12908162 -0.03180398 -0.009993802 -0.110753655 -0.013501474 0.073015966 0.061299723 -0.07334946
-0.12871832 0.27082002 -0.27672917 0.2148863 -0.053173266 -0.096679814 -0.052756604 0.024136756
-0.09720106 -0.28967267 0.25159094 -0.114840336 -0.0966357 0.04552028 -0.12024638 -0.23372872
0.29819334 -0.2626982 -0.20949702 0.008147657 0.05601153 0.18552195 0.04872563 0.14814812
0.24145265 -0.09507396 -0.08735598 -0.15697938 -0.28114253 -0.20234704 -0.31197158 -0.083650805
-0.11095569 0.10702716 -0.18243496 0.03502652 -0.18065931 -0.09263946 -0.28356338 -0.27750647
0.15715262 0.23095994 -0.2068737 0.2464774 0.040861342 -0.29732725 0.18411066 0.19353108
0.19963862 0.16424626 0.021556871 -0.008149625 -0.06304213 0.2951153 0.08513687 -0.16959308
0.1556824 0.031193053 -0.041412096 0.13148877 0.262072 -0.25006872 0.050004017 -0.25065345
0.16010647 -0.009802865 0.17830689 0.3266392 0.16697526 -0.1235553 0.06855514 0.0677685
0.029695362 -0.1409308 -0.08859053 -0.019397238 0.1809473 -0.022513436 -0.16187117 -0.24829298
0.0110048475 -0.21551475 -0.22654882 0.27341327 -0.085729085 -0.13300598 0.2540162 0.22154863
-0.09745602 -0.10663888 -0.17512436 0.19007355 0.0463776 -0.28118807 0.24929312 0.3063075
0.0075980057 -0.15745348 -0.08175113 0.28366348 -0.22311407 0.12833731 0.32462928 -0.026756696
0.14368555 0.26529044 0.28624073 -0.14429691 0.06504756 0.2929568 0.29339546 0.3143176
0.13706347 -0.2242607 0.11377787 -0.12005745 0.099276006 -0.09363691 0.10446542 -0.00648883

gcn1.lin.bias f4 [64]
00000000: 7d65 0dbe 9d12 d4bd 61a1 91be 9480 43bd
00000010: cd5c 493e d26a 71bd 2dcf 52be 210f 753e
00000020: 504e 4f3d f20f 163d e5c3 153d b2c5 bfbd
00000030: 8187 b33d 2c6f ff3c 971b de3c c3b7 573e
00000040: 8767 07be d3c9 173e b37c 93be f7fd c93d
00000050: 6fb7 203d 03c6 67be 0f0c d0bd ef97 44be
00000060: 263e 7d3e 5eee 043e c498 863e 6cef cdbd
00000070: 9804 a23c 5592 133c 4650 093e 5dcc 9dbe
00000080: 3ce1 3cbe cc7a 5abe 33ce 9b3e 50d0 8bbe
00000090: be94 883d 7b7e a3bc 9250 75be 9131 21bd
000000a0: 56cd 01be c990 c53c a751 a93c f641 92be
000000b0: a432 153e 99ff 89bd 5690 6fbe c1c9 c8bd
000000c0: b067 193e 30cc 48be 5f9d f6bd 31f5 eabd
000000d0: 49f5 98be 2888 943e deb2 a33e 54b7 e83d
000000e0: 2a5b 9cbe cbfd 733e 248e db3d f62f 88be
000000f0: 768b 803e 0321 e4bc 2d2c 9b3e 3c42 1abd
-0.13808246 -0.10355113 -0.28443435 -0.047730044 0.19664307 -0.058939762 -0.20586844 0.23931552
0.050611794 0.0366363 0.036563773 -0.09363879 0.0876608 0.03118094 0.027112765 0.21066193
-0.13223086 0.14823084 -0.28806075 0.09862893 0.039237436 -0.22634129 -0.1015855 -0.19198583
0.24730739 0.12981555 0.26288426 -0.10055432 0.019777581 0.009007056 0.13409528 -0.3081998
-0.18445295 -0.21335906 0.30430755 -0.27307367 0.06668995 -0.019957772 -0.23956516 -0.03935391
-0.12675986 0.02411689 0.020668818 -0.2856595 0.14570099 -0.067382045 -0.23394904 -0.098041065
0.1498096 -0.19609141 -0.12041735 -0.11472548 -0.29874638 0.2901013 0.31972402 0.11363092
-0.30538303 0.23827283 0.107204705 -0.2659909 0.251064 -0.027847772 0.3030714 -0.037660822

gcn2.lin.weight f4 [64, 64]
00000000: 4415 29bd b806 edbc a88c ad3c 0059 3f3d
00000010: ac02 b4bd e300 1fbc 143c 623d 1803 4ebd
00000020: 20e8 f4bc 0ec4 ba3d b8ce 3c3d d4b2 4abd
00000030: 407b d3bb f949 b3bc e07a 2bbd 4adb ccbd
00000040: c4a6 44bd 5681 f1bc 41c1 abbd 3053 4e3c
00000050: d82e 66bd 2bf4 e6bd 6835 f9bc 508b 9bbc
00000060: 64ef d6bd 4c4b d3bd 0608 903d e883 f7bc
00000070: e6f6 9c3d b92a 2abd 6466 e4bc 417a c03d
00000080: 48fe 943c 1a65 cbbd f3e2 053d 8b29 b33c
00000090: 3ba2 8cbd 08fe 68bd 9612 f1bd 2cfa a5bd
000000a0: 007a 3d3c de47 33bd 8c40 6abd 02ee 933d
000000b0: c621 913d faff dc3d 20ab 063c 0183 503d
000000c0: 0566 823c 65f9 e6bd 320e e4bd 4f84 99bc
000000d0: 4667 853d f02a eb3d 9e7a a93d f8bf bdbb
000000e0: 8dbd 0e3d b1c8 c03d b6a6 fd3d b761 823d
000000f0: 805f 01bd bf5d b1bd f07a 33bc 54d0 7dbc
00000100: 11d8 903c 7732 e3bd 868f d6bc 3787 e2bd
00000110: 2131 cdbd 27dc c4bc 76a1 2fbd 552e a0bd
00000120: 03e8 6f3d fd88 c939 8b7c 783d 1af4 1d3d
00000130: e372 de3c 5398 bdbd 4bfd 583c 75bf 863c
00000140: 17f0 c93c 06c5 dcbd 6b93 1a3d 0df6 92bd
00000150: 9c73 023d 77b7 143d c8fa 9abc f45b 063e
00000160: 6e39 83bc cf61 e13d 9265 b9bc 289a bfbd
00000170: f9c8 dd3d 55f4 8b3d eab6 94bd cda4 023e
00000180: 1b3a 82bd daf5 743d b56a bb3d 1e69 043e
00000190: ac71 c0bb 8543 89bd a558 e6bd 9d38 9cbd
000001a0: c0c7 cdbd 5bdc a0bd 1e1b 33bd fa9b dbbd
000001b0: e1fa c1bd 6e7c f13d b6b5 85bd e8d2 e23d
000001c0: 03c4 a63d 6013 f0bd 15d0 d4bd c985 8fbd
000001d0: d547 cb3d 5445 ba3d ce79 f3bd e2b2 253d
000001e0: b138 213d 5464 b53d 5cf9 cbbb f2df 1f3d
000001f0: a8f3 e3bd 75c7 01bb eebb 4abd 1c82 f73c
00000200: 8dc9 a3bc 4af8 e7bb 0604 373c 3bab 8bbd
00000210: 25bc 5ebd abb7 a1bd 8e1a e03c 02f0 00bd
00000220: c1c3 753d 5fd3 97bd 4b1a b6bd 2f05 6abc
00000230: 8243 e43c 1483 bd3d 2616 ae3d e7f9 c03c
00000240: 6dc7 4f3d 3778 a43d 5541 833c a31e 643d
00000250: af76 af3c 0597 4b3b 1c59 66bc 2479 ca3d
00000260: bc89 00bd a791 bfbd d492 fdbc 560f 013e
00000270: ee48 6e3b b641 fe3d 962c 0ebc a683 043d
00000280: ee39 99bd 5487 1ebd a09b b5bd c0f7 4ebd
00000290: 5f95 923c c576 adbd 029c 85bd 7a99 a33d
000002a0: 3a0a 593b b427 403d 274c 06bd 5627 093e
000002b0: 3d4e d83d 1f18 fc3d c2dd 41bc d979 9e3c
000002c0: 7a1b 6c3b b097 063e c45c e63d 128d 80bd
000002d0: ef1f 3cbd e76b d3bd 538f 82bd f272 cf3d
000002e0: e1b0 83bd 252b 1dbc d9d6 b13d e6bd 81bd
000002f0: 0e3e ea3d be60 3bbd ac71 0f3c 2afd b1bd
00000300: 841a eebd dce8 b5bb 788f e43c 5471 b8bd
00000310: 710c 4d3b 7e6e 15bd 1cce 46bc d477 87bd
00000320: 20c8 103d 581f 2a3d 1318 54bc 7729 823d
00000330: 4bef deba 9cfc 02be 096a 613d 1702 1d3d
00000340: bb9a f63d 9eca a53d bead 83bd 343c 69bd
00000350: a8b7 afbc 4f6b 9a3d e2eb 8cbd ca31 19bb
00000360: b76d f1bd 9833 413d a1be 933d 2cda 9fbd
00000370: c944 963b aced cfbd 5600 c13a 0b07 80bd
00000380: 0875 79bd 97f0 9bbd 4f6e 313d c401 babd
00000390: d5ff fa3d 49fa fdbd c138 a3bc f005 c43d
000003a0: 02b5 bb3d 22c7 00be 0b93 fe3d b232 9a3d
000003b0: 177a 1abd d00b 91bd ee1e c83d e27e e23d
000003c0: 76a7 8c3c dba4 d4bd 03a6 f23d 25d1 be3d
000003d0: 48f2 ec3d d254 a63d f702 8b3d 600a 4ebd
000003e0: 1e5f 00be 7ded a83c 7141 c83d 09b7 993c
000003f0: 071a ee3d 83dd 9e3d d0da 033d 36b2 c33d
-0.041280046 -0.028933868 0.021185234 0.046715736 -0.08789572 -0.009704801 0.055233076 -0.05029592
-0.029895842 0.09119426 0.04609558 -0.04948695 -0.0064539015 -0.021885859 -0.04186523 -0.100027636
-0.048010603 -0.029480617 -0.0838647 0.012593076 -0.056197017 -0.1127704 -0.030420974 -0.018987328
-0.10494879 -0.10317096 0.0703278 -0.030214265 0.0766428 -0.04154465 -0.027880855 0.09398318
0.018187657 -0.09931393 0.03268714 0.021870395 -0.068668805 -0.056882888 -0.11771123 -0.08104357
0.011564732 -0.04376971 -0.057190463 0.07223131 0.0708652 0.10791011 0.00821951 0.050906185
0.015917787 -0.11278037 -0.1113552 -0.018739847 0.065138385 0.11482799 0.082753405 -0.0057907067
0.03484874 0.09413279 0.12385313 0.06366294 -0.031585217 -0.08660459 -0.010954604 -0.015491564
0.017681153 -0.1109361 -0.026191484 -0.110609464 -0.10019136 -0.024030758 -0.04287859 -0.07821337
0.058570873 0.00038439772 0.06066565 0.03856287 0.027154392 -0.09257569 0.0132439835 0.016448716
0.024650617 -0.10779767 0.037738245 -0.07175837 0.031848535 0.03630778 -0.01891841 0.13121015
-0.016018596 0.11004984 -0.02263144 -0.09355575 0.10829348 0.06833712 -0.072614506 0.12758179
-0.06358739 0.059804775 0.09151212 0.12930724 -0.0058729257 -0.067023315 -0.11247376 -0.076279856
-0.10047865 -0.078545295 -0.043727033 -0.107231095 -0.094716795 0.11791311 -0.06528799 0.110753834
0.08142855 -0.117224455 -0.10391251 -0.07007939 0.0992581 0.090952545 -0.11888467 0.0404538
0.039360706 0.08857027 -0.0062247943 0.03903193 -0.11130458 -0.0019802724 -0.04949563 0.030213408
-0.019993568 -0.007079159 0.011170393 -0.06819769 -0.054378647 -0.0789636 0.027356412 -0.03147889
0.06000114 -0.07413363 -0.08891734 -0.014283462 0.027864221 0.09253517 0.08500318 0.023556663
0.050727297 0.08030742 0.016022364 0.05569328 0.021418897 0.0031065356 -0.014059331 0.09886387
-0.031381354 -0.09353953 -0.030953802 0.12603506 0.0036359387 0.12414877 -0.008677622 0.032352112
-0.07481752 -0.038703278 -0.08867574 -0.05052924 0.017893491 -0.08469919 -0.06523897 0.07988258
0.0033117668 0.046912864 -0.03278747 0.13393912 0.10561798 0.12309288 -0.011832656 0.01934521
0.003602712 0.13143802 0.112481624 -0.06276907 -0.04592889 -0.10323315 -0.06374993 0.10129346
-0.06430221 -0.009592806 0.08683557 -0.063350484 0.11437617 -0.045746557 0.008755129 -0.08690865
-0.11626151 -0.0055514406 0.027900442 -0.090059906 0.0031287933 -0.036482327 -0.012134101 -0.06614652
0.035347104 0.041533798 -0.012945193 0.06355565 -0.0017008571 -0.12791675 0.055032764 0.03833207
0.12041231 0.08095287 -0.06429623 -0.05694218 -0.021449879 0.07539999 -0.068809286 -0.0023375624
-0.117885046 0.047168344 0.07214094 -0.07805285 0.0045858365 -0.10152754 0.0014724832 -0.06251343
-0.060902625 -0.07614248 0.04331809 -0.09082368 0.12255827 -0.12401254 -0.019924523 0.09571445
0.09165384 -0.12575963 0.1243039 0.075292006 -0.03771409 -0.07082331 0.09771524 0.11059357
0.017169695 -0.10383006 0.118480705 0.09317235 0.11569649 0.08121647 0.06787675 -0.050302863
-0.12536284 0.020621056 0.09778107 0.018764036 0.11626058 0.07757094 0.032191098 0.095554754

gcn2.lin.bias f4 [64]
00000000: d1ff 94bd d955 b7bd 9d99 903d 261a aebd
00000010: eef2 56bd 2ba1 5a3d b45d 9c3c e0c1 8b3d
00000020: 02a7 1fbd 9b98 f93d 87dd afbd c811 6d3d
00000030: ef37 a6bd 72e9 193d 1cc9 c4bd 4fd4 8bba
00000040: 0db3 d03d 7218 d73d 7846 4b3d 1f30 8dbd
00000050: 6a1d 0b3d 8f5f bbbd 4cca e3bd ce20 dcbd
00000060: 7f34 463d c278 633d de51 36bc 30e8 b93c
00000070: a186 97bd 05d4 b7bd ab93 063e ee07 d9bd
00000080: a531 d8bb 4e62 413d 9898 853d e8a2 02bd
00000090: cfa6 0d3e b7e1 04bd 2235 873d 6e6b ed3d
000000a0: 6628 eabd ca74 9fbd d47b 403d 8acf e4bd
000000b0: f63e 8a3d 32cf 083e c007 e9bd a6b2 c0bd
000000c0: 6a07 c53d c58b 813d 2d5c be3c 91bc 9dbd
000000d0: f399 eb3d f475 fd3c ac41 bcbb c769 dabd
000000e0: ea16 03bc e6da f1ba dede 32bd 1069 303d
000000f0: 3486 f23d f292 993c b088 dab9 eac2 31bd
-0.072753556 -0.08951921 0.070605494 -0.08501081 -0.05247777 0.053376358 0.01908765 0.06824088
-0.03897763 0.1218731 -0.08587175 0.057878286 -0.08116137 0.037576146 -0.09608671 -0.0010668131
0.10190401 0.105027094 0.04962775 -0.06893944 0.0339636 -0.09149086 -0.111225694 -0.107484445
0.048389908 0.055535085 -0.011127917 0.022693723 -0.07398725 -0.089759864 0.13142268 -0.105972156
-0.006597715 0.04721289 0.065232456 -0.03189364 0.13833164 -0.03244182 0.06601931 0.11592756
-0.11433487 -0.077859476 0.04699309 -0.111723974 0.0675029 0.13360289 -0.11378431 -0.094090745
0.09620555 0.06325487 0.023237312 -0.07701982 0.11503973 0.030940033 -0.0057451334 -0.10664707
-0.008001069 -0.0018452078 -0.043669574 0.043068945 0.118420035 0.018746827 -0.0004168204 -0.043398775

no_gnn_proj.weight f4 [64, 10]
00000000: c88a 74bd 1ab9 523e 126e 693e 2c5b b73d
00000010: c6ee 3ebe 84a2 f43d d50a 973e 6cb0 ac3d
00000020: 295c 5ebe 463c 68be 085c 2f3e 2242 4c3e
00000030: 9c3a af3d 488f 94be 78f6 5b3d bce4 293e
00000040: bc88 353e 1685 2e3e 781f 87be 80b1 2c3d
00000050: 4756 973e 59ba 823e e625 7e3e fabd 253e
00000060: 908b 03bd 6370 86be e61b 5a3e 5163 8f3e
00000070: 46be 84be 360e 59be 5cdc 8e3d e4f7 8ebe
00000080: 6e98 a9bd 00f9 a33d 8c3e 90bd 6866 af3d
00000090: dcd6 97be bc6a 24be 3f02 883e 3fa7 863e
000000a0: e0aa e63c f054 88bc 92c9 a0bd 5cdd 91bd
000000b0: 18a9 f6bd 72eb 3c3e 50fa 91bd b39f 883e
000000c0: 63a5 5bbe 1155 813e 2cc8 d13d a0fa b9bc
000000d0: ae96 373e 4891 4b3d f01f 263e 707b 233e
000000e0: e489 1f3e 28b2 c73d 00ff 6dbb c691 513e
000000f0: fd4c 2fbe cc5c 993d e148 a0be 9410 a43d
00000100: e07d 6ebe 9c78 863d bcb8 9b3d fbfd 833e
00000110: 51df 99be 83a1 3fbe 6805 123d 22cc 053e
00000120: a03b 44bc 86e8 643e df91 973e 4145 9d3e
00000130: 0e8b 713e e0e7 7abc b492 e33d ee8f 503e
00000140: 1a2f 47be bcde 093e 7ac4 4f3e db0f 87be
00000150: 38d9 773d 8094 9fbb b258 74be 2680 4b3e
00000160: 080a 7e3d f42a 973d 3060 66bd eec0 6e3e
00000170: f874 af3d e8cd debd b15c 803e 600e 2f3d
00000180: 9095 9fbe 3408 9b3d def7 2bbe 9071 bdbd
00000190: 6228 0b3e 4167 9e3e 29a6 843e c64c 793e
000001a0: 2e7a 7f3e 129c 3f3e 88b3 7a3d 6044 7d3d
000001b0: 380f 6cbd 6e26 733e 1483 8ebd 4199 9f3e
000001c0: 0cc8 d4bd 8152 883e 76e4 563e 1497 0fbe
000001d0: a886 46be 46cf 7a3e 9729 9d3e d3d1 5cbe
000001e0: 3034 66be 5a07 583e 6834 23bd 30f2 9ebe
000001f0: d2ff 16be 4ccf 323e d0d8 6e3d 2c06 7abe
00000200: 8172 56be b476 21be 4c52 163e 9025 fe3d
00000210: 0640 503e 4db8 993e 80d9 e0bd 2ada 7cbe
00000220: 1a1f 1e3e 53bd 85be eeea 4a3e e6c5 4d3e
00000230: 1e31 4dbe b314 3abe 3694 263e c8c1 0b3e
00000240: 722c 98be 00e7 353e 93ca 9c3e cf76 5fbe
00000250: 0f59 9c3e f020 53be a814 91bd 220d 97be
00000260: c034 2e3e 7ee1 a1be 92a1 6fbe 7c22 44be
00000270: b006 153e a6cd 4e3e ab5d 2dbe 73d0 923e
00000280: 70d4 313e b33a 803e 25e1 41be 6245 4d3e
00000290: 2ca6 aa3d b17d 8f3e e780 913e ac4d 74be
000002a0: 284a 8abe f8c1 1dbd f020 013d adca 963e
000002b0: 8049 6ebb 3c1a f83d 24b9 2b3e d0f3 89be
000002c0: 1eb1 0cbe 9965 863e 7a48 4dbe 5e07 48be
000002d0: ba76 6b3e 308a 7abd fe39 4bbe a011 91bc
000002e0: 1cde 313e 6110 933e 26b0 673e 48a7 083e
000002f0: 7488 b13d 8a54 9cbe bc4b 5cbe d016 793d
00000300: ea79 49be 51ca 99be 900a 2b3d 52bd e7bd
00000310: 7d0e 58be b28e 053e 3b38 53be 767c 9cbd
00000320: f606 08be 60af 4d3c be74 743e 81be 00be
00000330: 06ce 4c3e bea2 623e 1c57 0fbe e758 833e
00000340: 7896 01bd c117 a13e 8792 85be 8443 9d3d
00000350: 36e3 50be 2059 49bd 8016 06bb df2e 0ebe
00000360: 6214 3e3e ceed ffbd afdc 9e3e 701b 67bd
00000370: cf1b 9e3e 80fe 963c 90aa cc3c 6822 92be
00000380: b9ff 8e3e 0aad dbbd 17dd 8abe 0e19 543e
00000390: 0533 1fbe c573 923e 3e49 523e 7b15 4cbe
000003a0: a518 27be a50f 823e c01d 373c 4dda 15be
000003b0: ca57 c0bd f9a4 983e ee4d f8bd 0c85 833d
000003c0: 922b 783e ba36 27be f03c 673d b0f4 82be
000003d0: 40c4 273e b9be 8a3e e59c 1dbe 0fcc 8a3e
000003e0: 6cf2 20be 4085 6f3d 8d08 9a3e 70c1 7ebd
000003f0: 3730 04be 20ae 7b3c f633 683e a222 32be
-0.059702665 0.20578423 0.22795895 0.089529365 -0.18645772 0.1194506 0.29500452 0.08432087
-0.21714844 -0.22679242 0.17124951 0.19947103 0.08556101 -0.29015565 0.053701848 0.16591161
0.17727941 0.17042956 -0.26391196 0.042161465 0.29558012 0.25532797 0.24819145 0.16185752
-0.03211552 -0.2625762 0.21299705 0.2800546 -0.25926417 -0.21196827 0.06975624 -0.279235
-0.08281027 0.08006477 -0.0704318 0.08564454 -0.29656112 -0.16056341 0.26564214 0.26299474
0.028157651 -0.016642064 -0.078509465 -0.07122299 -0.12043971 0.1844919 -0.071278214 0.2668434
-0.21449809 0.25260213 0.10243258 -0.022702515 0.17928573 0.049699098 0.1622312 0.15965056
0.15579945 0.097507775 -0.0036315322 0.20465764 -0.17119212 0.07488403 -0.31305602 0.080109745
-0.23290205 0.06565973 0.07603595 0.2577971 -0.3005319 -0.18713956 0.035649687 0.13066152
-0.011977106 0.22354326 0.29603478 0.307169 0.23588201 -0.015314072 0.11111966 0.20367405
-0.19451562 0.13463873 0.20289794 -0.26379284 0.06050989 -0.0048699975 -0.2386196 0.19873103
0.062021285 0.073812395 -0.056244075 0.23315784 0.08567232 -0.10879117 0.25070718 0.04273832
-0.31168795 0.07569924 -0.16793773 -0.09250176 0.13589624 0.3093815 0.2590802 0.24345693
0.24948952 0.1871188 0.06120637 0.061832786 -0.0576317 0.23745129 -0.06958595 0.3117161
-0.103897184 0.26625445 0.20985588 -0.14022475 -0.19387305 0.24493131 0.30695793 -0.21564417
-0.22480845 0.21096554 -0.0398449 -0.3104415 -0.14746025 0.1746189 0.058312237 -0.24416417
-0.20942117 -0.15767938 0.14679831 0.12409508 0.20336923 0.30023423 -0.10978985 -0.24692598
0.15441552 -0.26121005 0.19816181 0.20095024 -0.20038268 -0.18171959 0.16267475 0.1364814
-0.2972141 0.17763901 0.30623302 -0.21822666 0.30536696 -0.20618033 -0.07084018 -0.29502207
0.1701231 -0.3161735 -0.23401478 -0.1915378 0.14553332 0.20195636 -0.16930263 0.2867466
0.17366195 0.25044784 -0.18933542 0.20045999 0.08332476 0.28025582 0.28418657 -0.23857754
-0.27009702 -0.03851506 0.031525552 0.29451504 -0.0036359727 0.12114379 0.16769844 -0.26943827
-0.1373944 0.26249388 -0.20047179 -0.1953406 0.2299451 -0.061166942 -0.19846341 -0.0177086
0.17369884 0.28723434 0.22625789 0.13345063 0.086686045 -0.30533248 -0.21513265 0.06081277
-0.19675413 -0.30037168 0.04175812 -0.11315407 -0.21099277 0.13042715 -0.20626919 -0.076409265
-0.13283905 0.01255402 0.23872659 -0.12572671 0.20000467 0.22132394 -0.13998073 0.25653765
-0.03163764 0.31463435 -0.26088354 0.07678893 -0.20399174 -0.04915726 -0.0020460188 -0.13885067
0.18562463 -0.124965295 0.31027743 -0.05642265 0.3088059 0.018431902 0.024983674 -0.28541875
0.27929476 -0.10726364 -0.27121803 0.20712683 -0.15546806 0.2860395 0.20535752 -0.19930069
-0.16317995 0.2540256 0.011176527 -0.14634056 -0.093917444 0.29813364 -0.12124239 0.06421861
0.24235371 -0.1632947 0.0564546 -0.25577307 0.16383457 0.27098635 -0.15391882 0.2710881
-0.15717477 0.058476686 0.3008465 -0.062196195 -0.12909018 0.015361339 0.22676072 -0.17396024

no_gnn_proj.bias f4 [64]
00000000: c40f 82be 08f4 153d 7618 5bbe b863 6ebe
00000010: 22c4 613e 5158 43be 1e76 783e bc78 3b3e
00000020: 5b3b a13e bc9c cc3d 60c7 9fbc 909b 483d
00000030: 9e06 783e 6030 2fbc 8cdd 1cbe 369b b5bd
00000040: a8c1 9b3d 4b11 73be 626a 7dbe 66f8 6b3e
00000050: dcd3 ac3d b1c0 99be cacb 16be 00df eabb
00000060: f62c 12be 36b7 783e e8ec 63be 0616 6e3e
00000070: 996c 87be 90e2 573d cb24 a13e 0442 223e
00000080: dc32 f03d ec7b 3b3e f5b1 833e 320e 54be
00000090: 7c4d 37be 5c6b ea3d 910c 22be 70c3 ba3d
000000a0: 4cf1 be3d 610d 953e 2cf6 cc3d 1049 95bc
000000b0: 6512 20be b01d c03c 08f3 b43d a34a 8c3e
000000c0: 4880 2dbd 3484 a1bd 1a9c cfbd 4e1d 173e
000000d0: d67b 85be 3016 f93d 30ac 303d 3597 53be
000000e0: 40cc 023e 9405 923d 657f 943e 4043 943d
000000f0: d234 16be 2807 f5bd b7e9 8b3e 661b 653e
-0.25402653 0.03660968 -0.2139605 -0.23280227 0.22047475 -0.19076659 0.24263808 0.18307775
0.31490597 0.09990832 -0.01950425 0.04897648 0.24221274 -0.010692686 -0.15318888 -0.08867495
0.076052964 -0.23737065 -0.24747613 0.23043975 0.084388465 -0.30029824 -0.14726177 -0.007167697
-0.14274964 0.2428864 -0.22258341 0.23250589 -0.2645004 0.0527063 0.31473383 0.15845495
0.11728451 0.18308991 0.25721708 -0.2070854 -0.17900652 0.114462584 -0.15825106 0.09119308
0.093233675 0.2911177 0.10007891 -0.018223315 -0.15632017 0.023451656 0.08835417 0.27400693
-0.042358667 -0.07886544 -0.10137196 0.14757273 -0.26071042 0.12162435 0.04313296 -0.2066315
0.12773228 0.0712997 0.29003444 0.072393894 -0.14668587 -0.119642556 0.27326748 0.22373733

post.0.weight f4 [128, 128]
00000000: 881d 6abb 8891 aa3b b222 cfbc fe41 87bd
00000010: d79d 133d 6a85 5c39 179f 323d 6642 b13d
00000020: 58a2 3c3d dfb4 83bc ddd2 92bc 5d86 b73c
00000030: d9e8 33bd 5b65 883d d801 01bd 38af 9d3d
00000040: 6182 d33c 684c 8b3d 11d6 1dbc 45ab 0abd
00000050: 8987 3b3d a301 a13d a1e8 3dbd 1edb 35bc
00000060: e2e7 c23d a7b2 b53d 86f1 67bb abbe 4e3d
00000070: f4e5 d7bc 435a da3c 43ea 64bd 136d f7bc
00000080: d32b b53d 59bd 973c 69e8 4bbd 52d9 a0bd
00000090: be32 833b 16d1 5abd 9c01 ca3d 5f43 d23d
000000a0: 3f9b e0ba 8b02 783c 1dbd 05bd 41a6 b53d
000000b0: 241a cebc 586f 303d b139 57bd 5976 f0bc
000000c0: 7d5f 8c3d 693c bf3d a3d4 a83d 98f0 c03d
000000d0: 7d34 0fbd 445e 093d c6d5 bb3d 2c91 343d
000000e0: c614 a43c 5466 2fbc 1f88 073c ba0f 14bc
000000f0: cc54 873d fb77 c73c d862 993c 6e8d fb3c
00000100: 4c46 eb3c e96a a03d 84a0 62bd f08c 163c
00000110: d5d9 8f3d 4284 373c 787a 3cbd 27a1 d53b
00000120: 2c87 a03b e419 853d 6ac7 f6bb 9e45 803d
00000130: 0b41 033d 603e 65bb b389 20bd c902 82bd
00000140: 1a47 9ebc 94aa b3bd 3831 00bc 3720 8c3d
00000150: 9db7 953d 5cd7 69bd a67d 4a3d 944a fdbb
00000160: 2a3c d13c 10c5 3b3c 5a68 44bd 52d3 5a3d
00000170: 9192 293d 0384 b43d 09b6 953d 1e1e 463b
00000180: b808 64bd 5baf 9abd deb3 1d3d 2cf4 873d
00000190: 0e82 6fbb 973b 4fbd 4800 1b3b bdca 053c
000001a0: 6656 6b3c 0d50 38bc 91da e03c 5ae3 dcbc
000001b0: 8256 6b3c b758 073d 8656 b03d d9a8 853d
000001c0: e239 88bd 2ecb dbbc 3124 4e3d dec2 503d
000001d0: 7ec6 f9ba 90a1 a13c da30 9d3c 18cf 74ba
000001e0: cfdb 5f3d f2c3 e83c ee15 4dbd f130 88bd
000001f0: 4485 18bd 8523 0c3d f4fc fabc 4f0f 82bd
00000200: 50c8 ab3d 4dcc 3abd 0011 aebd 1bdc 323d
00000210: 8bd0 a9bd 77a6 0a3c be8b 883d e78b 573d
00000220: ec16 a23d 286f 1abc 4732 783d bcac 8ebb
00000230: 834e e7bc 25d9 983d 55dc c1bb fdf3 57bd
00000240: e7f7 c53c 674f 873d 3ce3 413d 2310 4fbd
00000250: f9f0 54bd 4a32 28bd 5f18 983c c4b9 96bd
00000260: e57e 43bb 1183 a6bd cfa1 95bd f0e2 833c
00000270: 1876 1a3b 433b 23bd 095f a43d 3554 0abc
00000280: df1d a13d f442 71bc fe14 24bd 7c40 afbc
00000290: 4582 963b 503f 31bb 42ca c4bb 21a8 613d
000002a0: 4efc 733d 8713 a93c 3d50 9b3c ed87 ffbc
000002b0: 7dca 9b3d 0302 18bd ff6c f03c 2384 bebc
000002c0: 5799 9c3c 4d90 4f3d b424 a1bd d8ad 283d
000002d0: 56e7 333d 16e6 df3c 4186 abbc 78e1 6d3d
000002e0: a0c3 2d3d 82a0 9cbd 85f8 893b 5f68 323d
000002f0: 0b02 973b b830 203d 4d28 36bd 789c e3b9
00000300: c009 7dbb 07b7 603d 0d6c 953d ab7b 7f3d
00000310: 7faf 8f3d c802 1e3d 6359 063d 728f 9f3d
00000320: 8eb7 9b3d cbe8 6d3d 3611 98bb f78c 7f3d
00000330: 4533 ed3b 24ee 8cbd 969c f7bc b362 8e3c
00000340: e394 63bd e015 76bd 9bcc 0bbd 299a a5bd
00000350: fdf9 b33d ccfc 10bd 4a1a a3bd 9ead febc
00000360: 6955 dabb 5634 543d 604c 7c3c 1ec7 903d
00000370: 48e5 513c 1021 773d 4ed5 88bd bb80 7b3c
00000380: e042 a13d 734c 81bc 8e88 b1bd a7b7 ef3b
00000390: 0cfb c43c fc53 c53c 8090 69bc ee90 043d
000003a0: d8c0 273d 7380 f63c e1a0 1dbd c6fb 963d
000003b0: 8a2a 943d 51f0 9abd 7110 263c 91c5 f63a
000003c0: 8dc1 a93c ba38 50bd 1461 b9bd d1f6 71bd
000003d0: b87d 28bd dd2c 033d 4e62 8c3d 38e5 1c3d
000003e0: 3387 3e3d 1c26 b03c 643f 923d 784b a5bc
000003f0: 6e69 403d fbd6 c33d a2cc 903d a0f9 003d
-0.0035723168 0.005205337 -0.025285099 -0.06604384 0.0360392 0.00021030536 0.04360875 0.086552426
0.04605326 -0.016077457 -0.017922813 0.022402937 -0.043923233 0.06659957 -0.0314959 0.07699436
0.025819005 0.06801683 -0.009633557 -0.03385474 0.045783553 0.0786164 -0.04636443 -0.011099605
0.095168844 0.08871966 -0.0035391762 0.050474804 -0.026354767 0.026654368 -0.055887472 -0.030203378
0.088462494 0.018522905 -0.04978219 -0.078539506 0.0040038517 -0.053422056 0.09863588 0.10266756
-0.0017136111 0.015137325 -0.032651056 0.08869601 -0.02515895 0.043074936 -0.052545253 -0.029353308
0.068541504 0.09337694 0.08243682 0.094208896 -0.034962166 0.033537164 0.091716334 0.04408376
0.020029437 -0.010705549 0.0082722 -0.009036953 0.066079706 0.024349203 0.01872389 0.030707087
0.028720044 0.078328915 -0.05532886 0.009188876 0.0702397 0.011200966 -0.046015233 0.006519455
0.0048989262 0.06499079 -0.007531096 0.062632784 0.03204445 -0.0034979805 -0.03919382 -0.063481875
-0.019321013 -0.087727696 -0.007824235 0.06842082 0.07310412 -0.05709015 0.049436234 -0.0077298377
0.025541384 0.011460558 -0.04795108 0.053424187 0.041399542 0.08814242 0.07310111 0.0030230354
-0.055672377 -0.07552978 0.038501613 0.06638369 -0.0036546024 -0.05059394 0.002365129 0.008166012
0.014363861 -0.011249554 0.02744797 -0.026963878 0.014363887 0.03304359 0.08610253 0.06526346
-0.06651665 -0.026830282 0.050327484 0.05096709 -0.0019056348 0.01973036 0.019188333 -0.00093387207
0.054652985 0.028413747 -0.050069742 -0.0664996 -0.037236467 0.03421356 -0.030638196 -0.06350576
0.08387816 -0.045604993 -0.08499336 0.04366694 -0.082917295 0.00846254 0.06667279 0.052623656
0.07914528 -0.009425916 0.060594823 -0.0043540876 -0.02823568 0.07463292 -0.005916158 -0.05272292
0.02416606 0.06606942 0.04733585 -0.0505525 -0.051987622 -0.041063584 0.018566309 -0.07359651
-0.0029830274 -0.08130468 -0.07306253 0.016099423 0.0023568925 -0.03985144 0.08025939 -0.008442928
0.078670256 -0.0147254355 -0.040059082 -0.021393053 0.004593166 -0.0027045794 -0.0060055563 0.05509198
0.05956679 0.020639194 0.018959159 -0.031192744 0.07606981 -0.037111294 0.029348848 -0.023256367
0.019116087 0.050674725 -0.07868329 0.041181415 0.04392179 0.027331393 -0.02093804 0.058076352
0.04242289 -0.07647802 0.004210534 0.043556567 0.004608398 0.03910896 -0.044472028 -0.00043413392
-0.0038610548 0.05486205 0.07296 0.0623738 0.07015895 0.03857687 0.03280009 0.07791032
0.0760337 0.058083337 -0.0046407236 0.062390294 0.007238778 -0.06881359 -0.030226033 0.017381048
-0.05556191 -0.060079455 -0.034130674 -0.08086044 0.08787916 -0.035397336 -0.079639986 -0.031088647
-0.0066630137 0.051807724 0.015399069 0.070692286 0.012811013 0.060334265 -0.0668131 0.015350516
0.078740835 -0.015783524 -0.08668624 0.0073155942 0.02404549 0.024087898 -0.014255643 0.03236478
0.040955395 0.030090546 -0.038483504 0.07372241 0.07234676 -0.07565368 0.010135756 0.001882719
0.020722175 -0.05083535 -0.09051719 -0.059073273 -0.04113552 0.032025207 0.06854688 0.038304538
0.046515655 0.021502547 0.07140997 -0.020177588 0.046975546 0.09562489 0.070702806 0.03148806

post.0.bias f4 [128]
00000000: a5dd 2b3d a7e8 6abd dc8c 6dbd a182 a33d
00000010: ac81 b73b e196 193d be83 863c a40f 63bd
00000020: e74b 143d c1a7 f53c c13f be3d d9c7 87bb
00000030: 48d4 a73d 7ea0 2c3d 5c33 b8bd 6c7c d0bc
00000040: 2650 2dbd bf7a 9a3d e0f8 4fbd 43dc 25bd
00000050: 2244 ab3d 8bc5 b3bd c256 1e3c d28e 233d
00000060: 7d0d 8abd 3c2f 4cbd 60bf ccbc fced 763d
00000070: bf7f 3fbd ec8e 213d 1a13 d63c 1474 933d
00000080: 785f c23d 8b47 d13c 907c c23c b0b8 963b
00000090: 620e ed3b eda2 0e3c c29d 7d3d fca6 82bd
000000a0: b27c dbbc 112f 7dbd c761 29bd bf41 93bd
000000b0: a21b 9a3d 8378 803c 6be7 9ebc 0c00 b63d
000000c0: 7f24 843d b4e0 6dbd 00c7 2c3d 0a9d bd3d
000000d0: afa9 b03d 230c 3e3d 2a67 20bd f2cd 9fbd
000000e0: 878c 553b 3efb bb3c 019d ae3d e7f1 e73c
000000f0: 77cd 863d 01cc be3a 03e7 8a3d 2acc 6fbc
00000100: f936 dc3c d6a2 403d 4daa 9b3d c05f 7b3d
00000110: 765d 58bd 4425 4cbb 5f82 113d f99a b03d
00000120: 9f89 593d d346 3f3d 6bad 223d e2ef 6aba
00000130: 3c00 4c3c d1b6 663d 29cc 73bd f3d5 493b
00000140: 4c71 113d bced 6d3d 50b5 82bc e0e8 ccbb
00000150: 7387 0238 6bc0 ecbc bba1 2a3d 1239 ee3c
00000160: d72b ae3c 81db 8dbc bbb7 6dbd 1fc4 38bc
00000170: f02c 1fbc 562f babc 1fa3 4d3d 3b12 ae3d
00000180: 0e9f 253d ed92 c4bc 5f89 55bd c38b 803c
00000190: 3c97 77bd c747 7bbd 290b b6bd dcab 4c3d
000001a0: a39c 81bd 6e10 c33d 2f78 eb3b 7414 a53b
000001b0: 3f0c 38bc d872 bf3d 0c4d c83c 64be 1f3d
000001c0: ed8d 8d3d 5ec8 a63c 0060 bdbc cce5 4bbc
000001d0: 87d7 6a3c 34a8 2b3a b2a3 f73c bd25 b93c
000001e0: 47a3 863d f896 86bd f49a afbb 1b4d 8f3b
000001f0: 2aae 25bd 468b 41bb 170b a0bd 882e 18bc
0.041959424 -0.05735078 -0.057995662 0.079839 0.005600175 0.037497405 0.016420241 -0.055434838
0.0362052 0.029987218 0.09289504 -0.0041436967 0.08194786 0.042145245 -0.08994171 -0.025449954
-0.042312764 0.07542943 -0.050774455 -0.04049326 0.08362605 -0.08777913 0.009664239 0.039931126
-0.06740854 -0.049849734 -0.024993598 0.060285553 -0.046752688 0.03944294 0.026132155 0.071998745
0.094908655 0.02554681 0.023741037 0.004599653 0.0072343806 0.008705837 0.061918028 -0.06379506
-0.026792858 -0.061812464 -0.041353013 -0.071902744 0.07524802 0.015682464 -0.019397458 0.08886728
0.064522736 -0.05807562 0.04218197 0.092584684 0.086261146 0.046398293 -0.039160885 -0.07802953
0.0032584982 0.02294695 0.0852604 0.02831359 0.06582158 0.0014556648 0.06782343 -0.014636079
0.026881682 0.047030292 0.07600842 0.06137061 -0.052823506 -0.0031150142 0.035524722 0.08623309
0.05310976 0.046698403 0.039716166 -0.0008962137 0.012451228 0.05632669 -0.059520874 0.003079769
0.03550844 0.05808805 -0.015955597 -0.006253347 3.1120562e-05 -0.028900346 0.041658144 0.029079948
0.021261139 -0.017316582 -0.058036547 -0.011277228 -0.009715304 -0.02272765 0.050204393 0.08499571
0.04043489 -0.02399584 -0.05213296 0.015691644 -0.060446963 -0.06134775 -0.088888474 0.049968585
-0.06328704 0.09524618 0.007185958 0.0050378386 -0.011233388 0.093480766 0.024450801 0.03899993
0.06911836 0.020359214 -0.023117065 -0.012444925 0.014333612 0.00065481965 0.030229423 0.022601003
0.065741114 -0.06571764 -0.005359048 0.0043732054 -0.0404493 -0.0029532476 -0.07814615 -0.009288438

post.2.weight f4 [128, 128]
00000000: 783b 543c d3d2 fabc ebcd ac3a 9df9 823d
00000010: 81ef b43d 7367 0c3b 3737 7c3d c0c0 953d
00000020: 5a67 7dbd 2ee9 90bd ff92 c53c 2b01 d23d
00000030: 3b74 a13d 0829 8b3d de25 6b3c 7e1c 413d
00000040: ff5f a9bc 6527 1d3c 30af 61bd 11d3 ad3d
00000050: 477d 953d f7cd 83bd 1f76 a93d 17e7 103d
00000060: 277f 7c3d 906b 58bd b9e1 ab3d 52d4 59bc
00000070: ac8d aa3d 3cb9 9c3d eb21 a63d 746a 41bc
00000080: 9a36 ac3d dab8 fbbc 3b6b 2e3d 1923 79bd
00000090: 77db 173d c296 9b3d 765c a03d a21f 1ebc
000000a0: f3a5 a0bd edf0 7c3d c213 48bd c261 70bd
000000b0: 74e2 f9bb a252 84bd 6c82 9a3d c950 1e3c
000000c0: 4da4 91bd 9dfe 883c 5752 933d df75 f73c
000000d0: 0d40 093c f939 2f3b ae53 623d f93e 4fbd
000000e0: 5c1c e6bc 851b d53b 6fec 813d 2999 283d
000000f0: 221e 6ebd 4530 27bd 46f1 5bbd 50c9 c03d
00000100: 1be2 a3bc 2bc0 c0bc c2e4 1c3c 8431 80bd
00000110: dd87 633d 98f3 f3bc 05b5 febc 4322 2c3d
00000120: a53c b3bc 708d c7bc 4c37 973d 648e 4439
00000130: 6d60 a4bb 3e3c be3c 0820 f7bb 6443 bdbc
00000140: 2763 c73d dd3a 03bd 09cd 043d 6ec5 1e3c
00000150: 924d d8bb 82de 8abd 8387 35bd 7634 bb3b
00000160: 0270 74bb 8513 1f3d 60ea cfbc a879 cdbb
00000170: fb6f c73d 7780 a63d 1c81 c73d e145 14bd
00000180: 779a 3a3c f5a0 763c 7e34 553d 3220 b83d
00000190: 6d8f fbbb dbc3 a03c e9b5 803d a30e 05bd
000001a0: d534 67b9 1239 2a3d 58a8 5abd eaf6 783c
000001b0: c7f7 573d 58d7 113d 2192 85bd b448 cfbc
000001c0: c60a 87bd 1e69 713c 38cd 17bb 0ce6 8a3d
000001d0: 2f70 2abd c004 96bd 5b1f 21bd 769d 523d
000001e0: dd37 1bbd 47f4 cc3c a2c3 8abd dd31 043d
000001f0: 0503 ad3b 3be2 ce3b 2cc3 7e3d e214 e5bb
00000200: 4407 f6bc d351 c8bc 3414 2fbd 63af 963c
00000210: aea9 423d 0d24 bcbc 23b1 a53d 3642 efbc
00000220: 625b d63b 7e0b 563d 8288 893a e62f 833d
00000230: 8c0f 1dbd 2059 dabc 8c1b ae3d c838 9cbc
00000240: 8634 373d 86b7 763d ada2 33bd 63af 92bc
00000250: 3858 74bc 26b9 4fbd 0c40 ac3c eeb6 3dbd
00000260: e938 283c d4df 893d c8cb 72bc 52d7 9abd
00000270: 2e7f 1ebd cbc5 c1bb 32b5 5e3d 64f1 0a3d
00000280: f85f 0c3d 501c 46bd 29d3 783d b791 d43c
00000290: 956f 5fbc d9e7 e13b 61ec 253d df7b 8fbd
000002a0: 9e21 3b3d 583a 303c 5dea 16bd 1b9b 9fbb
000002b0: abf7 8d3c 5fb1 353d b94c 34bd fc81 aabc
000002c0: 84c3 89bb fb0c 3a3d 5ba2 95bd a39a db3c
000002d0: 4bf9 063d 5950 493d c12b 63bd 32f1 393d
000002e0: 9de8 553d f90c c5bc 097b 963c f243 88bd
000002f0: 50db cfbb 685c 4fbc b5c4 c239 e51d 58bc
00000300: 3090 69bc 4675 d239 e4e7 a1bd dc74 b2bc
00000310: d864 553c b180 203d 9309 a0bd f044 3ebd
00000320: 6339 75bd e6fb 99bc 6975 e43b ced0 923d
00000330: 3695 673d 876f a4bd e081 92bd 9ba7 06ba
00000340: c0b1 a7bd 67ef 1b3d 1620 16bd 7d6f 2bbd
00000350: 3a96 f2bc 5947 b6bc 494f 54bd 6ae2 1fbd
00000360: 582d 693d 8566 8b3d 07f0 293d 1755 64bd
00000370: cf2f e1bc 8556 91bd 586d 763d 05fc a6bd
00000380: 7fc7 863d 9bde 813d 46d9 90bd ee4a 5fbd
00000390: 1b7c aebd aaf6 7dbd 8829 4dbd bc31 d7bc
000003a0: 5889 57bc 8bb1 66bd 7358 633d ae6c 0e3d
000003b0: 3611 6abd 8d2d 4bbd 3ef3 963c f5cb 3bbd
000003c0: b007 48bd 8673 2ebd 56f7 403d 4220 733d
000003d0: 4821 a9bc 93a1 b23d dec1 5e3d a57f 1dbd
000003e0: 5e24 713d 266a 24bd 7534 9a3d 89e8 fcbc
000003f0: d411 86bc 3cf5 1cbb 9a48 ad3d 27cc f83c
0.012953632 -0.030618107 0.0013183927 0.06395266 0.08834744 0.0021423965 0.061576094 0.07312155
-0.06186614 -0.070757255 0.024117945 0.10254129 0.07883497 0.067949355 0.01435229 0.047146313
-0.020675657 0.009591912 -0.055098712 0.08487523 0.072992854 -0.06435769 0.08274483 0.035376634
0.0616447 -0.052836955 0.083926626 -0.01329525 0.08327803 0.07652518 0.08111938 -0.011805166
0.08408852 -0.030727793 0.04258273 -0.060824487 0.037074532 0.07597114 0.078301355 -0.009651097
-0.07844152 0.061753202 -0.048846968 -0.05868698 -0.0076258723 -0.064610735 0.07544407 0.009662815
-0.07111416 0.016722972 0.071934395 0.030207573 0.008377087 0.0026737435 0.055255584 -0.050597165
-0.028089695 0.0065035247 0.06343924 0.04116169 -0.058134206 -0.040817518 -0.053696893 0.09413397
-0.020005276 -0.023529133 0.0095760245 -0.06259444 0.05554949 -0.02977924 -0.031092176 0.042024862
-0.021879504 -0.024359435 0.07383594 0.00018745061 -0.0050163777 0.023222085 -0.00754166 -0.023103423
0.09735709 -0.03203856 0.0324221 0.009690626 -0.006601044 -0.06780721 -0.044318687 0.005713041
-0.0037298207 0.038836975 -0.025380313 -0.006270606 0.097381555 0.081299715 0.097414225 -0.036199454
0.011389366 0.015053024 0.052052014 0.08990516 -0.00767701 0.019624641 0.062846966 -0.03248466
-0.00022049558 0.041558333 -0.0533832 0.015195588 0.052726533 0.03560576 -0.065220125 -0.025303222
-0.06593852 0.014734535 -0.0023163091 0.06782159 -0.041610893 -0.07325125 -0.039336544 0.051419698
-0.037895072 0.025018824 -0.06775595 0.032274116 0.005279901 0.00631359 0.06219785 -0.006991015
-0.030032761 -0.02445308 -0.042743877 0.018394178 0.0475251 -0.02296641 0.08090427 -0.029206377
0.0065416554 0.052257054 0.0010492953 0.0640562 -0.038344905 -0.026653826 0.08501348 -0.019070044
0.044727825 0.060233615 -0.04385631 -0.017905897 -0.014913611 -0.05071368 0.021026634 -0.046317033
0.010267475 0.06732145 -0.014819093 -0.075606 -0.038695507 -0.0059134713 0.05437202 0.033921614
0.03427121 -0.048366845 0.060748253 0.025948389 -0.013637443 0.0068940935 0.04050863 -0.070060484
0.045686357 0.010756098 -0.0368446 -0.004870785 0.017330011 0.044358607 -0.04401848 -0.020813935
-0.0042042155 0.045422535 -0.073063575 0.026807135 0.032952588 0.04914889 -0.05546165 0.045396037
0.05222379 -0.024054037 0.018369215 -0.066535845 -0.0063432828 -0.012656309 0.00037149122 -0.013190721
-0.014255568 0.00040141697 -0.07905558 -0.021784239 0.013024531 0.03918523 -0.07814326 -0.046452463
-0.05986918 -0.018796872 0.006972004 0.071687326 0.056538783 -0.08029085 -0.07153678 -0.00051366695
-0.081882 0.03807011 -0.036651693 -0.04185437 -0.02961265 -0.022250818 -0.051833425 -0.039034285
0.05692801 0.068066634 0.041488674 -0.05574521 -0.027488617 -0.070965804 0.060162872 -0.08153538
0.065810196 0.06341287 -0.070726916 -0.054514818 -0.08519765 -0.062002815 -0.050088435 -0.026268832
-0.013155304 -0.056321662 0.055504274 0.034771614 -0.05714532 -0.049603987 0.018426534 -0.045848805
-0.048835456 -0.04259064 0.047110878 0.059356935 -0.020645753 0.08722224 0.054384105 -0.03845181
0.058872573 -0.040140294 0.07529537 -0.0308726 -0.016365923 -0.0023949882 0.08461113 0.030370785

post.2.bias f4 [128]
00000000: 3d37 b63c c9e0 8cbd 2152 88bd 37fa d4bc
00000010: 3422 85bd 0a7a 45bd 68d6 79bd 9e3f 65bd
00000020: 7f23 2cbb 22de 1dbd 86d1 a43d 9160 9d3d
00000030: 2f4e 003d e1f4 d93b d017 51bd 1f28 673d
00000040: 1c7c 23bd 8c63 de3c 924f 903d 458b e2ba
00000050: d5e1 c0bc 38a4 2bbd ba40 86bd d36e cdbb
00000060: 0525 a2bd f23b c3bc 5dc6 363d e48d 83bd
00000070: 8ca4 cc3d 1acb 95bc 242e 81bd 846d 2c3c
00000080: acc4 6abd edcc acbc 9e04 86bd 04de a03d
00000090: 10d2 72bc bc15 983d 4774 8b3d e048 b4bb
000000a0: 14c4 c03c 827b 6f3c a0f1 733c 4e6e 893d
000000b0: 77f5 7bbd 04f7 803c d52b e03c a0a4 7ebc
000000c0: e2a8 b83d a1cf 803d 83dd 73bd d49f 9f3d
000000d0: c0d0 34bd 2c1c 523d 9e32 a0bd 558e 84bd
000000e0: d6b5 4b3d 58df 413c ae11 e7bc ce76 8fbd
000000f0: 60ce 9e3c 0a2e f5bb 2e44 b03c 9dfe 8cbd
00000100: 39d7 853d 8998 65bc be53 543d 77bb 703d
00000110: c084 c33d bf57 9f3b ceaf 073d d279 153d
00000120: 837f adbd 0b60 7a3d 66f2 e7bc 9486 aebd
00000130: 62ab 9e3d 3584 f93c 5d78 253c f417 b03b
00000140: 8c7e 81bd 1725 12bd 8aa7 90bd 29df a83d
00000150: 3e42 cd3c ee51 253d 56c3 f0bc c44a d43c
00000160: 23bc 0abd c55e 533c 90ec 263c 2637 c73b
00000170: 7d4d 24bd 524a 03bd f7b5 29bc ba82 a4bc
00000180: 0217 5dbd 396a 9ebd 97cb c53d d3c1 59bd
00000190: cb23 bdbc 35c1 233d e449 d03d b254 bc3d
000001a0: ca39 81bb 5641 51bd 1aa5 533d 1fcb 493a
000001b0: 96f2 323c d177 063d 91f3 ca3d a2e0 87bd
000001c0: daac 833d 4881 943c 4b9c 4cbd fe71 c03d
000001d0: 45b8 7bbd bde8 5e3b 2676 20bd f88f 003d
000001e0: 5328 c5bc e4ed be3c 5347 11bd 5739 4d3d
000001f0: c2cf 2c3d 75a2 9dbc 89e5 443d 5183 163c
0.022243137 -0.06878812 -0.0665629 -0.025998218 -0.06500664 -0.04821209 -0.06099549 -0.055968873
-0.0026266275 -0.03854192 0.08047776 0.07684434 0.03132456 0.0066515063 -0.0510481 0.056434747
-0.03991328 0.027147077 0.07046427 -0.0017283937 -0.023545185 -0.041904658 -0.06555314 -0.006269315
-0.07917217 -0.023832295 0.044622768 -0.06423548 0.09992322 -0.018285323 -0.06307629 0.010524157
-0.057316467 -0.02109381 -0.065438494 0.07854846 -0.014820591 0.074260205 0.068092875 -0.0055018514
0.023530997 0.014616849 0.014889151 0.06710492 -0.06151339 0.015742786 0.02736465 -0.015542179
0.09016587 0.06289602 -0.059537422 0.07794157 -0.044144392 0.051296398 -0.078221545 -0.0647246
0.04973396 0.011833034 -0.028206673 -0.07005082 0.019385517 -0.007482295 0.021516886 -0.06884501
0.06535191 -0.014013418 0.051837675 0.05877253 0.095468044 0.004862755 0.033126645 0.03649313
-0.084715866 0.06112675 -0.028313827 -0.085217625 0.077475324 0.030458549 0.010099498 0.005373949
-0.06322965 -0.035679903 -0.070632055 0.082456894 0.025056 0.040361337 -0.029390018 0.025914557
-0.033870827 0.012901013 0.010188237 0.0060795723 -0.04011296 -0.0320533 -0.010358325 -0.020081867
-0.05397702 -0.07735104 0.09657972 -0.05316336 -0.023088356 0.03997918 0.101703435 0.09195842
-0.0039436566 -0.0510877 0.051671125 0.0007697809 0.010922095 0.03282911 0.09909738 -0.06634642
0.06429453 0.018128052 -0.04995374 0.09396742 -0.06145503 0.0034013235 -0.039175175 0.0313873
-0.02406708 0.023306794 -0.03546841 0.05010351 0.04219032 -0.019242505 0.048070464 0.009186582

lstm.weight_ih_l0 f4 [512, 128]
00000000: 7bed 943d 237f 833d 42ba 693d 7337 3bbc
00000010: ffa0 9b3d 1c2a 4abd 20f8 78bc e52f 72bd
00000020: 0fd1 803d 55bd 823d 8430 34bd 5281 6bbc
00000030: 9fa0 333d 168f be3c e3b4 44bd 7494 903c
00000040: b055 0bbd 78ad 92bd 6cea 87bd c3e0 8abd
00000050: 80a9 97bd 9603 86bd ea24 523c 819b f73c
00000060: 4f63 353d 83c3 82bd ee67 a33d 5fe3 2ebd
00000070: bd52 973d 2819 893d 2a4d 0b3d e0c4 c83c
00000080: ee91 e13b b8f1 2e3d 4fe5 883d bdca b7bc
00000090: 8b4e 9e3d fcc3 a3bd 5f9b a43d 52fe 353d
000000a0: 0193 553b eec1 b93d 14ca c1bc a935 073c
000000b0: be4a a03d 3b0d 9a3d 7811 783d 4ea2 25bd
000000c0: ee04 a23d 3902 943d 380b 7ebd 143a 903d
000000d0: 8f16 113d 157a d53c 0713 6d3d cd20 1a3d
000000e0: e4dd a13d 79fc a33d d503 8c3d 0a64 ae3d
000000f0: d965 8d3d 5030 7f3d db26 a6bd e48b b93c
00000100: 4c8d d33c dad4 3fbd 824e 8c3c 57c8 83bd
00000110: d242 8b3d 6651 eb3c 2439 16bd 7856 fe3c
00000120: 4021 303d 8b40 503d 7ee2 f0bc 5e5d 82bd
00000130: 26f3 cfbb 40e6 173d 3c98 4fbc c8fb 323d
00000140: a056 ae3b 5471 1abd e612 9abd 1519 15bd
00000150: 44c6 f6ba 8070 6cba 2a50 1cbd c07e d03c
00000160: d8fa 93bd 8c34 503c 9ef9 87bd b277 5dbc
00000170: 76ef 18bc 4f7b 303d 39ca d0bc 2c6a 6cbd
00000180: 8d9a ae39 50a2 63bb 3ef3 c6bc d6f4 0cbd
00000190: 8140 b3bb ae9a 0a3c d9e2 e4ba 0f5f bd3d
000001a0: 6781 b5bc eeb7 c1bc 6ab2 abbd 9676 aabd
000001b0: 4c76 9b3d d391 57bd 943d 3c3c c9a1 a2bd
000001c0: 56dd 2dbd a0a1 47bc c05d aabd a239 cbbc
000001d0: f531 dd3c 83ee 733c efc4 4e3d ae32 61bd
000001e0: 1b50 553d 648c d03c afd4 a23d 0d58 29bd
000001f0: 4b71 90bd c4af 34bd 8c96 823d fec3 3abd
00000200: 3327 813c 0bc4 bfbc 18e6 983c 8d64 573d
00000210: 27ab 99bd aac9 573d 1c95 f83c 6fe8 a93d
00000220: d391 fd3c 7914 53bd 4de1 acbd faaa cabc
00000230: 34bd 29bd eeee a4bd aeb3 b33c dd63 77bd
00000240: a446 7a3d 5309 24bd 2e02 4bbd b893 2a3b
00000250: 6be1 4a3d b31e 7bba e8b9 5c3d 0a7b fc3b
00000260: 683a ad3d 26f4 533d defd 023b 3d10 8f3c
00000270: 2820 babd 6141 343d 1e7f 84bd fec2 3abd
00000280: 460a 833d 37d5 563c 366b dc3c c417 4a3d
00000290: 466d 223d 1453 11bd b607 a1bd 8d0a 953d
000002a0: 478e f3bc c3cd 32bc 4d8c 55bd db78 683b
000002b0: ec30 913d 3e49 2f3d a823 093d 9521 4c3d
000002c0: 56c5 983c 0f52 363c 6cef acbd 290e 133d
000002d0: eaaa bdbd 44cb 703c 57c9 8fbd 8407 2ebd
000002e0: 3ce2 563d cf4a 9c3d 3ee9 1c3d bdb1 363c
000002f0: 629d 453d ca22 4bbd a713 03bd 152c 5e3d
00000300: 40d6 d2bc ca15 c23c a6a5 5b3d 398f 90bd
00000310: 04f6 8b3d 3a24 44bd c97e 9bbd 488f 1d3d
00000320: 5faa 29bd 2061 d93c 4fda 873d 1ee8 88bd
00000330: c0fd 54bd a337 b8bd d904 6ebc 70d5 5bbd
00000340: 00cd 153a becd ab3c 7153 223d 3761 44bc
00000350: 0aa4 913d 48eb 5fbc d714 173d 985b 883c
00000360: 6e40 283d 89dc 803d 2af5 bcbc 3cef df3c
00000370: c215 c4bc 73a0 49bd 1bae bc3d 8503 943d
00000380: e051 983d e8fc b03b 1ac2 0bbb 8f06 a9bd
00000390: 19ac 71bd 779a 47bc 25f1 5b3d c554 c1bd
000003a0: 2681 503d a1c5 4cbd d459 823c e279 933d
000003b0: bd58 aebd 599e a9bd 5e40 1bbb 61e2 86bc
000003c0: 6954 a23d 03e3 44bd 24ed 9c3c 3bbd b0bd
000003d0: d361 33bd cd6b 36bd 4aa6 a0bd 1621 a73d
000003e0: 097e 03bd 35f0 a63d abc3 75bd e837 7fbc
000003f0: d66f 443d aaa8 c03c 7940 93bd f584 f23c
0.07271858 0.06420734 0.057062395 -0.011426794 0.07599067 -0.049356565 -0.015195876 -0.059127707
0.06289875 0.063837685 -0.04399158 -0.014374094 0.043854352 0.023261588 -0.04802407 0.017648913
-0.034017265 -0.07161993 -0.06636509 -0.06781151 -0.074053764 -0.06543653 0.012826184 0.030225517
0.04428416 -0.06384947 0.079788074 -0.042697307 0.07388828 0.06694251 0.034009136 0.02450794
0.0068838513 0.04271099 0.06684362 -0.02243554 0.07729825 -0.079963654 0.08037447 0.044431992
0.0032588842 0.09070192 -0.023655929 0.00825254 0.07826756 0.07522055 0.060563534 -0.04043799
0.079110965 0.072269864 -0.062022418 0.070423275 0.035421904 0.02605919 0.057879474 0.037628938
0.079036504 0.0800714 0.068366684 0.08515175 0.069041915 0.062301934 -0.0811288 0.022649713
0.025824212 -0.04683385 0.01712728 -0.06434696 0.06799854 0.028725337 -0.036675587 0.03104709
0.04300046 0.050842803 -0.029404875 -0.06365465 -0.006346124 0.037084818 -0.012670573 0.04369715
0.005320385 -0.037705734 -0.07523136 -0.036400873 -0.0018827398 -0.00090194494 -0.038162388 0.025451064
-0.07225579 0.012707841 -0.066394076 -0.013517307 -0.009334436 0.043086346 -0.025487052 -0.05771844
0.00033303016 -0.0034734197 -0.024285909 -0.03441318 -0.005470336 0.00845973 -0.0017462625 0.092466466
-0.02215643 -0.023647275 -0.08383639 -0.083234 0.07590923 -0.052629303 0.011489291 -0.07941014
-0.04244741 -0.0121845305 -0.08318663 -0.024807755 0.02700136 0.014888409 0.05048078 -0.054979973
0.052078348 0.025457568 0.079507224 -0.041343737 -0.07052859 -0.044112936 0.06376371 -0.04559707
0.015765762 -0.02340891 0.018664405 0.052586127 -0.07503348 0.052682556 0.030344538 0.08296286
0.030953323 -0.051533196 -0.0844141 -0.024739731 -0.041440204 -0.08053385 0.021936264 -0.06039797
0.061102524 -0.040047955 -0.049562626 0.0026027989 0.04953138 -0.00095794647 0.05388823 0.007705097
0.08458406 0.05174651 0.0019987742 0.017463798 -0.090881646 0.044007663 -0.06469558 -0.045596115
0.06398444 0.013112358 0.02690659 0.04933907 0.039654993 -0.03547962 -0.07862799 0.07277403
-0.029730929 -0.010913315 -0.052135754 0.0035472426 0.07089409 0.04279446 0.03348127 0.049836714
0.018648785 0.011127963 -0.084441036 0.035902176 -0.09261115 0.0146969 -0.070208244 -0.042487636
0.052461848 0.07631456 0.038308375 0.011150775 0.048245795 -0.049593724 -0.032001164 0.05424126
-0.025736928 0.02369203 0.05362477 -0.070585676 0.06834033 -0.04788611 -0.07592542 0.03846672
-0.041422244 0.02653557 0.06633436 -0.06684898 -0.051999807 -0.08994987 -0.014527523 -0.053670347
0.00057144463 0.020972129 0.039630357 -0.011986068 0.07111366 -0.013666935 0.03688511 0.016645238
0.04107707 0.06292064 -0.023066122 0.027335756 -0.023936156 -0.049225282 0.092128955 0.07227234
0.074374914 0.0054012425 -0.002132541 -0.08253204 -0.059002016 -0.012182823 0.05369677 -0.09439997
0.050904416 -0.04999316 0.015911974 0.07200982 -0.08513019 -0.082821555 -0.002368949 -0.016465368
0.07926256 -0.048068058 0.019156046 -0.08629843 -0.043794464 -0.0445364 -0.07844217 0.081606075
-0.03210262 0.081512846 -0.060001057 -0.015577294 0.047958218 0.023517925 -0.071900316 0.029604414
