RL/ablation_Or_Policy_20260129_061634/ckpt_ep100.pt (torch, 784866 bytes, 31 tensors)

gcn1.lin.weight f4 [64, 10]
0.07057424 -0.1922977 0.07856055 -0.21226089 -0.2538852 0.041101307 -0.22109984 -0.22559652
0.18633379 -0.21212922 0.0618268 -0.03736117 -0.27552083 -0.15780193 0.2547238 -0.037810028
-0.27157402 0.26877943 -0.002588754 -0.2482531 0.18597963 0.3183715 -0.20337622 -0.06589395
-0.14772388 -0.1517236 0.30287072 -0.30563733 0.15276772 -0.20294972 -0.19288683 -0.110362865
-0.14673106 -0.18561283 0.12263884 -0.17219824 0.1351173 -0.14553146 -0.09175682 0.17499667
-0.10833966 0.20832692 -0.13908166 0.31447253 0.23386148 -0.08655825 0.21929838 0.07591464
-0.047517605 0.041718338 -0.30996662 0.21832822 -0.17866585 -0.18606396 0.10899354 0.085976005
0.012719499 -0.11445938 0.12019768 0.070154734 -0.068995126 -0.09646378 0.29456416 -0.041585177
-0.28279275 0.09007397 -0.18227229 0.23698737 0.22306803 -0.22095257 -0.026147995 -0.13751647
0.0888897 0.17575938 0.23284027 0.2064155 0.26974148 -0.18456921 0.09691346 -0.01455223
-0.28644913 0.32622325 -0.25520968 0.31466383 -0.08507568 0.27566883 -0.2166669 -0.0037360243
-0.15300924 -0.0058896206 -0.2277728 -0.27740574 0.21315148 -0.22133802 -0.101796664 0.26567176
0.14727415 0.05449717 -0.20197874 0.10116646 0.038515687 0.30768576 -0.13300025 0.031918433
-0.13280027 -0.07687181 0.16870111 -0.039648622 -0.0025989346 -0.13259293 0.15680122 -0.27037743
-0.095739715 0.08020027 0.0496065 -0.047065526 0.28391954 0.17301388 0.3012149 0.29335684
-0.028812926 0.32007605 0.3074472 0.342225 0.2665333 -0.00046372414 0.06833971 0.053934883
-0.11926607 -0.022127027 0.0010874073 -0.09967251 -0.0050958586 0.08500947 0.07280504 -0.07334946
-0.12590328 0.2814432 -0.28403792 0.2248919 -0.05368097 -0.09718745 -0.05324283 0.02364433
-0.09764772 -0.28967267 0.25120527 -0.11417159 -0.09579259 0.044827912 -0.11126241 -0.22474477
0.30705494 -0.25370735 -0.19940153 0.008147657 0.06271384 0.18941943 0.053448718 0.15388899
0.24586065 -0.090665914 -0.083069116 -0.15315682 -0.27806962 -0.20234704 -0.316161 -0.08472747
-0.112353586 0.106897645 -0.16500297 0.05245845 -0.1709281 -0.06723374 -0.2557802 -0.27750647
0.17871755 0.25538027 -0.2107353 0.25454423 0.05774948 -0.28043893 0.19964515 0.21041986
0.21631451 0.16424626 0.0342134 0.0044170553 -0.06664367 0.30382785 0.10126222 -0.15346776
0.16597773 0.051693045 -0.023321018 0.13148877 0.2696415 -0.26860806 0.06406039 -0.2581555
0.17138754 0.0014781523 0.18637063 0.33927444 0.17889416 -0.1235553 0.06693906 0.06301627
0.039666682 -0.1348985 -0.07536645 -0.006173166 0.19431281 -0.01347374 -0.14985369 -0.24829298
0.016470272 -0.22197576 -0.23012722 0.27508953 -0.09216347 -0.1394404 0.24888757 0.21479131
-0.10394629 -0.10663888 -0.17162398 0.18715386 0.045009747 -0.2761965 0.25857052 0.3155849
0.014165329 -0.14671439 -0.07183384 0.28366348 -0.2247276 0.13008444 0.33350703 -0.019022185
0.15379858 0.2754036 0.29328275 -0.13264577 0.075764894 0.2929568 0.2965874 0.316375
0.14402962 -0.21345963 0.12593688 -0.107898474 0.108020194 -0.079596266 0.117453165 -0.00648883
00000000: 3a89 903d b0e9 44be 5be4 a03d eb5a 59be
00000010: 3efd 81be d859 283d ff67 62be c602 67be
00000020: 49ce 3e3e 6738 59be 193e 7d3d 0708 19bd
00000030: 1111 8dbe d496 21be 286b 823e b0de 1abd
00000040: c00b 8bbe 759d 893e 16a8 29bb 1036 7ebe
00000050: 7271 3e3e 9701 a33e db41 50be 68f3 86bd
00000060: ee44 17be 6e5d 1bbe df11 9b3e 7f7c 9cbe
00000070: 246f 1c3e 0dd2 4fbe 2084 45be ed05 e2bd
00000080: ab40 16be 4a11 3ebe 122a fb3d bc54 30be
00000090: 315c 0a3e 3306 15be 00eb bbbd 5432 333e
000000a0: 2fe1 ddbd a753 553e 6c6b 0ebe 8b02 a13e
000000b0: 6279 6f3e 7445 b1bd c18f 603e 2379 9b3d
000000c0: d2a1 42bd d9e0 2a3d f2b3 9ebe 6f91 5f3e
000000d0: 2ef4 36be 8d87 3ebe 0138 df3d 3014 b03d
000000e0: 7265 503c ae69 eabd 342a f63d 49ad 8f3d
000000f0: 514d 8dbd cd8e c5bd 1dd1 963e 3855 2abd
00000100: 36ca 90be b478 b83d 96a5 3abe d1ac 723e
00000110: f26b 643e 6441 62be 5234 d6bc 1ed1 0cbe
00000120: ce0b b63d 44fa 333e ae6d 6e3e 965e 533e
00000130: 8e1b 8a3e b6ff 3cbe 907a c63d 7a6c 6ebc
00000140: 76a9 92be bc06 a73e d8aa 82be 9e1b a13e
00000150: 283c aebd 7724 8d3e eedd 5dbe 16d8 74bb
00000160: 74ae 1cbe b8fd c0bb 463d 69be 2008 8ebe
00000170: 6244 5a3e 6fa6 62be c57a d0bd 2106 883e
00000180: 09cf 163e 6d38 5f3d 84d3 4ebe 5c30 cf3d
00000190: a0c2 1d3d fd88 9d3e 3831 08be e7bc 023d
000001a0: cbfc 07be f86e 9dbd fcbf 2c3e 9866 22bd
000001b0: e352 2abb 71c6 07be 8090 203e e96e 8abe
000001c0: 2f13 c4bd 0a40 a43d 2f30 4b3d c8c7 40bd
000001d0: e75d 913e 8d2a 313e d738 9a3e de32 963e
000001e0: 1609 ecbc 02e1 a33e b869 9d3e 1d38 af3e
000001f0: 0d77 883e 0020 f3b9 b1f5 8b3d d3ea 5c3d
00000200: c541 f4bd bd43 b5bc 5687 8e3a 1a21 ccbd
00000210: 29fb a6bb 7219 ae3d cf1a 953d 3e38 96bd
00000220: caec 00be 5319 903e 6b6d 91be 104a 663e
00000230: 94e0 5bbd 370a c7bd 2715 5abd c1b1 c13c
00000240: 87fb c7bd fa4f 94be fa9d 803e cbd2 e9bd
00000250: e82e c4bd 799d 373d 8cdd e3bd 7e23 66be
00000260: 4e36 9d3e eee5 81be ea2f 4cbe c07d 053c
00000270: 1d70 803d 2bf7 413e 0bed 5a3d 1395 1d3e
00000280: e5c2 7b3e 0daf b9bd 2420 aabd 24d5 1cbe
00000290: 245f 8ebe 1034 4fbe dbdf a1be 9985 adbd
000002a0: a319 e6bd 27ed da3d 8af6 28be acde 563d
000002b0: c707 2fbe d8b1 89bd 9ff5 82be 5415 8ebe
000002c0: bc01 373e 34c1 823e ffca 57be 9f53 823e
000002d0: b88a 6c3d b195 8fbe c76f 4c3e 4e78 573e
000002e0: 8d81 5d3e 2c30 283e 5a23 0c3d f2bc 903b
000002f0: 7a7c 88bd 538f 9b3e 9162 cf3d a726 1dbe
00000300: 11f6 293e 16bc 533d b80b bfbc fea4 063e
00000310: 730e 8a3e ff86 89be 1832 833d f52c 84be
00000320: 3780 2f3e 90be c13a f1d7 3e3e 61b5 ad3e
00000330: 0830 373e 900a fdbd 5917 893d ad0e 813d
00000340: 8879 223d d522 0abe ba59 9abd 4548 cabb
00000350: f0f9 463e f6c0 5cbc 3f73 19be 8440 7ebe
00000360: aaec 863c 9d4d 63be 78a6 6bbe 89d8 8c3e
00000370: 34c0 bcbd 77c9 0ebe 62dc 7e3e 41f2 5b3e
00000380: cbe1 d4bd 7c65 dabd 32be 2fbe 43a5 3f3e
00000390: 245c 383d a169 8dbe 5b63 843e 5894 a13e
000003a0: b215 683c 4c3c 16be 9f1d 93bd 573c 913e
000003b0: fe1e 66be db34 053e 6fc1 aa3e 6ad4 9bbc
000003c0: 607d 1d3e b301 8d3e 2829 963e 4bd4 07be
000003d0: a02a 9b3d 6ffe 953e 4eda 973e e7fb a13e
000003e0: 807c 133e 2995 5abe 99f5 003e e0f9 dcbd
000003f0: b139 dd3d 5e03 a3bd 498b f03d 40a0 d4bb

gcn1.lin.bias f4 [64]
-0.1321278 -0.09110479 -0.26759 -0.04512886 0.20896126 -0.060613595 -0.19871247 0.2549129
0.061850857 0.05235456 0.056901973 -0.066440895 0.098127194 0.042923495 0.028937556 0.2232464
-0.12782286 0.16274379 -0.27117243 0.11640999 0.051132623 -0.21311723 -0.10801989 -0.18270853
0.2580576 0.14285168 0.28055108 -0.08186876 0.031586513 0.01932375 0.13217917 -0.29035053
-0.17375048 -0.2142296 0.3195886 -0.25668418 0.073302045 -0.010184373 -0.22854634 -0.026234787
-0.10959897 0.035593856 0.033665825 -0.263767 0.16260578 -0.046020124 -0.23104298 -0.10203914
0.16285518 -0.1836419 -0.10868085 -0.121401824 -0.27844068 0.3127202 0.33609304 0.110365085
-0.30781683 0.2506093 0.11875859 -0.26560247 0.26244408 -0.01709593 0.31368268 -0.026293721
00000000: 834c 07be 2695 babd 8e01 89be 0ad9 38bd
00000010: f1f9 553e f645 78bd 487b 4bbe f283 823e
00000020: 5357 7d3d bc71 563d 0b12 693d 2a12 88bd
00000030: e9f6 c83d 8cd0 2f3d 740e ed3c b49a 643e
00000040: ffe3 02be 4fa6 263e 1dd7 8abe 5c68 ee3d
00000050: 7170 513d 673b 5abe 8839 ddbd f217 3bbe
00000060: 2020 843e b647 123e 64a4 8f3e cfaa a7bd
00000070: dc60 013d d74c 9e3c fa59 073e d3a8 94be
00000080: a5eb 31be 015f 5bbe 1ea1 a33e 1c6c 83be
00000090: 621f 963d 5bdc 26bc 0d08 6abe 56ea d6bc
000000a0: 6d75 e0bd ddca 113d 2de5 093d 780c 87be
000000b0: 2182 263e 997f 3cbd 8896 6cbe e6f9 d0bd
000000c0: 82c3 263e 9f0c 3cbe 1194 debd 85a1 f8bd
000000d0: c78f 8ebe dd1c a03e 6314 ac3e 1707 e23d
000000e0: 2b9a 9dbe dd4f 803e b437 f33d 0cfd 87be
000000f0: 125f 863e c40c 8cbc 049b a03e ee65 d7bc

gcn2.lin.weight f4 [64, 64]
-0.041280046 -0.028933868 0.021185234 0.046715736 -0.08789572 -0.009704811 0.055233076 -0.05029592
-0.029895842 0.09119426 0.04609558 -0.04948695 -0.0064539015 -0.021885864 -0.04186523 -0.100027636
-0.048010603 -0.029480623 -0.0838647 0.012593076 -0.056197017 -0.1127704 -0.030420974 -0.018987328
-0.10494879 -0.10317096 0.0703278 -0.030214265 0.0766428 -0.04154465 -0.02788086 0.09398318
0.018187657 -0.09931393 0.03268714 0.02187039 -0.068668805 -0.056882888 -0.11771123 -0.08104357
0.011564732 -0.04376971 -0.057190463 0.07223131 0.0708652 0.10791011 0.00821951 0.050906185
0.015917782 -0.11278037 -0.1113552 -0.018739853 0.065138385 0.11482799 0.082753405 -0.005790719
0.03484874 0.09413279 0.12385313 0.06366294 -0.031585217 -0.08660459 -0.010954604 -0.015491574
0.019907162 -0.0950623 -0.022278322 -0.10928644 -0.0733733 -0.022007616 -0.0406211 -0.06402151
0.10117516 0.0016590116 0.101563916 0.041441992 0.07226107 -0.089809366 0.0144461645 0.018175239
0.02599763 -0.10637169 0.039746407 -0.06614472 0.061035965 0.037637055 -0.016864948 0.13642849
-0.0037325225 0.11569746 0.021705434 -0.08825098 0.10990502 0.0799272 -0.06920018 0.13063897
-0.06655331 0.061923854 0.094654255 0.13342722 -0.0033035234 -0.06284729 -0.109061934 -0.03199191
-0.113437876 -0.0737991 -0.042758204 -0.10727891 -0.084619455 0.1213064 -0.06528799 0.11071474
0.084634446 -0.1148438 -0.110506736 -0.068595156 0.10312116 0.09379408 -0.114546426 0.041831225
0.040655963 0.092653275 -0.004000298 0.040332388 -0.10805989 0.0017414396 -0.005327403 0.03659091
-0.018001901 -0.0001597728 0.021453645 -0.06482878 -0.04118422 -0.06645003 0.02956413 -0.017545884
0.07214267 -0.06876204 -0.07642132 0.008472733 0.04007609 0.102912486 0.09061546 0.03524391
0.05400894 0.088611364 0.029021164 0.06582598 0.034217592 0.006583306 -0.010935199 0.11357513
-0.01948948 -0.081649184 -0.019504577 0.13839321 0.01041618 0.13651277 0.0068151364 0.049800485
-0.06682781 -0.026163727 -0.07564848 -0.032502398 0.032879163 -0.077680536 -0.057324335 0.091218576
0.0109108845 0.05857702 -0.027901342 0.13659301 0.1140533 0.14595996 -0.009516566 0.023315838
0.014861343 0.14284907 0.116814815 -0.05601442 -0.025643576 -0.0903967 -0.049926106 0.110778466
-0.061196454 0.0031899263 0.09385769 -0.059309497 0.12443412 -0.031269655 0.020967737 -0.07310749
-0.11428913 -0.0011711706 0.035918735 -0.087630436 0.030057397 -0.03447077 -0.010014045 -0.040876932
0.05803972 0.04671468 0.004982517 0.072160825 0.021258388 -0.11749464 0.060582474 0.05252903
0.12308925 0.09036252 -0.058197353 -0.046634827 0.0008467897 0.078168996 -0.066848114 0.016477915
-0.099156745 0.062056314 0.09144588 -0.06463344 0.011934841 -0.07883689 0.015863072 -0.053136915
-0.056066755 -0.074047655 0.05988357 -0.07580077 0.13056141 -0.12015629 -0.014313516 0.11485707
0.09655159 -0.10835967 0.12780581 0.077373676 -0.028747978 -0.0596411 0.09956726 0.11255156
0.03255084 -0.09547537 0.12159315 0.09693416 0.13135244 0.097543016 0.08609958 -0.042956974
-0.1227423 0.037868235 0.10357109 0.020395882 0.12744519 0.09264075 0.055025984 0.11458331
00000000: 4415 29bd b806 edbc a88c ad3c 0059 3f3d
00000010: ac02 b4bd ed00 1fbc 143c 623d 1803 4ebd
00000020: 20e8 f4bc 0ec4 ba3d b8ce 3c3d d4b2 4abd
00000030: 407b d3bb fc49 b3bc e07a 2bbd 4adb ccbd
00000040: c4a6 44bd 5981 f1bc 41c1 abbd 3053 4e3c
00000050: d82e 66bd 2bf4 e6bd 6835 f9bc 508b 9bbc
00000060: 64ef d6bd 4c4b d3bd 0608 903d e883 f7bc
00000070: e6f6 9c3d b92a 2abd 6766 e4bc 417a c03d
00000080: 48fe 943c 1a65 cbbd f3e2 053d 8829 b33c
00000090: 3ba2 8cbd 08fe 68bd 9612 f1bd 2cfa a5bd
000000a0: 007a 3d3c de47 33bd 8c40 6abd 02ee 933d
000000b0: c621 913d faff dc3d 20ab 063c 0183 503d
000000c0: 0266 823c 65f9 e6bd 320e e4bd 5284 99bc
000000d0: 4667 853d f02a eb3d 9e7a a93d 12c0 bdbb
000000e0: 8dbd 0e3d b1c8 c03d b6a6 fd3d b761 823d
000000f0: 805f 01bd bf5d b1bd f07a 33bc 5fd0 7dbc
00000100: 5814 a33c 06b0 c2bd 0781 b6bc 92d1 dfbd
00000110: be44 96bd 5149 b4bc 5062 26bd b61d 83bd
00000120: ec34 cf3d 3173 d93a be00 d03d 14bf 293d
00000130: 9dfd 933d f9ed b7bd 9baf 6c3c 3de4 943c
00000140: fbf8 d43c 67d9 d9bd 21cd 223d e276 87bd
00000150: d900 7a3d 5029 1a3d 5c28 8abc e9b3 0b3e
00000160: 569d 74bb caf2 ec3d 98cf b13c eebc b4bd
00000170: e215 e13d dfb0 a33d d3b8 8dbd 39c6 053e
00000180: 1a4d 88bd dea3 7d3d 17da c13d 25a1 083e
00000190: ed7f 58bb 14b6 80bd dd5b dfbd f309 03bd
000001a0: 1e52 e8bd fc23 97bd 3a23 2fbd 0cb5 dbbd
000001b0: f74c adbd 7d6f f83d b6b5 85bd 69be e23d
000001c0: d354 ad3d 3a33 ebbd 5b51 e2bd 9e7b 8cbd
000001d0: 3031 d33d 1c17 c03d 5197 eabd 3857 2b3d
000001e0: de86 263d 00c1 bd3d ef14 83bb 9333 253d
000001f0: 814e ddbd 0441 e43a 7f91 aebb 5ae0 153d
00000200: b978 93bc af88 27b9 8ebf af3c f4c4 84bd
00000210: c9b0 28bd f416 88bd 7930 f23c 63bc 8fbc
00000220: 89bf 933d 1dd3 8cbd c882 9cbd 38d1 0a3c
00000230: d326 243d c8c3 d23d 9994 b93d eb5b 103d
00000240: 7a38 5d3d e079 b53d cbbd ed3c c5cf 863d
00000250: bf27 0c3d c6b8 d73b 8d29 33bc 149a e83d
00000260: 67a8 9fbc b037 a7bd 10c8 9fbc f3b6 0d3e
00000270: a0a8 2a3c 01ca 0b3e 8251 df3b 98fb 4b3d
00000280: 05dd 88bd 5055 d6bc 97ed 9abd 3c21 05bd
00000290: 4dac 063d f916 9fbd eccc 6abd ced0 ba3d
000002a0: 91c3 323c 75ee 6f3d 5b91 e4bc 0adf 0b3e
000002b0: c794 e93d 8776 153e 5feb 1bbc db00 bf3c
000002c0: fe7c 733c 0747 123e 9b3c ef3d 606f 65bd
000002d0: 7a12 d2bc e821 b9bd 517f 4cbd d2df e23d
000002e0: 22a9 7abd 150e 513b 7638 c03d 84ee 72bd
000002f0: 51d7 fe3d 9c14 00bd 88c4 ab3c 61b9 95bd
00000300: 6b10 eabd f781 99ba 861f 133d 9677 b3bd
00000310: ee3a f63c 3931 0dbd f311 24bc 926e 27bd
00000320: 0fbb 6d3d e457 3f3d 6244 a33b 0ec9 933d
00000330: 1226 ae3c 08a1 f0bd 5425 783d ae28 573d
00000340: 3716 fc3d fc0f b93d 5960 6ebd 2904 3fbd
00000350: 18fb 5d3a 1117 a03d aae7 88bd b1fc 863c
00000360: b112 cbbd c32e 7e3d fa47 bb3d 895e 84bd
00000370: 5a8a 433c 3c75 a1bd 46f3 813c 18a6 59bd
00000380: 41a6 65bd 4ca6 97bd 7948 753d 6f3d 9bbd
00000390: e4b1 053e 8014 f6bd 3d83 6abc 2f3a eb3d
000003a0: d7bc c53d adeb ddbd 87df 023e 1776 9e3d
000003b0: e180 ebbc 3a4a 74bd ebe9 cb3d 6f81 e63d
000003c0: 0854 053d 9788 c3bd d405 f93d 6b85 c63d
000003d0: 4181 063e a2c4 c73d fa54 b03d a7f3 2fbd
000003e0: 5160 fbbd b91b 1b3d 141d d43d 4415 a73c
000003f0: fe80 023e 6fba bd3d ed62 613d a8aa ea3d

gcn2.lin.bias f4 [64]
-0.072753556 -0.05061193 0.082707934 -0.0620909 -0.031140212 0.063224114 0.031351816 0.08408811
-0.02920357 0.1302895 -0.06934346 0.078028105 -0.06396994 0.052801915 -0.09658777 0.042532727
0.11093283 0.11370649 0.059413638 -0.0679022 0.042075157 -0.09115374 -0.10883722 -0.08476156
0.049872365 0.06560817 -0.01107763 0.033852275 -0.07290983 -0.07199978 0.1414584 -0.107589364
0.015625771 0.060285833 0.07574037 -0.02737724 0.14820716 -0.0232594 0.07497712 0.12401971
-0.114338785 -0.034052484 0.059139416 -0.08346387 0.07861958 0.14350992 -0.08545028 -0.094090745
0.1061531 0.07140654 0.036928274 -0.06488351 0.13258988 0.042828493 0.003322812 -0.09957986
0.005734066 0.0076767495 -0.02709609 0.054704305 0.12933075 0.027948413 0.012957003 -0.043560185
00000000: d1ff 94bd 754e 4fbd c762 a93d 0753 7ebd
00000010: c219 ffbc a57b 813d c36a 003d 6336 ac3d
00000020: 533c efbc 9c6a 053e f203 8ebd 33cd 9f3d
00000030: ac02 83bd d246 583d cfcf c5bd cc36 2e3d
00000040: c030 e33d f3de e83d b75b 733d 4f10 8bbd
00000050: 0057 2c3d d0ae babd 0ce6 debd 7897 adbd
00000060: f746 4c3d 945d 863d f37e 35bc afa8 0a3d
00000070: c051 95bd 9f74 93bd 79da 103e d057 dcbd
00000080: 9e01 803c 47ee 763d c41d 9b3d 3c46 e0bc
00000090: 9ec3 173e 7f8a bebc 9b8d 993d 0cfe fd3d
000000a0: 742a eabd 9e7a 0bbd 2c3c 723d 1bef aabd
000000b0: 4d03 a13d 44f4 123e 8e00 afbd a6b2 c0bd
000000c0: cc66 d93d 983d 923d 1a42 173d a5e1 84bd
000000d0: a4c5 073e ee6c 2f3d 89c3 593b 87f0 cbbd
000000e0: d5e4 bb3b 3e8d fb3b 9ff8 ddbc 9f11 603d
000000f0: 486f 043e 12f4 e43c 9c49 543c 2a6c 32bd

no_gnn_proj.weight f4 [64, 10]
-0.059702665 0.20578423 0.22795895 0.089529365 -0.18645772 0.1194506 0.29500452 0.08432087
-0.21714844 -0.22679242 0.17124951 0.19947103 0.08556101 -0.29015565 0.053701848 0.16591161
0.17727941 0.17042956 -0.26391196 0.042161465 0.29558012 0.25532797 0.24819145 0.16185752
-0.03211552 -0.2625762 0.21299705 0.2800546 -0.25926417 -0.21196827 0.06975624 -0.279235
-0.08281027 0.08006477 -0.0704318 0.08564454 -0.29656112 -0.16056341 0.26564214 0.26299474
0.028157651 -0.016642064 -0.078509465 -0.07122299 -0.12043971 0.1844919 -0.071278214 0.2668434
-0.21449809 0.25260213 0.10243258 -0.022702515 0.17928573 0.049699098 0.1622312 0.15965056
0.15579945 0.097507775 -0.0036315322 0.20465764 -0.17119212 0.07488403 -0.31305602 0.080109745
-0.23290205 0.06565973 0.07603595 0.2577971 -0.3005319 -0.18713956 0.035649687 0.13066152
-0.011977106 0.22354326 0.29603478 0.307169 0.23588201 -0.015314072 0.11111966 0.20367405
-0.19451562 0.13463873 0.20289794 -0.26379284 0.06050989 -0.0048699975 -0.2386196 0.19873103
0.062021285 0.073812395 -0.056244075 0.23315784 0.08567232 -0.10879117 0.25070718 0.04273832
-0.31168795 0.07569924 -0.16793773 -0.09250176 0.13589624 0.3093815 0.2590802 0.24345693
0.24948952 0.1871188 0.06120637 0.061832786 -0.0576317 0.23745129 -0.06958595 0.3117161
-0.103897184 0.26625445 0.20985588 -0.14022475 -0.19387305 0.24493131 0.30695793 -0.21564417
-0.22480845 0.21096554 -0.0398449 -0.3104415 -0.14746025 0.1746189 0.058312237 -0.24416417
-0.20942117 -0.15767938 0.14679831 0.12409508 0.20336923 0.30023423 -0.10978985 -0.24692598
0.15441552 -0.26121005 0.19816181 0.20095024 -0.20038268 -0.18171959 0.16267475 0.1364814
-0.2972141 0.17763901 0.30623302 -0.21822666 0.30536696 -0.20618033 -0.07084018 -0.29502207
0.1701231 -0.3161735 -0.23401478 -0.1915378 0.14553332 0.20195636 -0.16930263 0.2867466
0.17366195 0.25044784 -0.18933542 0.20045999 0.08332476 0.28025582 0.28418657 -0.23857754
-0.27009702 -0.03851506 0.031525552 0.29451504 -0.0036359727 0.12114379 0.16769844 -0.26943827
-0.1373944 0.26249388 -0.20047179 -0.1953406 0.2299451 -0.061166942 -0.19846341 -0.0177086
0.17369884 0.28723434 0.22625789 0.13345063 0.086686045 -0.30533248 -0.21513265 0.06081277
-0.19675413 -0.30037168 0.04175812 -0.11315407 -0.21099277 0.13042715 -0.20626919 -0.076409265
-0.13283905 0.01255402 0.23872659 -0.12572671 0.20000467 0.22132394 -0.13998073 0.25653765
-0.03163764 0.31463435 -0.26088354 0.07678893 -0.20399174 -0.04915726 -0.0020460188 -0.13885067
0.18562463 -0.124965295 0.31027743 -0.05642265 0.3088059 0.018431902 0.024983674 -0.28541875
0.27929476 -0.10726364 -0.27121803 0.20712683 -0.15546806 0.2860395 0.20535752 -0.19930069
-0.16317995 0.2540256 0.011176527 -0.14634056 -0.093917444 0.29813364 -0.12124239 0.06421861
0.24235371 -0.1632947 0.0564546 -0.25577307 0.16383457 0.27098635 -0.15391882 0.2710881
-0.15717477 0.058476686 0.3008465 -0.062196195 -0.12909018 0.015361339 0.22676072 -0.17396024
00000000: c88a 74bd 1ab9 523e 126e 693e 2c5b b73d
00000010: c6ee 3ebe 84a2 f43d d50a 973e 6cb0 ac3d
00000020: 295c 5ebe 463c 68be 085c 2f3e 2242 4c3e
00000030: 9c3a af3d 488f 94be 78f6 5b3d bce4 293e
00000040: bc88 353e 1685 2e3e 781f 87be 80b1 2c3d
00000050: 4756 973e 59ba 823e e625 7e3e fabd 253e
00000060: 908b 03bd 6370 86be e61b 5a3e 5163 8f3e
00000070: 46be 84be 360e 59be 5cdc 8e3d e4f7 8ebe
00000080: 6e98 a9bd 00f9 a33d 8c3e 90bd 6866 af3d
00000090: dcd6 97be bc6a 24be 3f02 883e 3fa7 863e
000000a0: e0aa e63c f054 88bc 92c9 a0bd 5cdd 91bd
000000b0: 18a9 f6bd 72eb 3c3e 50fa 91bd b39f 883e
000000c0: 63a5 5bbe 1155 813e 2cc8 d13d a0fa b9bc
000000d0: ae96 373e 4891 4b3d f01f 263e 707b 233e
000000e0: e489 1f3e 28b2 c73d 00ff 6dbb c691 513e
000000f0: fd4c 2fbe cc5c 993d e148 a0be 9410 a43d
00000100: e07d 6ebe 9c78 863d bcb8 9b3d fbfd 833e
00000110: 51df 99be 83a1 3fbe 6805 123d 22cc 053e
00000120: a03b 44bc 86e8 643e df91 973e 4145 9d3e
00000130: 0e8b 713e e0e7 7abc b492 e33d ee8f 503e
00000140: 1a2f 47be bcde 093e 7ac4 4f3e db0f 87be
00000150: 38d9 773d 8094 9fbb b258 74be 2680 4b3e
00000160: 080a 7e3d f42a 973d 3060 66bd eec0 6e3e
00000170: f874 af3d e8cd debd b15c 803e 600e 2f3d
00000180: 9095 9fbe 3408 9b3d def7 2bbe 9071 bdbd
00000190: 6228 0b3e 4167 9e3e 29a6 843e c64c 793e
000001a0: 2e7a 7f3e 129c 3f3e 88b3 7a3d 6044 7d3d
000001b0: 380f 6cbd 6e26 733e 1483 8ebd 4199 9f3e
000001c0: 0cc8 d4bd 8152 883e 76e4 563e 1497 0fbe
000001d0: a886 46be 46cf 7a3e 9729 9d3e d3d1 5cbe
000001e0: 3034 66be 5a07 583e 6834 23bd 30f2 9ebe
000001f0: d2ff 16be 4ccf 323e d0d8 6e3d 2c06 7abe
00000200: 8172 56be b476 21be 4c52 163e 9025 fe3d
00000210: 0640 503e 4db8 993e 80d9 e0bd 2ada 7cbe
00000220: 1a1f 1e3e 53bd 85be eeea 4a3e e6c5 4d3e
00000230: 1e31 4dbe b314 3abe 3694 263e c8c1 0b3e
00000240: 722c 98be 00e7 353e 93ca 9c3e cf76 5fbe
00000250: 0f59 9c3e f020 53be a814 91bd 220d 97be
00000260: c034 2e3e 7ee1 a1be 92a1 6fbe 7c22 44be
00000270: b006 153e a6cd 4e3e ab5d 2dbe 73d0 923e
00000280: 70d4 313e b33a 803e 25e1 41be 6245 4d3e
00000290: 2ca6 aa3d b17d 8f3e e780 913e ac4d 74be
000002a0: 284a 8abe f8c1 1dbd f020 013d adca 963e
000002b0: 8049 6ebb 3c1a f83d 24b9 2b3e d0f3 89be
000002c0: 1eb1 0cbe 9965 863e 7a48 4dbe 5e07 48be
000002d0: ba76 6b3e 308a 7abd fe39 4bbe a011 91bc
000002e0: 1cde 313e 6110 933e 26b0 673e 48a7 083e
000002f0: 7488 b13d 8a54 9cbe bc4b 5cbe d016 793d
00000300: ea79 49be 51ca 99be 900a 2b3d 52bd e7bd
00000310: 7d0e 58be b28e 053e 3b38 53be 767c 9cbd
00000320: f606 08be 60af 4d3c be74 743e 81be 00be
00000330: 06ce 4c3e bea2 623e 1c57 0fbe e758 833e
00000340: 7896 01bd c117 a13e 8792 85be 8443 9d3d
00000350: 36e3 50be 2059 49bd 8016 06bb df2e 0ebe
00000360: 6214 3e3e ceed ffbd afdc 9e3e 701b 67bd
00000370: cf1b 9e3e 80fe 963c 90aa cc3c 6822 92be
00000380: b9ff 8e3e 0aad dbbd 17dd 8abe 0e19 543e
00000390: 0533 1fbe c573 923e 3e49 523e 7b15 4cbe
000003a0: a518 27be a50f 823e c01d 373c 4dda 15be
000003b0: ca57 c0bd f9a4 983e ee4d f8bd 0c85 833d
000003c0: 922b 783e ba36 27be f03c 673d b0f4 82be
000003d0: 40c4 273e b9be 8a3e e59c 1dbe 0fcc 8a3e
000003e0: 6cf2 20be 4085 6f3d 8d08 9a3e 70c1 7ebd
000003f0: 3730 04be 20ae 7b3c f633 683e a222 32be

no_gnn_proj.bias f4 [64]
-0.25402653 0.03660968 -0.2139605 -0.23280227 0.22047475 -0.19076659 0.24263808 0.18307775
0.31490597 0.09990832 -0.01950425 0.04897648 0.24221274 -0.010692686 -0.15318888 -0.08867495
0.076052964 -0.23737065 -0.24747613 0.23043975 0.084388465 -0.30029824 -0.14726177 -0.007167697
-0.14274964 0.2428864 -0.22258341 0.23250589 -0.2645004 0.0527063 0.31473383 0.15845495
0.11728451 0.18308991 0.25721708 -0.2070854 -0.17900652 0.114462584 -0.15825106 0.09119308
0.093233675 0.2911177 0.10007891 -0.018223315 -0.15632017 0.023451656 0.08835417 0.27400693
-0.042358667 -0.07886544 -0.10137196 0.14757273 -0.26071042 0.12162435 0.04313296 -0.2066315
0.12773228 0.0712997 0.29003444 0.072393894 -0.14668587 -0.119642556 0.27326748 0.22373733
00000000: c40f 82be 08f4 153d 7618 5bbe b863 6ebe
00000010: 22c4 613e 5158 43be 1e76 783e bc78 3b3e
00000020: 5b3b a13e bc9c cc3d 60c7 9fbc 909b 483d
00000030: 9e06 783e 6030 2fbc 8cdd 1cbe 369b b5bd
00000040: a8c1 9b3d 4b11 73be 626a 7dbe 66f8 6b3e
00000050: dcd3 ac3d b1c0 99be cacb 16be 00df eabb
00000060: f62c 12be 36b7 783e e8ec 63be 0616 6e3e
00000070: 996c 87be 90e2 573d cb24 a13e 0442 223e
00000080: dc32 f03d ec7b 3b3e f5b1 833e 320e 54be
00000090: 7c4d 37be 5c6b ea3d 910c 22be 70c3 ba3d
000000a0: 4cf1 be3d 610d 953e 2cf6 cc3d 1049 95bc
000000b0: 6512 20be b01d c03c 08f3 b43d a34a 8c3e
000000c0: 4880 2dbd 3484 a1bd 1a9c cfbd 4e1d 173e
000000d0: d67b 85be 3016 f93d 30ac 303d 3597 53be
000000e0: 40cc 023e 9405 923d 657f 943e 4043 943d
000000f0: d234 16be 2807 f5bd b7e9 8b3e 661b 653e

post.0.weight f4 [128, 128]
-0.0035723185 0.00803453 -0.01243614 -0.057752937 0.037829228 0.009702802 0.056073327 0.09847385
0.05445929 -0.007807571 -0.006082161 0.035289608 -0.030434094 0.07501341 -0.030543866 0.09606493
0.03444204 0.076146506 -0.0011873281 -0.03228962 0.05572071 0.079015404 -0.0451034 0.003965369
0.09655934 0.097326525 -0.0033394548 0.060748834 -0.025284914 0.046145204 -0.04655419 -0.026652401
0.10933417 0.03011174 -0.039899312 -0.077343665 0.013128583 -0.04493103 0.10676807 0.111285396
-0.0017127551 0.020871397 -0.020388657 0.090476304 -0.014297792 0.052735608 -0.042087708 -0.029353308
0.079004124 0.10203221 0.091195285 0.10416087 -0.022657137 0.0459472 0.10024174 0.04593738
0.031360824 -0.0019503125 0.015354038 0.00040549488 0.07546194 0.03285174 0.029900374 0.031460367
0.028720044 0.08664024 -0.0470835 0.016440928 0.077303246 0.016719554 -0.040805474 0.010729953
0.010333949 0.0656328 -0.002588585 0.06979504 0.039197814 -0.0034979805 -0.03919382 -0.056779508
-0.014291925 -0.087727696 -0.007824235 0.07513785 0.077904 -0.05709015 0.049436234 -0.0012157211
0.030479452 0.011460558 -0.04795108 0.060028613 0.045236368 0.09555864 0.080191776 -0.007877894
-0.065630116 -0.08363471 0.048037987 0.05743033 0.005993084 -0.034930512 -0.0068325903 -0.0014864194
0.021599418 0.00035910102 0.03048484 -0.0328114 0.0037774115 0.043863427 0.090552695 0.05732851
-0.078835405 -0.03670005 0.040082105 0.042244688 -0.013390916 0.03818806 0.027049184 0.014498856
0.04545099 0.017836407 -0.059438378 -0.05451512 -0.01855809 0.0479586 -0.044044767 -0.05636245
0.08387816 -0.04269588 -0.07107604 0.049959898 -0.081634365 0.019309817 0.081064895 0.066919506
0.08872519 0.00019464701 0.07325292 0.00980479 -0.014306615 0.08233365 -0.0058378084 -0.042755608
0.034057897 0.07556386 0.057117246 -0.049237598 -0.04100185 -0.040878035 0.018724985 -0.06024016
-0.0021253962 -0.07132068 -0.07299801 0.02772355 0.0043855454 -0.018969147 0.09080125 -0.005021755
0.099650264 -0.0023184107 -0.029067896 -0.021051222 0.01521632 0.00679893 0.003435836 0.065017246
0.059566304 0.025242083 0.032301027 -0.03043148 0.088054344 -0.02635342 0.043918014 -0.023256345
0.030779604 0.060675558 -0.0677784 0.052083604 0.058311816 0.040888187 -0.011118388 0.05957393
0.05440224 -0.066559345 0.013197857 0.053992465 0.015482695 0.048943818 -0.032185797 -0.00026496538
-0.0038610548 0.06455592 0.08230131 0.07138726 0.07877111 0.045976117 0.039574903 0.0833736
0.08312312 0.057739265 0.0020819162 0.071247086 0.015503762 -0.06881359 -0.030226033 0.025602419
-0.049176317 -0.060079455 -0.034130674 -0.072599575 0.09418997 -0.035397336 -0.079639986 -0.023090264
-0.0007846377 0.051807724 0.015399069 0.07877509 0.017530195 0.06901737 -0.05836544 0.002207477
0.067931384 -0.023977278 -0.07597242 -0.002526905 0.035434034 0.04170941 -0.025194673 0.021589443
0.049027234 0.04306042 -0.03357023 0.06774144 0.059908118 -0.06310965 0.015108239 -0.0074557965
0.006913558 -0.061919373 -0.10226008 -0.069018595 -0.053715937 0.052175112 0.077640414 0.054768246
0.03605677 0.00970448 0.06088285 -0.00717241 0.06669984 0.11076716 0.05596528 0.039831966
00000000: 8f1d 6abb 43a3 033c f4c0 4bbc 588e 6cbd
00000010: d2f2 1a3d 80f8 1e3c 25ad 653d a8ac c93d
00000020: b410 5f3d a7d6 ffbb dd4c c7bb d68b 103d
00000030: ec50 f9bc a1a0 993d 2137 fabc b1bd c43d
00000040: 1913 0d3d b3f2 9b3d 1fa0 9bba 1f42 04bd
00000050: 663b 643d d4d2 a13d 58be 38bd edef 813b
00000060: e7c0 c53d 2153 c73d c1da 5abb c5d3 783d
00000070: 4f22 cfbc c102 3d3d 9baf 3ebd 2356 dabc
00000080: 98ea df3d e5ac f63c 766d 23bd 5b66 9ebd
00000090: 4519 573c 9a09 38bd 38a9 da3d 99e9 e33d
000000a0: 867e e0ba 7efa aa3c 1d06 a7bc a44b b93d
000000b0: 4941 6abc 4b01 583d 2964 2cbd 5976 f0bc
000000c0: eacc a13d 43f6 d03d 98c4 ba3d 4b52 d53d
000000d0: 769b b9bc 2233 3c3d 8b4b cd3d d628 3c3d
000000e0: 3574 003d a1a1 ffba 818f 7b3c 9a98 d439
000000f0: ca8b 9a3d 8c8f 063d a1f1 f43c 96dc 003d
00000100: 4c46 eb3c 7070 b13d a1da 40bd 20af 863c
00000110: 2a51 9e3d 72f7 883c a423 27bd afcc 2f3c
00000120: b94f 293c 7d6a 863d 40a5 29bb b4f0 8e3d
00000130: e38d 203d 603e 65bb b389 20bd a191 68bd
00000140: ae28 6abc 94aa b3bd 3831 00bc e0e1 993d
00000150: 228c 9f3d 5cd7 69bd a67d 4a3d d558 9fba
00000160: 0bb0 f93c 10c5 3b3c 5a68 44bd 90e0 753d
00000170: c549 393d 40b4 c33d 963b a43d 4812 01bc
00000180: 1569 86bd ad48 abbd 7bc3 443d 113c 6b3d
00000190: a261 c43b 4c13 0fbd ece3 dfbb f5d3 c2ba
000001a0: 43f1 b03c b945 bc39 58bb f93c 3f65 06bd
000001b0: 738e 773b 23aa 333d b173 b93d 4dd1 6a3d
000001c0: 7574 a1bd cb52 16bd 222d 243d c408 2d3d
000001d0: 9365 5bbc 156b 1c3d 4096 dd3c 9c8c 6d3c
000001e0: d12a 3a3d a81d 923c a875 73bd 3f4b 5fbd
000001f0: 2307 98bc 3d70 443d 4968 34bd 50dc 66bd
00000200: 50c8 ab3d e0e1 2ebd 5190 91bd c0a2 4c3d
00000210: eb2f a7bd 9f2f 9e3c 5a05 a63d 180d 893d
00000220: 8db5 b53d 291a 4c39 a005 963d 45a4 203c
00000230: 4b66 6abc 8b9e a83d 164b bfbb 8120 2fbd
00000240: 4b80 0b3d 3ac1 9a3d c6f3 693d 5dad 49bd
00000250: 8ef1 27bd ba6f 27bd 2465 993c 63be 76bd
00000260: 3b4a 0bbb 9410 92bd fb7f 95bd 801c e33c
00000270: 9fb4 8f3b 2f65 9bbc 01f6 b93d 898d a4bb
00000280: 7015 cc3d 7af0 17bb cc1f eebc 9d73 acbc
00000290: df4d 793c 8fc9 de3b c32b 613b c327 853d
000002a0: ccfb 733d 7cc8 ce3c 154e 043d 704b f9bc
000002b0: d655 b43d 21e3 d7bc 60e3 333d 1784 bebc
000002c0: 8225 fc3c ef86 783d 67cf 8abd 9e55 553d
000002d0: 5fd8 6e3d 5f7a 273d e629 36bc cb03 743d
000002e0: e2d4 5e3d 4450 88bd d33b 583c 3427 5d3d
000002f0: 21ab 7d3c 5079 483d 41d5 03bd 0deb 8ab9
00000300: c009 7dbb e535 843d 978d a83d 7c33 923d
00000310: bf52 a13d 7451 3c3d 4b19 223d c7bf aa3d
00000320: 743c aa3d 0280 6c3d c270 083b fee9 913d
00000330: 7e03 7e3c 24ee 8cbd 969c f7bc 2abc d13c
00000340: 1b6d 49bd e015 76bd 9bcc 0bbd 16af 94bd
00000350: ace6 c03d ccfc 10bd 4a1a a3bd cb27 bdbc
00000360: 25b0 4dba 5634 543d 604c 7c3c d654 a13d
00000370: 7c9b 8f3c fb58 8d3d 9a10 6fbd 52ab 103b
00000380: 9c1f 8b3d ff6b c4bc 6e97 9bbd 6e9a 25bb
00000390: 4723 113d 7cd7 2a3d 0f65 cebc 58dc b03c
000003a0: c8d0 483d 1f60 303d f080 09bd 06bc 8a3d
000003b0: 3762 753d a23f 81bd 8c88 773c c14f f4bb
000003c0: 218b e23b 2b9f 7dbd bc6d d1bd 9f59 8dbd
000003d0: 3e05 5cbd 92b5 553d f001 9f3d ab54 603d
000003e0: 43b0 133d 8aff 1e3c 4c60 793d 8906 ebbb
000003f0: ed99 883d e5d9 e23d d93b 653d d826 233d

post.0.bias f4 [128]
0.04968711 -0.04811162 -0.052006774 0.08705907 0.012885602 0.04658612 0.048769366 -0.049776215
0.04383277 0.029804097 0.0999497 0.00523362 0.09031522 0.05032851 -0.0928894 -0.025449954
-0.03618187 0.08065926 -0.050774455 -0.030093353 0.08746633 -0.08777913 0.017676426 0.061167467
-0.051192716 -0.04867933 -0.026080819 0.06633489 -0.040288966 0.049053766 0.026089214 0.07921107
0.10185653 0.0315058 0.030079758 0.012888173 0.009703438 0.015194503 0.06791474 -0.03990822
-0.026792858 -0.061724227 -0.036112353 -0.07195828 0.08247659 0.021412509 -0.012672184 0.09543299
0.071914084 -0.05116178 0.0490924 0.09976845 0.09212661 0.0425336 -0.025980158 -0.07802953
0.002492688 0.029480692 0.09207596 0.041193318 0.07834904 0.008766483 0.07438336 -0.00969918
0.04911012 0.044291586 0.07624011 0.06866695 -0.042952776 -0.0020351028 0.047274143 0.09359219
0.05979208 0.052189916 0.04668923 -0.0013757672 0.01803532 0.062202424 -0.05938346 0.008951201
0.041422237 0.06546081 -0.016491866 0.004759147 -0.001595133 -0.017432954 0.057023793 0.03715541
0.030351631 -0.017190797 -0.051492278 0.0039796797 -0.004230288 -0.016215349 0.055989083 0.093413085
0.04043477 -0.015355087 -0.038343165 0.016455136 -0.049624275 -0.053834077 -0.08849458 0.049967002
-0.05629163 0.10826433 0.03190669 0.014048292 0.02765717 0.09952336 0.042508997 0.047177322
0.06915208 0.036504928 -0.02310912 -0.0047024884 0.014333212 -0.0014702582 0.028143942 0.030606402
0.0646871 -0.055956084 0.0028699301 0.0061354013 -0.029878786 0.004864013 -0.07764231 -0.008375917
00000000: b684 4b3d b110 45bd 0e05 55bd 074c b23d
00000010: 221e 533c 16d1 3e3d 63c2 473d 25e2 4bbd
00000020: fe89 333d b927 f43c 6eb2 cc3d c97e ab3b
00000030: 30f7 b83d 4525 4e3d cc3c bebd 6c7c d0bc
00000040: 7133 14bd af30 a53d e0f8 4fbd 5686 f6bc
00000050: 8c21 b33d 8bc5 b3bd 27ce 903c bd8a 7a3d
00000060: 74af 51bd fa63 47bd 71a7 d5bc 96da 873d
00000070: 0b06 25bd 9aec 483d 0cb9 d53c 6a39 a23d
00000080: 289a d03d 3a0c 013d d369 f63c ea28 533c
00000090: 2bfb 1e3c 5df2 783c e216 8b3d cd76 23bd
000000a0: b27c dbbc 8bd2 7cbd 8cea 13bd dd5e 93bd
000000b0: 7de9 a83d 4969 af3c fe9e 4fbc 5f72 c33d
000000c0: b147 933d 048f 51bd 1d15 493d 6753 cc3d
000000d0: e0ac bc3d b637 2e3d 57d4 d4bc f2cd 9fbd
000000e0: 5d5c 233b 7e81 f13c 5292 bc3d 53ba 283d
000000f0: 7675 a03d 4ba1 0f3c 4e56 983d 4fe9 1ebc
00000100: b127 493d 186b 353d c623 9c3d 42a1 8c3d
00000110: 40ef 2fbd 5c5f 05bb 88a2 413d 43ad bf3d
00000120: 8ae8 743d 18c5 553d 353d 3f3d 1653 b4ba
00000130: cfbe 933c f8c7 7e3d 123c 73bd 0fa8 123c
00000140: 5daa 293d 5110 863d f319 87bc 9ef2 9b3b
00000150: c813 d1ba 8ecf 8ebc c891 693d 4530 183d
00000160: fca3 f83c b7d3 8cbc 91e9 52bd f967 823b
00000170: 3a9e 8abb 0dd6 84bc cf54 653d 5c4f bf3d
00000180: ee9e 253d e793 7bbc b90d 1dbd eccc 863c
00000190: d342 4bbd 1f81 5cbd a53c b5bd 33aa 4c3d
000001a0: 0d92 66bd b0b9 dd3d 97b0 023d cf2a 663c
000001b0: 4a91 e23c e7d2 cb3d ea1d 2e3d 023d 413d
000001c0: 9b9f 8d3d 3186 153d 564f bdbc 5517 9abb
000001d0: d9d5 6a3c aeb5 c0ba 208e e63c 47ba fa3c
000001e0: ac7a 843d 3532 65bd 7015 3c3b 7a0b c93b
000001f0: 5bc4 f4bc 4c62 9f3b ee02 9fbd 243b 09bc

post.2.weight f4 [128, 128]
0.019794794 -0.021773526 0.006251965 0.06916685 0.094343744 0.007770246 0.09720293 0.078106366
-0.056674458 -0.07053826 0.029716913 0.11018868 0.088822015 0.0709016 0.015118449 0.047146313
-0.015799109 0.01185641 -0.055098712 0.095031485 0.0741723 -0.06435769 0.09034492 0.056526735
0.081060715 -0.05179248 0.08169508 -0.007858173 0.088402815 0.08346908 0.08112138 -0.0037123829
0.08955965 -0.025172984 0.04785602 -0.05316657 0.038189687 0.07955593 0.08355362 0.016104924
-0.07844152 0.064918846 -0.043694243 -0.058732715 -0.0020743436 -0.05956886 0.080728896 0.015248203
-0.06484413 0.021456389 0.07842432 0.036973476 0.013398133 0.005522709 0.06570402 -0.050597165
-0.028751712 0.011508869 0.068829395 0.051971372 -0.04886911 -0.034565765 -0.04862537 0.09879592
-0.0036587436 -0.02193937 0.009596333 -0.055589784 0.065138444 -0.029107688 -0.018693928 0.048722763
-0.016763365 -0.019481292 0.07908782 0.00067341013 -3.1866275e-05 0.028243814 -0.007446599 -0.018210785
0.10259967 -0.026756246 0.032701485 0.019683352 -0.007436353 -0.062332343 -0.037072763 0.012244935
0.005314415 0.03885704 -0.02033092 0.006745391 0.10213716 0.086271025 0.10223587 -0.028301416
0.011389358 0.022407187 0.06648538 0.085906744 0.0013124447 0.024632612 0.0661201 -0.032484308
0.005278663 0.05492957 -0.022754658 0.021603098 0.08517594 0.040488668 -0.04399982 -0.018614175
-0.06612288 0.029924145 -0.0022946293 0.076114744 -0.041610844 -0.07177549 -0.037505813 0.05957083
-0.03657045 0.035389762 -0.062114507 0.03616554 0.014383666 0.011932032 0.06345816 -0.0065662023
-0.03003322 -0.024453137 -0.04274449 0.018394126 0.0475251 -0.022966422 0.08090427 -0.029206757
0.0065412265 0.052257054 0.0010486167 0.06405582 -0.038344964 -0.026653826 0.08501348 -0.019070044
0.04472764 0.060233615 -0.04385631 -0.017906202 -0.014913611 -0.05071368 0.021026134 -0.046317153
0.010267009 0.0673211 -0.014819112 -0.075606 -0.038696222 -0.0059139514 0.05437202 0.033921134
0.034270592 -0.048367083 0.060747687 0.025947921 -0.013637443 0.006893944 0.04050794 -0.070060484
0.045686357 0.010756098 -0.03684517 -0.004870968 0.017329985 0.04435798 -0.044018608 -0.02081459
-0.004204854 0.04542221 -0.07306406 0.026806539 0.032951895 0.04914841 -0.05546165 0.045396037
0.05222379 -0.024054362 0.018369528 -0.06653591 -0.0063432828 -0.012656309 0.0003706847 -0.013191521
-0.014255568 0.00040112127 -0.07905558 -0.021784699 0.013024531 0.039184935 -0.07814326 -0.046452463
-0.059869472 -0.01879726 0.006971326 0.07168716 0.05653862 -0.080290966 -0.07153678 -0.0005138225
-0.08188177 0.03806945 -0.03665225 -0.04185437 -0.02961265 -0.022251375 -0.051833425 -0.03903463
0.056927685 0.068066634 0.041487966 -0.05574521 -0.027489053 -0.070966154 0.060162187 -0.08153594
0.065810196 0.06341303 -0.070726916 -0.054514818 -0.08519765 -0.062003445 -0.050088406 -0.026268832
-0.013155916 -0.05632184 0.055504274 0.03477166 -0.05714532 -0.049604673 0.018426515 -0.045849245
-0.048835456 -0.042590924 0.047110878 0.05935641 -0.020645753 0.08722224 0.054384105 -0.03845181
0.058872573 -0.040140707 0.07529471 -0.030873261 -0.016365923 -0.00239547 0.08461075 0.030370248
00000000: b128 a23c 655e b2bc 49dd cc3b 59a7 8d3d
00000010: 4b37 c13d 8c9d fe3b 5412 c73d 3bf6 9f3d
00000020: 7a23 68bd 5d76 90bd e270 f33c 9aaa e13d
00000030: 51e8 b53d dc34 913d 5fb3 773c 7e1c 413d
00000040: 226d 81bc 6341 423c 30af 61bd de9f c23d
00000050: a6e7 973d f7cd 83bd c206 b93d 9488 673d
00000060: 2903 a63d 5a24 54bd c04f a73d 91bf 00bc
00000070: 890c b53d d6f1 aa3d f722 a63d 734b 73bb
00000080: 0d6b b73d 9337 cebc ad04 443d 30c5 59bd
00000090: ca6c 1c3d 38ee a23d 291e ab3d 79ee 833c
000000a0: f3a5 a0bd 2cf4 843d bcf8 32bd b791 70bd
000000b0: b6f1 07bb 7afe 73bd 3155 a53d 99d3 793c
000000c0: 00cd 84bd 4fc5 af3c ee9c a03d 8071 173d
000000d0: d883 5b3c d7f7 b43b d48f 863d f93e 4fbd
000000e0: b688 ebbc b28f 3c3c 6df6 8c3d efdf 543d
000000f0: fa2a 48bd d594 0dbd 652b 47bd 8455 ca3d
00000100: 88c7 6fbb 32ba b3bc f039 1d3c 1db2 63bd
00000110: 4e67 853d 3f73 eebc 0224 99bc 8591 473d
00000120: 5353 89bc 3b97 9fbc ccf8 a13d ca87 303a
00000130: 27a8 05b8 925f e73c 9a02 f4bb c92e 95bc
00000140: c71f d23d ea2f dbbc fef1 053d fb3e a13c
00000150: a6ac f3bb 3350 7fbd 9cd9 17bd fb9e 483c
00000160: 8b24 ae3b 8f28 1f3d 088d a6bc 7108 dd3b
00000170: 4a2d d13d ddae b03d 0a61 d13d 5fd8 e7bc
00000180: 6e9a 3a3c 478f b73c 7d29 883d e0ef af3d
00000190: 5606 ac3a 55ca c93c fa69 873d 440e 05bd
000001a0: a2f8 ac3b d4fd 603d fa67 babc fbf8 b03c
000001b0: b970 ae3d 72d7 253d 2839 34bd c17c 98bc
000001c0: 6f6b 87bd 7b23 f53c 7e61 16bb 0ce2 9b3d
000001d0: 2270 2abd 07ff 92bd b29f 19bd 8b00 743d
000001e0: e5ca 15bd dbf4 103d c86b 7ebd 5122 143d
000001f0: 78a9 6b3c 927e 433c 5af6 813d 4c29 d7bb
00000200: 3a08 f6bc f251 c8bc d914 2fbd 47af 963c
00000210: aea9 423d 1424 bcbc 23b1 a53d 0243 efbc
00000220: c957 d63b 7e0b 563d bd71 893a b32f 833d
00000230: 9c0f 1dbd 2059 dabc 8c1b ae3d c838 9cbc
00000240: 5434 373d 86b7 763d ada2 33bd 07b0 92bc
00000250: 3858 74bc 26b9 4fbd 003f ac3c 0eb7 3dbd
00000260: f536 283c a5df 893d dccb 72bc 52d7 9abd
00000270: ee7f 1ebd d2c9 c1bb 32b5 5e3d e3f0 0a3d
00000280: 525f 0c3d 901c 46bd 91d2 783d bc90 d43c
00000290: 956f 5fbc 98e6 e13b a7eb 253d df7b 8fbd
000002a0: 9e21 3b3d 583a 303c f6ea 16bd a49c 9fbb
000002b0: 9df7 8d3c b7b0 353d db4c 34bd 5c83 aabc
000002c0: dfc8 89bb a40c 3a3d 9ca2 95bd 6399 db3c
000002d0: 91f8 063d d84f 493d c12b 63bd 32f1 393d
000002e0: 9de8 553d a70d c5bc b17b 963c fb43 88bd
000002f0: 50db cfbb 685c 4fbc 7558 c239 4021 58bc
00000300: 3090 69bc 964d d239 e4e7 a1bd d375 b2bc
00000310: d864 553c 6280 203d 9309 a0bd f044 3ebd
00000320: b139 75bd b6fc 99bc b96f e43b b8d0 923d
00000330: 0a95 673d 976f a4bd e081 92bd 0bb2 06ba
00000340: a1b1 a7bd b6ee 1b3d ab20 16bd 7d6f 2bbd
00000350: 3a96 f2bc 8448 b6bc 494f 54bd c7e2 1fbd
00000360: 012d 693d 8566 8b3d 49ef 293d 1755 64bd
00000370: b930 e1bc b456 91bd a06c 763d 51fc a6bd
00000380: 7fc7 863d b1de 813d 46d9 90bd ee4a 5fbd
00000390: 1b7c aebd 53f7 7dbd 8029 4dbd bc31 d7bc
000003a0: e98b 57bc bbb1 66bd 7358 633d ba6c 0e3d
000003b0: 3611 6abd 452e 4bbd 34f3 963c 6bcc 3bbd
000003c0: b007 48bd d273 2ebd 56f7 403d b51f 733d
000003d0: 4821 a9bc 93a1 b23d dec1 5e3d a57f 1dbd
000003e0: 5e24 713d 956a 24bd 1d34 9a3d ece9 fcbc
000003f0: d411 86bc 51fd 1cbb 6748 ad3d 07cb f83c

post.2.bias f4 [128]
0.026989732 -0.068788916 -0.06798358 -0.025998184 -0.06500709 -0.035157673 -0.06099549 -0.055968873
-0.0026269616 -0.038542397 0.0863754 0.08065102 0.03603394 0.010546274 -0.036169995 0.056434263
-0.039913334 0.024792546 0.08850379 0.0034610354 -0.017772434 -0.03938801 -0.06110705 -0.0024948535
-0.07917213 0.0014500597 0.05869183 -0.04222616 0.10613715 -0.013933413 -0.06307629 0.01585823
-0.04987566 -0.020934427 -0.06543884 0.0780483 -0.014820591 0.0774491 0.06936418 -0.0055018514
0.029906668 0.018646244 0.014889151 0.067374974 -0.06151466 0.015742786 0.032694153 -0.009348029
0.09455896 0.06856614 -0.049681757 0.07793728 -0.03959566 0.05933249 -0.07225075 -0.060935274
0.053305637 0.011833034 -0.028206673 -0.06487826 0.019385517 0.007338011 0.02774611 -0.06446717
0.071423784 0.0012674537 0.057461698 0.06657014 0.1006242 0.010773634 0.033126645 0.036493074
-0.0804543 0.061124 -0.023615215 -0.08521767 0.08967312 0.029303132 0.0100637935 0.005365651
-0.06322965 -0.029378342 -0.06753685 0.08119037 0.031984705 0.040361337 -0.021990146 0.025914293
-0.026527602 0.01826777 0.015328531 0.014518153 -0.036308035 -0.026003145 -0.010364654 -0.019885082
-0.05397732 -0.047093794 0.100105055 -0.04701513 -0.018508028 0.046497464 0.10594555 0.10122214
-0.003943807 -0.05404768 0.051671125 0.0020620364 0.01561567 0.037740465 0.10486806 -0.0663466
0.06418114 0.018128052 -0.04995374 0.098462574 -0.056829922 0.010009238 -0.032888137 0.031391043
-0.020193245 0.023306794 -0.035468638 0.05339218 0.04219032 -0.019243127 0.050012134 0.011861706
00000000: 9219 dd3c 34e1 8cbd fa3a 8bbd 25fa d4bc
00000010: 7022 85bd 7e01 10bd 68d6 79bd 9e3f 65bd
00000020: 1a29 2cbb a2de 1dbd 96e5 b03d 5d2c a53d
00000030: 5398 133d 47ca 2c3c fd26 14bd 9d27 673d
00000040: 2a7c 23bd bd19 cb3c 7a41 b53d 8ad2 623b
00000050: 7f97 91bc 5255 21bd 634b 7abd b280 23bb
00000060: ff24 a2bd ee0f be3a d866 703d 57f5 2cbd
00000070: 6f5e d93d f848 64bc 242e 81bd 1ee9 813c
00000080: 6c4a 4cbd ad7e abbc cc04 86bd cad7 9f3d
00000090: 10d2 72bc a29d 9e3d cf0e 8e3d e048 b4bb
000000a0: d4fe f43c 02c0 983c a0f1 733c e4fb 893d
000000b0: ccf6 7bbd 04f7 803c 4eea 053d 7a28 19bc
000000c0: 21a8 c13d 686c 8c3d 197f 4bbd 959d 9f3d
000000d0: 0f2f 22bd a006 733d 34f8 93bd 4497 79bd
000000e0: 0357 5a3d 58df 413c ae11 e7bc e5de 84bd
000000f0: 60ce 9e3c b373 f03b cf4b e33c 5d07 84bd
00000100: a246 923d b020 a63a f55c 6b3d ed55 883d
00000110: 1014 ce3d e583 303c ceaf 073d c379 153d
00000120: 39c5 a4bd 295d 7a3d b274 c1bc 9a86 aebd
00000130: 8aa6 b73d 1f0d f03c 9ce2 243c 58d2 af3b
00000140: 8c7e 81bd d9aa f0bc c350 8abd 2347 a63d
00000150: 6502 033d ee51 253d ae24 b4bc 364a d43c
00000160: 6a50 d9bc 4aa6 953c 8524 7b3c 8cdd 6d3c
00000170: bcb7 14bd 8c04 d5bc 82d0 29bc 0ae6 a2bc
00000180: 5317 5dbd 6ce5 40bd e103 cd3d f092 40bd
00000190: 269e 97bc 2074 3e3d fbf9 d83d 8e4d cf3d
000001a0: 0d3b 81bb 1a61 5dbd 1aa5 533d 3b23 073b
000001b0: ded8 7f3c bf95 1a3d 11c5 d63d bae0 87bd
000001c0: 6771 833d 4881 943c 4b9c 4cbd bfa6 c93d
000001d0: 7ec6 68bd c9fd 233c b6b5 06bd e593 003d
000001e0: 4e6c a5bc e4ed be3c 9047 11bd c2b1 5a3d
000001f0: c2cf 2c3d c3a3 9dbc 86d9 4c3d 9a57 423c

lstm.weight_ih_l0 f4 [512, 128]
0.084307805 0.06420734 0.057063863 -0.011426713 0.07599068 -0.027923418 -0.015195876 -0.059127707
0.062898606 0.063837565 -0.03225375 -0.0022311513 0.055365164 0.03442271 -0.027438585 0.017648915
-0.034017265 -0.07160268 -0.047996484 -0.056269802 -0.061304584 -0.062051047 0.024194775 0.041116837
0.04428416 -0.035956744 0.1024164 -0.016081136 0.088113576 0.07824683 0.034009136 0.036645636
0.020227598 0.043073006 0.06684345 -0.02148801 0.07729825 -0.06849046 0.07161327 0.044431992
0.016108677 0.10159253 -0.023655929 0.008372838 0.07827163 0.07522055 0.071384974 -0.028515646
0.09013697 0.0834762 -0.04590451 0.07042826 0.047326885 0.040723007 0.07241296 0.048747066
0.09082963 0.0800714 0.068366684 0.09655075 0.069041915 0.08499006 -0.07021525 0.033752453
0.037569184 -0.02611145 0.028773649 -0.049832493 0.080193594 0.042875048 -0.036675587 0.03104709
0.041957602 0.05084782 -0.017994165 -0.06365468 0.01512713 0.033445418 -0.012679143 0.043698143
0.005320385 -0.026034879 -0.06417653 -0.035531398 0.0100306785 -0.00090194494 -0.022514794 0.025451064
-0.058782928 0.025461044 -0.054009426 0.0019703964 0.0031946036 0.056606226 -0.025459584 -0.05688428
0.0003329276 0.025777329 -0.013365041 -0.020628247 0.006507297 0.020600433 0.009017649 0.10505163
-0.02215643 -0.024081146 -0.08383639 -0.08105642 0.08691803 -0.041363772 0.022495149 -0.07941014
-0.042441368 -0.0121845305 -0.08318663 -0.012687683 0.038457975 0.030037986 0.06367927 -0.054979444
0.06275354 0.025457568 0.079507224 -0.030483471 -0.07052859 -0.044112936 0.074155666 -0.034721408
0.03667755 -0.02340891 0.01854772 0.052586094 -0.07503325 0.07848288 0.030344538 0.08296286
0.030953145 -0.05153334 -0.0631389 -0.0033783321 -0.020801628 -0.059751824 0.048250362 -0.060397953
0.061102524 -0.040011384 -0.003918363 0.023847904 0.07132767 0.0074915863 0.07474316 0.028174054
0.08458406 0.08848537 0.028026707 0.059160545 -0.06868935 0.0645476 -0.06469558 -0.024482392
0.08614282 0.0059090704 0.026906364 0.049384963 0.039654993 -0.01523874 -0.082272224 0.07277403
-0.00801782 0.009848752 -0.052135754 0.0014558815 0.070895396 0.04279446 0.054256327 0.070609175
0.03927885 0.031970765 -0.061147783 0.035901118 -0.071664475 0.03708576 -0.047720544 -0.0219778
0.07311539 0.07631456 0.038308375 0.03181014 0.048245795 -0.021668263 -0.011373373 0.07492992
-0.0045725247 0.049945686 0.07448054 -0.04834194 0.0897709 -0.026171701 -0.07592542 0.03846672
-0.029293727 0.026534922 0.0873394 -0.06684898 -0.024907317 -0.08946972 -0.0145327635 -0.053670138
0.00057144463 0.041882705 0.060256414 -0.011668439 0.092258066 -0.013666935 0.05945043 0.016645238
0.06331527 0.08460206 -0.0016689228 0.04988306 -0.0035690318 -0.027267482 0.092130475 0.075856276
0.074374676 0.045017317 0.01815631 -0.060680233 -0.03829472 0.009005132 0.0742912 -0.07292976
0.050904416 -0.05166425 0.015911974 0.069128215 -0.06460747 -0.062019765 0.01835327 -0.016465362
0.07926318 -0.048068058 0.019156046 -0.06512963 -0.023191117 -0.021440625 -0.056471605 0.081606075
-0.011850318 0.081512846 -0.060001057 0.0050832583 0.047958218 0.02351792 -0.051911566 0.050032023
00000000: 92a9 ac3d 237f 833d ccbb 693d 1c37 3bbc
00000010: 00a1 9b3d a7bf e4bc 20f8 78bc e52f 72bd
00000020: fcd0 803d 45bd 823d 821c 04bd 8238 12bb
00000030: 95c6 623d d4fe 0c3d e2c6 e0bc 7594 903c
00000040: b055 0bbd 6da4 92bd f697 44bd 2a7b 66bd
00000050: 841a 7bbd 3d29 7ebd 1f34 c63c 216a 283d
00000060: 4f63 353d 6147 13bd b1bf d13d 96bc 83bc
00000070: e474 b43d e03f a03d 2a4d 0b3d bc19 163d
00000080: 59b4 a53c 526d 303d 38e5 883d a007 b0bc
00000090: 8b4e 9e3d ba44 8cbd faa9 923d 52fe 353d
000000a0: 58f6 833c bf0f d03d 14ca c1bc 3a2e 093c
000000b0: e04c a03d 3b0d 9a3d 4932 923d a599 e9bc
000000c0: bb99 b83d 92f5 aa3d 5e06 3cbd b13c 903d
000000d0: d6d9 413d 2bcd 263d 3f4d 943d 01ab 473d
000000e0: e304 ba3d 79fc a33d d503 8c3d 66bc c53d
000000f0: d965 8d3d 450f ae3d 03cd 8fbd 0340 0a3d
00000100: 25e2 193d aee7 d5bc b7b6 eb3c 281d 4cbd
00000110: 8a3c a43d bf9d 2f3d 2439 16bd 7856 fe3c
00000120: bcdb 2b3d ce45 503d 8068 93bc 635d 82bd
00000130: c8d7 773c 10fe 083d 2ebc 4fbc d3fc 323d
00000140: a056 ae3b 1947 d5bc fc6e 83bd 5f89 11bd
00000150: b757 243c 8070 6cba f270 b8bc c07e d03c
00000160: 5ec6 70bd ae93 d03c fd38 5dbd c421 013b
00000170: 8e5c 513b eedb 673d 9e90 d0bc 7eff 68bd
00000180: c98c ae39 fa2a d33c 0cf9 5abc 92fc a8bc
00000190: 2a3b d53b 3dc2 a83c c3be 133c 4f25 d73d
000001a0: 6781 b5bc d345 c5bc 6ab2 abbd e900 a6bd
000001b0: 1502 b23d 0f6d 29bd bf47 b83c c9a1 a2bd
000001c0: 00d7 2dbd a0a1 47bc c05d aabd 00e0 4fbc
000001d0: 1c86 1d3d 3912 f63c 476a 823d 2032 61bd
000001e0: ee84 803d 648c d03c afd4 a23d 79b8 f9bc
000001f0: 4b71 90bd c4af 34bd edde 973d 0938 0ebd
00000200: 333b 163d 0bc4 bfbc 63f1 973c 8464 573d
00000210: 08ab 99bd a2bb a03d 1c95 f83c 6fe8 a93d
00000220: 7391 fd3c a014 53bd f84e 81bd 0267 5dbb
00000230: 2d68 aabc 54be 74bd 2ca2 453d d863 77bd
00000240: a446 7a3d fae2 23bd 9c65 80bb ae5c c33c
00000250: 3e14 923d fb7b f53b f112 993d 46cd e63c
00000260: 683a ad3d d137 b53d 4498 e53c 5452 723d
00000270: 00ad 8cbd 8831 843d 1e7f 84bd 4c8f c8bc
00000280: a66b b03d e0a0 c13b bc6a dc3c e347 4a3d
00000290: 466d 223d e8ab 79bc 577e a8bd 8d0a 953d
000002a0: 2d5d 03bc a95c 213c 4d8c 55bd 47d3 be3a
000002b0: 9b31 913d 3e49 2f3d e23b 5e3d 8b9b 903d
000002c0: dce2 203d c7f3 023d 1976 7abd 0d0d 133d
000002d0: d3c4 92bd 3de7 173d 9e76 43bd ca0a b4bc
000002e0: 86bd 953d cf4a 9c3d 3ee9 1c3d 594b 023d
000002f0: 629d 453d a481 b1bc 6257 3abc dc74 993d
00000300: 1ed5 95bb d993 4c3d 4189 983d 3302 46bd
00000310: ced9 b73d 0966 d6bc c97e 9bbd 488f 1d3d
00000320: 66f9 efbc c45f d93c 00df b23d 1ee8 88bd
00000330: 6e0a ccbc e73b b7bd d41a 6ebc 38d5 5bbd
00000340: 00cd 153a 338d 2b3d 6ecf 763d fb2c 3fbc
00000350: ccf1 bc3d 48eb 5fbc 4b82 733d 985b 883c
00000360: 70ab 813d d843 ad3d c2bf daba 2e52 4c3d
00000370: 6be6 69bb 0e60 dfbc e7ae bc3d 895a 9b3d
00000380: c051 983d 1464 383d 8bbc 943c d68b 78bd
00000390: edda 1cbd 438a 133c fc25 983d 335c 95bd
000003a0: 2681 503d e59d 53bd d459 823c 1893 8d3d
000003b0: ec50 84bd 7008 7ebd 9959 963c 5ee2 86bc
000003c0: bc54 a23d 03e3 44bd 24ed 9c3c af62 85bd
000003d0: 4cfb bdbc 40a4 afbc c54e 67bd 1621 a73d
000003e0: d627 42bc 35f0 a63d abc3 75bd 7691 a63b
000003f0: d66f 443d a7a8 c03c 39a1 54bd 61ee 4c3d
